HML/Decision/GCN_xgboost_1226/state/CASE300_0_32_32_0.001x5_.pth (torch, 62149 bytes, 55 tensors)

eps f4 [4]
0	0x00000000	0.0
1	0x00000000	0.0
2	0x00000000	0.0
3	0x00000000	0.0

weight f4 [32, 8]
0	0xbd585d6a	-0.05282346
1	0x3e2ec336	0.17066655
2	0xbea30708	-0.31841302
3	0xbe51c6e9	-0.20486034
4	0xbe1ab501	-0.1510811
5	0x3d8afd13	0.06786551
6	0xbc24c55c	-0.01005682
7	0x3ea783ac	0.32717645
8	0xbbdec0b3	-0.006797874
9	0x3decde0c	0.115657896
10	0xbdc57e35	-0.09643213
11	0xbd4a2f2a	-0.049361385
12	0xbea4c41b	-0.32180867
13	0xbe51c5e6	-0.20485649
14	0xbe4da808	-0.2008363
15	0x3cada260	0.02119559
16	0x3dc8d3da	0.098060325
17	0x3e660606	0.22463235
18	0xbe58702d	-0.21136542
19	0xbe3f2a90	-0.1866858
20	0x3e2f4e5a	0.17119732
21	0x3e9c30a2	0.30505854
22	0xbd830e0c	-0.063991636
23	0x3e7e8c41	0.2485819
24	0xbc7c5df7	-0.015403262
25	0x3d0f03dd	0.034915794
26	0x3e9622c1	0.2932339
27	0xbea132ea	-0.31484157
28	0xbe7ce1b8	-0.2469548
29	0xbdbaa853	-0.091141365
30	0xbe1d6d9f	-0.15373848
31	0x3eac3ad5	0.33638635
32	0xbe7c5ad8	-0.24644029
33	0xbe3745ee	-0.1789777
34	0xbe94c5de	-0.2905721
35	0xbe9d8436	-0.3076493
36	0xbe285e6a	-0.16442266
37	0x3e81ebbd	0.25375167
38	0x3eaefc85	0.34177032
39	0x3e171b46	0.14756498
40	0xbcdb7746	-0.026790272
41	0xbe275a02	-0.16342929
42	0x3dc51420	0.09622979
43	0xbea37152	-0.31922394
44	0xbe67d00a	-0.22637954
45	0xbe2a78a0	-0.16647577
46	0x3ea62497	0.3244979
47	0x3e5c8765	0.21536024
48	0xbe163987	-0.14670382
49	0xbd3537d2	-0.044242688
50	0x3e377db0	0.1791904
51	0x3eb804ad	0.35941067
52	0x3daf8498	0.08570212
53	0xbbfa4e8b	-0.0076387576
54	0x3ee05d2e	0.4382109
55	0xbe3cdaa8	-0.18442786
56	0x3dfc2edd	0.12313626
57	0xbeac80f5	-0.33692136
58	0xbe92978d	-0.2863125
59	0xbe4059a0	-0.18784189
60	0x3e2be798	0.16787565
61	0x3d813d7b	0.063105546
62	0xbe1b32c1	-0.1515608
63	0x3d88f015	0.06686417
64	0x3e356adf	0.1771655
65	0xbd63ceea	-0.05561725
66	0x3d046050	0.032318413
67	0x3d8cc6ad	0.06873832
68	0x3e8d1f82	0.275631
69	0x3ecace2f	0.3961043
70	0xbe56a203	-0.2096024
71	0xbe06c0b9	-0.13159455
72	0x3e2e290a	0.17007843
73	0x3e97ddba	0.2966135
74	0x3e8fa509	0.280556
75	0x3e94ea13	0.29084834
76	0x3d814806	0.063125655
77	0xbeaf6c27	-0.342622
78	0x3cc9a352	0.02461401
79	0xbe6551d9	-0.22394504
80	0xbe9daf17	-0.30797645
81	0x3ea00768	0.3125565
82	0x3e9a165e	0.3009519
83	0xbeb8c54d	-0.3608803
84	0x3d761627	0.06007972
85	0xbd53c0f9	-0.051697705
86	0xbd8988a2	-0.06715514
87	0xbe443ce2	-0.1916385
88	0x3de9fd78	0.114252985
89	0xbe852117	-0.26001808
90	0x3e356693	0.1771491
91	0x3e016568	0.1263634
92	0x3e5705e4	0.20998341
93	0x3db9cb0d	0.09071932
94	0xbed09209	-0.40736416
95	0xbe4fdf7e	-0.20300099
96	0x3e5e6cae	0.21721146
97	0x3d828e2b	0.06374773
98	0xbea77d63	-0.3271285
99	0xbe5a1e8d	-0.21300717
100	0x3e8bd6a8	0.27312207
101	0x3e4de9c2	0.20108703
102	0xbe2af435	-0.1669472
103	0xbdcbb417	-0.09946459
104	0xbeba4098	-0.36377406
105	0xbc85681f	-0.016285
106	0xbe8e3c39	-0.2778032
107	0xbe5eee7d	-0.21770664
108	0xbd0f3f78	-0.034972638
109	0x3dbd3584	0.09238723
110	0xbe2ec0d2	-0.17065743
111	0x3e456a1e	0.19278762
112	0xbe3fc409	-0.18727125
113	0x3eb4303d	0.35193053
114	0x3e85aebb	0.2610987
115	0xbe8c123a	-0.27357656
116	0xbdb776a1	-0.089581735
117	0x3bdcd4ec	0.0067392495
118	0xbb17a870	-0.0023141168
119	0x3de5fc48	0.112297595
120	0x3e2e348d	0.17012234
121	0x3d2b838d	0.041873503
122	0xbe264172	-0.16235903
123	0x3e26601d	0.16247602
124	0xbeb6f386	-0.3573267
125	0xbe36e342	-0.1786013
126	0xbe0911c2	-0.1338568
127	0xbe02e4a4	-0.12782532
128	0xbe1a602a	-0.15075746
129	0xbe9b44d6	-0.30325955
130	0xbd41d35c	-0.04732071
131	0x3d5a3b62	0.053279288
132	0xbe241497	-0.1602348
133	0x3cb203eb	0.021730384
134	0x3ebfce46	0.37462062
135	0xbd9d26f7	-0.076734476
136	0xbd4aea7c	-0.049540028
137	0xbd80a341	-0.06281138
138	0xbb75543a	-0.0037434236
139	0x3e5f7df1	0.21825387
140	0x3e92bb2e	0.28658432
141	0x3ddd8d56	0.10817973
142	0x3f020d11	0.5080119
143	0xbb996746	-0.0046815006
144	0xbe9d2b8d	-0.3069729
145	0xbe363624	-0.1779409
146	0x3e856c8f	0.26059386
147	0xbd141ffa	-0.036163308
148	0xbe08a8ce	-0.13345644
149	0xbeaa2417	-0.3323066
150	0xbeb54ad9	-0.35408667
151	0xbe6cbd16	-0.23119006
152	0xbdcd02cf	-0.10010301
153	0x3e5c2497	0.21498333
154	0x3e862927	0.26203272
155	0xbea24bb4	-0.31698382
156	0x3e87aeb9	0.2650049
157	0xbe5c314a	-0.21503177
158	0xbc9608d5	-0.018314758
159	0xbe3a43bc	-0.18189901
160	0xbdaa6827	-0.08320647
161	0xbd9acd70	-0.07558715
162	0xbe933c4f	-0.2875695
163	0xbe9715bb	-0.29508767
164	0xbd4cabca	-0.04996852
165	0x3c9558e9	0.018230872
166	0xbe7c4c6f	-0.24638532
167	0x3e0e65e2	0.13906053
168	0xbea003c3	-0.3125287
169	0xbd2404ec	-0.040043756
170	0x3ec72d33	0.38901672
171	0xbe2e33b7	-0.17011915
172	0x3e96e3e6	0.29470748
173	0x3e276fd4	0.16351253
174	0xbea4fc3c	-0.3222369
175	0x3e416298	0.18885267
176	0xbd7e25fc	-0.062047943
177	0xbda8ff90	-0.0825187
178	0x3e6befbd	0.23040672
179	0xbe506c1e	-0.20353743
180	0x3c8d9d66	0.017286967
181	0xbdc207b0	-0.094741225
182	0x3ec7bdcd	0.39011994
183	0x3e1d4b3a	0.15360728
184	0x3dd3e813	0.10346999
185	0x3da10896	0.07862966
186	0xbdbe9c5a	-0.093071654
187	0xbdc797b2	-0.097457305
188	0xbe7b6f6b	-0.24554221
189	0x3e3c92e0	0.18415403
190	0x3ec148af	0.37750766
191	0x3e691933	0.22763519
192	0xbe73aeda	-0.2379717
193	0xbbb88d6c	-0.005632093
194	0xbe69f5ce	-0.22847673
195	0xbe48f4c2	-0.19624618
196	0xbe6957be	-0.22787377
197	0x3e0916ff	0.13387679
198	0xbe77fb09	-0.24216856
199	0xbb59efcd	-0.0033254505
200	0xbb57fe59	-0.0032958
201	0x3e6a7db5	0.22899516
202	0xbe8b4708	-0.2720263
203	0xbe6cc17d	-0.23120685
204	0xbe550353	-0.2080205
205	0x3e69fdb2	0.22850683
206	0xbe10bd04	-0.14134604
207	0x3e9fafd6	0.3118884
208	0x3e1681d9	0.1469797
209	0xbb3847d0	-0.0028118975
210	0xbc629221	-0.013828785
211	0xbe0f4c1b	-0.13993876
212	0x3d189ca7	0.03725877
213	0xbd8de2cc	-0.06928024
214	0xbcdba011	-0.026809724
215	0x3c9a585f	0.018840967
216	0xbe8cc31e	-0.27492613
217	0xbe432f9f	-0.19061135
218	0x3e8b4e34	0.27208102
219	0xbe96b6c0	-0.29436302
220	0xbca07e81	-0.019591572
221	0x3ea5b7e3	0.32366857
222	0x3e9608c4	0.29303563
223	0xbae9ead0	-0.0017846469
224	0xbe8795e2	-0.2648154
225	0x3e329add	0.17441888
226	0xbe85d89e	-0.26141828
227	0xbce32cb6	-0.02773128
228	0xbde5eb09	-0.1122647
229	0xbd2e977f	-0.042624947
230	0x3bdf4c00	0.00681448
231	0x3eb6f2ab	0.35732016
232	0x3c17b5d3	0.009259659
233	0x3ea6e2af	0.3259482
234	0x3e900541	0.28129008
235	0xbe6d479b	-0.23171847
236	0x3e7c6a88	0.24650013
237	0xbe3cc74a	-0.18435398
238	0xbdc8051a	-0.09766598
239	0x3decdcf6	0.115655825
240	0x3e03f5ef	0.12886785
241	0x3e7446a2	0.2385507
242	0xbe20801c	-0.1567387
243	0x3d45e708	0.04831603
244	0x3e1db428	0.15400755
245	0xbe964f17	-0.29357216
246	0x3e97395d	0.29535952
247	0xbec302b7	-0.3808801
248	0x3d0b451a	0.034001447
249	0xbd479bd0	-0.04873258
250	0xbe3675d7	-0.1781839
251	0x3d7041e8	0.058656603
252	0x3e9767e3	0.29571447
253	0xbdc6c79a	-0.0970604
254	0xbe57291e	-0.21011779
255	0xbe2bfd1b	-0.16795771

bias f4 [32]
0	0xbeb30ad5	-0.34969202
1	0x3e226e7c	0.15862459
2	0xbe2cfd0f	-0.16893409
3	0xbe72d295	-0.23713143
4	0xbe528bda	-0.20561162
5	0x3e4c779d	0.19967504
6	0x3e3d6648	0.18496048
7	0x3e8b2b19	0.27181318
8	0x3e057fa1	0.13036968
9	0xbde8516f	-0.11343657
10	0xbdc9c116	-0.09851281
11	0x3dd283c8	0.102790415
12	0x3e946311	0.28981832
13	0x3dc05712	0.09391607
14	0xbe270890	-0.1631186
15	0xbe25348a	-0.16133323
16	0xbeb06304	-0.34450543
17	0x3d917244	0.071018726
18	0xbe4c39d3	-0.19943933
19	0xbea259b3	-0.3170906
20	0x3e9ee41b	0.31033406
21	0xbe6c8bb7	-0.23100172
22	0xbd2f30bf	-0.042771097
23	0x3dd3e89c	0.10347101
24	0x3c45d7ae	0.012075348
25	0xbe7c3ba2	-0.24632123
26	0xbe9372c4	-0.28798497
27	0x3e94be9c	0.29051673
28	0x3d498f30	0.04920882
29	0x3e95554c	0.2916664
30	0xbe017e4d	-0.12645836
31	0x3dd4f05a	0.10397406

weight f4 [32, 32]
0	0xbd8c6bdc	-0.0685651
1	0xbcda9842	-0.02668393
2	0xbdf8f088	-0.12155253
3	0x3d312cfb	0.043255787
4	0x3da02ff0	0.07821643
5	0xbc4dc6f1	-0.012559638
6	0xbd44fd1b	-0.048092943
7	0xbdf0df83	-0.117613815
8	0x3e2712cf	0.16315769
9	0xbdc82dc3	-0.09774353
10	0x3db91467	0.090370946
11	0xbd6160c8	-0.05502394
12	0xbd85b303	-0.065282844
13	0x3bcf6678	0.006329354
14	0xbd82682a	-0.06367524
15	0x3cbf548c	0.023355745
16	0x3cf76a12	0.030201945
17	0xbde15e0e	-0.11004268
18	0xbc71c24e	-0.0147557985
19	0x3d8f406e	0.06994711
20	0x3d678637	0.05652448
21	0xbc182497	-0.009286067
22	0xbde2e39f	-0.110785715
23	0xbd03e87d	-0.03220414
24	0x3d7ae316	0.061251722
25	0xbdd79c9c	-0.10527918
26	0x3d9406e5	0.072278775
27	0x3e2a4209	0.16626753
28	0xbe02f773	-0.12789707
29	0xbcc3c40c	-0.023897193
30	0x3e004268	0.12525332
31	0x3b61e39a	0.0034467936
32	0x3b52d5bf	0.003217086
33	0x3c92b249	0.017907279
34	0xbe3231fe	-0.17401883
35	0x3b804bab	0.0039152703
36	0x3e0c7125	0.13715036
37	0x3e1e036b	0.15430991
38	0x3e81270a	0.25225097
39	0xbd4006bb	-0.04688142
40	0x3d68147e	0.056660168
41	0xbd1eec7e	-0.038799755
42	0xbe0bb330	-0.13642573
43	0xbe45ba96	-0.19309458
44	0x3e38d090	0.1804831
45	0x3db3b425	0.08774594
46	0xbdd35b17	-0.103201084
47	0x3d7958da	0.06087575
48	0x3e243ddf	0.16039227
49	0x3e9efd49	0.31052616
50	0x3dd41967	0.103564076
51	0x3e18b1ab	0.14911525
52	0xbd885a7a	-0.06657882
53	0xbda95f7a	-0.08270164
54	0x3e39a89e	0.18130729
55	0x3dd64ab9	0.10463471
56	0xbe09118c	-0.133856
57	0x3e0c63f7	0.13710009
58	0x3da0632a	0.07831414
59	0x3d992cb5	0.0747923
60	0xbdf3641a	-0.11884327
61	0x3cf9aeac	0.030478798
62	0xbd10eb3e	-0.035380594
63	0x3e0b6d3e	0.13615891
64	0xbd1c0f7e	-0.038100712
65	0x3dabd932	0.08391036
66	0x3d4a8871	0.049446527
67	0x3cbe7bf4	0.023252465
68	0xbdaebd20	-0.085321665
69	0x3d8347ee	0.06410204
70	0xbe1aa0d3	-0.15100412
71	0x3dbb659d	0.091502406
72	0xbd9b8a74	-0.07594767
73	0xbe648555	-0.22316487
74	0xbe373a8a	-0.17893425
75	0x3e33725e	0.17524096
76	0x3e0b6970	0.1361444
77	0x3e1a49e5	0.15067251
78	0x3d9fc528	0.078012764
79	0xbe10c089	-0.14135946
80	0xbdf9d7d9	-0.12199373
81	0xbd83e328	-0.06439811
82	0xbdcc1e39	-0.09966702
83	0x3de53f02	0.111936584
84	0xbdf9d8c7	-0.1219955
85	0xbde94363	-0.11389806
86	0xbe696eef	-0.22796224
87	0xbdeb0993	-0.114764355
88	0x3e0f546a	0.13997045
89	0x3df92f1d	0.12167189
90	0x3e04673d	0.12930007
91	0x3df2dc41	0.11858416
92	0x3e222efe	0.15838239
93	0xbd8de01d	-0.06927512
94	0x3daeb081	0.08529759
95	0x3e3ae726	0.18252239
96	0x3d46ccc2	0.048535116
97	0x3e499623	0.19686179
98	0x3d820314	0.06348243
99	0x3df2a5dd	0.11848042
100	0xbd5f8c2e	-0.054577045
101	0x3db9580b	0.09049996
102	0xbd4e21b3	-0.050325107
103	0xbd127201	-0.035753254
104	0xbdb6036f	-0.08887374
105	0xbe328e4e	-0.17437097
106	0xbe0d8039	-0.13818444
107	0x3e1f943e	0.15583894
108	0x3df6e789	0.120558806
109	0x3cba86b4	0.02276931
110	0xbdf65556	-0.12027995
111	0x3e13b255	0.14423497
112	0x3e1045bd	0.14089103
113	0x3d093384	0.033496395
114	0xbd1f8b95	-0.038951475
115	0x3e1f5721	0.15560581
116	0x3dd2cb1a	0.10292645
117	0xbdebce7f	-0.115139954
118	0x3e25789d	0.16159292
119	0x3db6653d	0.089060284
120	0xbd2d3d05	-0.04229452
121	0x3da21425	0.079139985
122	0xbdf62b40	-0.12019968
123	0xbcc1aee5	-0.023642967
124	0x3e53728a	0.20649162
125	0xbd001bdc	-0.03127657
126	0xbe16f64e	-0.14742395
127	0x3c5f56ec	0.013631564
128	0xbd066e87	-0.03282025
129	0xbd2eaa99	-0.042643163
130	0x3d80143b	0.06253859
131	0x3e1a3f84	0.15063292
132	0x3d570f3a	0.052504756
133	0xbe0973c2	-0.13423064
134	0x3dcb8672	0.09937753
135	0x3ddd9a01	0.108203895
136	0x3d6ac0d6	0.05731281
137	0xbe3abfaa	-0.18237177
138	0xbce1346a	-0.027490813
139	0xbe25d726	-0.16195354
140	0xbc8f17cb	-0.0174674
141	0x3dab555f	0.083658926
142	0xbdfe893e	-0.124285206
143	0x3d8e0acf	0.06935655
144	0x3e35af1e	0.17742583
145	0x3ddbfdcb	0.107417665
146	0xbe1dd899	-0.15414657
147	0xbd6c06b6	-0.057623588
148	0x3d58adbc	0.05290006
149	0xbdd72800	-0.10505676
150	0x3db0b9b9	0.08629174
151	0xbdf8c731	-0.12147368
152	0xbe1adac8	-0.15122521
153	0xbe02c5be	-0.12770745
154	0xbca3329d	-0.019921595
155	0x3e0b0bd7	0.13578735
156	0xbe4a857b	-0.19777481
157	0x3e2adb3d	0.16685195
158	0xbd8d86af	-0.069104545
159	0x3d1b59bb	0.03792737
160	0xbb929a28	-0.0044739433
161	0xbe293acf	-0.1652634
162	0x3df322ff	0.11871909
163	0x3dad1d4d	0.08452854
164	0x3e5d13e7	0.21589623
165	0x3df3c8a2	0.11903502
166	0x3cc482ae	0.023988094
167	0x3de8cb01	0.11366845
168	0x3bcd2790	0.0062608197
169	0x3daa4ed5	0.08315817
170	0xbe28fc04	-0.16502386
171	0xbd675505	-0.056477565
172	0xbe0e0992	-0.13870838
173	0xbd4098fc	-0.047020897
174	0x3d8ac2d2	0.0677544
175	0xbe17ac72	-0.14811876
176	0x3dff19c2	0.12456085
177	0x3e414aa4	0.1887613
178	0xbd123043	-0.035690557
179	0xbe260abb	-0.16215031
180	0xbdfca6d6	-0.12336509
181	0xbd6bbbce	-0.05755215
182	0x3df708df	0.12062239
183	0x3e31f469	0.17378391
184	0x3d91d248	0.07120186
185	0xbd8905dd	-0.066905715
186	0x3da53cd1	0.080682404
187	0xbe2f0f86	-0.17095765
188	0xbe13f8b8	-0.14450347
189	0x3db88def	0.09011447
190	0xbd7a3d33	-0.06109352
191	0x3de8d4b8	0.11368698
192	0xbe182ac6	-0.14860067
193	0xbdc9b23b	-0.09848448
194	0xbe1014df	-0.14070462
195	0x3e3aa2c9	0.1822616
196	0xbcf41512	-0.029795203
197	0x3e2042cc	0.15650481
198	0x3da01e2c	0.07818255
199	0x3e4ff80b	0.20309465
200	0xbd961c86	-0.07329659
201	0xbdc6fe93	-0.09716525
202	0xbdbc8359	-0.0920474
203	0xbb76272a	-0.0037559965
204	0x3da9ab3d	0.08284614
205	0xbdfd5f72	-0.123717204
206	0x3de44a6c	0.11147007
207	0xbd425a01	-0.047449116
208	0xbe5af629	-0.21382965
209	0xbe131609	-0.14363874
210	0x3e194af3	0.14969997
211	0x3e103531	0.14082791
212	0xbde62046	-0.112366244
213	0x3dead577	0.114664964
214	0x3c9f3f11	0.019439252
215	0x3d7e7c3f	0.06213021
216	0x3e12ca07	0.1433488
217	0xbdc0ea2a	-0.09419663
218	0x3dab710e	0.08371173
219	0x3d5c57a7	0.05379453
220	0xbdd4543a	-0.103676274
221	0x3d1fc4a9	0.03900591
222	0xbd524586	-0.051335834
223	0x3dab5b96	0.08367078
224	0xbe02ace8	-0.12761271
225	0xbdafab50	-0.08577597
226	0xb9075856	-0.00012907511
227	0xbcaf4fc8	-0.021400347
228	0xbd3a43bc	-0.045474753
229	0xbcae29f2	-0.021260235
230	0x3e5b9b67	0.21446
231	0xbc37bbcb	-0.011214207
232	0x3bee5e1e	0.0072744032
233	0xbd8dae14	-0.069179684
234	0x3d224bbc	0.039623007
235	0xbe2d3e0e	-0.16918203
236	0xbd92bd8f	-0.07165062
237	0xbdf8849f	-0.121346705
238	0x3e0bd20d	0.13654347
239	0xbd25b7e9	-0.040458594
240	0x3d2069d2	0.039163418
241	0xbc61ae4f	-0.013774469
242	0x3dbde1d6	0.092715904
243	0x3e138dbc	0.14409536
244	0xbe56639d	-0.20936437
245	0xbe3e08f5	-0.18558104
246	0xbe1ac7fa	-0.15115348
247	0x3955b2d5	0.00020379883
248	0xbdcf9a37	-0.10136836
249	0xbe160e1f	-0.14653824
250	0xbd831df0	-0.064021945
251	0x3ce3f77a	0.027827967
252	0xbe263c10	-0.1623385
253	0xbbea6d97	-0.0071541774
254	0xbc87beb5	-0.016570428
255	0xbd94cf21	-0.07266069

bias f4 [32]
0	0xbb82be5e	-0.0039899787
1	0xbdf5e8e3	-0.1200731
2	0x3d59c863	0.05316962
3	0x3ddf7f85	0.10912994
4	0xbe31a6f7	-0.17348848
5	0xbdf156ee	-0.11784159
6	0x3dfeeaf5	0.12447158
7	0x3d398feb	0.045303266
8	0xbc10a6af	-0.008828803
9	0x3d0c4ee1	0.034254912
10	0xbccbad3a	-0.024862874
11	0xbe0efc96	-0.13963541
12	0xbe1e9400	-0.15486145
13	0x3e0757ab	0.13217036
14	0xbc918489	-0.017763393
15	0xbd903191	-0.07040704
16	0xbd41b0b7	-0.04728767
17	0xbdbefcc1	-0.09325553
18	0xbd342c83	-0.043987762
19	0xbe07c691	-0.13259341
20	0x3dffd5a7	0.12491923
21	0x3d8ae7e3	0.0678251
22	0xbda53bea	-0.08068068
23	0xbd765730	-0.060141742
24	0x3d6dd62b	0.058065575
25	0xbd53b9a5	-0.051690716
26	0x3d38666b	0.04501955
27	0x3d6e2052	0.05813629
28	0xbde40950	-0.11134589
29	0x3d34b9e9	0.04412261
30	0x3c07216f	0.008247717
31	0x3e098a31	0.13431622

weight f4 [32]
0	0x3f78d740	0.97203445
1	0x3f7e7c36	0.9940828
2	0x3f70def5	0.94090205
3	0x3f7d013e	0.9883002
4	0x3f7fe76f	0.99962515
5	0x3f7fa6f5	0.9986413
6	0x3f8f3123	1.118687
7	0x3f79540e	0.9739388
8	0x3f6fbb7f	0.9364547
9	0x3f8049ef	1.0022563
10	0x3f7c5fb7	0.9858355
11	0x3f88ec9d	1.0697209
12	0x3f814e63	1.0102047
13	0x3f77744c	0.9666183
14	0x3f78a8f7	0.9713282
15	0x3f70b206	0.9402164
16	0x3f874083	1.0566562
17	0x3f92ce79	1.146926
18	0x3f7db071	0.99097353
19	0x3f846a7f	1.0345
20	0x3f832e46	1.0248497
21	0x3f7dd0e6	0.9914688
22	0x3f85a5c8	1.0441217
23	0x3f78e6d5	0.9722722
24	0x3f7ba2a4	0.98295045
25	0x3f7fb2ed	0.99882394
26	0x3f76d23f	0.9641456
27	0x3f83caa5	1.0296217
28	0x3f846198	1.0342283
29	0x3f733c13	0.9501354
30	0x3f84921a	1.0357087
31	0x3f6f1fe9	0.93408066

bias f4 [32]
0	0x3d116668	0.035498053
1	0x3d45d099	0.048294637
2	0xbd9718fc	-0.07377812
3	0x3a2dbf0f	0.0006627896
4	0x3c37e54e	0.011224104
5	0x3cdad3d1	0.02671233
6	0x3cbb8e27	0.022894932
7	0x3d9c9261	0.07645107
8	0xbd237dbd	-0.039914835
9	0x3b4a6cf8	0.0030887704
10	0xbb04b992	-0.002025221
11	0x3d8a47c2	0.06751968
12	0x3c3e26dc	0.0116059445
13	0x3d1ffef2	0.039061494
14	0xba98e8ef	-0.0011666099
15	0xbcf84bbd	-0.030309552
16	0x3d05ca90	0.03266388
17	0x3d07bca7	0.033138897
18	0xbd341adb	-0.043970924
19	0x3d0ee819	0.034889314
20	0x3c1dd2c6	0.009632772
21	0x3af84a75	0.0018943088
22	0x3cd9cc01	0.026586534
23	0x3b3d382b	0.002887259
24	0x3d6ac92b	0.057320755
25	0x3cf0c3df	0.029390274
26	0xbc82f343	-0.015985137
27	0x3c610ea6	0.013736403
28	0x3c0cf037	0.008602194
29	0xbd015dc2	-0.031583555
30	0x3d118077	0.035522904
31	0xbd5a338d	-0.05327182

running_mean f4 [32]
0	0xbec40636	-0.3828599
1	0x3dd2df8b	0.10296544
2	0xbe0b7eb7	-0.13622557
3	0xbea33da9	-0.3188298
4	0xbe7ac991	-0.24490954
5	0x3db2d5ba	0.08732171
6	0x3e6c8357	0.23096977
7	0x3e825139	0.25452593
8	0x3e501593	0.2032073
9	0xbdbf89f2	-0.09352483
10	0xbd3f1033	-0.04664631
11	0x3e19e476	0.15028557
12	0x3ea7d7e9	0.32781914
13	0x3df5228d	0.11969481
14	0xbe20c46c	-0.15699929
15	0xbe683a14	-0.22678405
16	0xbec477c4	-0.38372624
17	0x3dfc5a83	0.12321951
18	0xbe4bd41e	-0.19905135
19	0xbe8c93b9	-0.27456453
20	0x3e9440f6	0.2895581
21	0xbe135b0e	-0.14390203
22	0xbdb619b5	-0.08891622
23	0x3cffb77c	0.031215422
24	0x3c12fd0f	0.008971467
25	0xbe8c2a3c	-0.27375972
26	0xbea1a275	-0.31569257
27	0x3e95bd9e	0.2924623
28	0x3d54ffb3	0.052001666
29	0x3ea523ad	0.3225378
30	0xbddd2196	-0.10797422
31	0x3e2829c6	0.16422185

running_var f4 [32]
0	0x3ffe41a3	1.9863781
1	0x401cc287	2.449373
2	0x3fb57935	1.4177614
3	0x3fb4eab6	1.4134128
4	0x40557886	3.3354812
5	0x4011bf0c	2.2772856
6	0x4061f8b1	3.530804
7	0x40163b5e	2.3473735
8	0x3f8a4674	1.080275
9	0x4058098f	3.3755834
10	0x401635f6	2.3470435
11	0x3fdc4a92	1.7210257
12	0x3f24d547	0.64387935
13	0x40269d6a	2.6033578
14	0x3fbff999	1.4998046
15	0x40644f40	3.567337
16	0x3ff8bd3c	1.943275
17	0x4090b5be	4.5221853
18	0x4051b092	3.276402
19	0x403a3682	2.909577
20	0x402110b2	2.516644
21	0x4085cedf	4.181503
22	0x404f6db9	3.241072
23	0x3fd35b74	1.6512284
24	0x4039a07a	2.9004197
25	0x4032784d	2.7885926
26	0x3eb8e61b	0.36113057
27	0x40968d38	4.7047386
28	0x4026b97b	2.6050708
29	0x40182359	2.3771574
30	0x40400a10	3.0006142
31	0x3f32d2c4	0.6985285

weight f4 [32, 32]
0	0xbd99ad28	-0.0750373
1	0xbd25d71b	-0.040488344
2	0x3e1a8c10	0.15092492
3	0xbe01fe2d	-0.12694617
4	0xbd2a5618	-0.04158601
5	0x3e3ca50a	0.18422332
6	0xbd5a39ec	-0.053277895
7	0x3e65d60f	0.22444938
8	0x3e22df27	0.15905438
9	0x3e16a431	0.14711072
10	0xbd0d9329	-0.03456417
11	0x3e195775	0.14974768
12	0xbd9fa60b	-0.07795342
13	0xbdb7b49f	-0.089699976
14	0x3d752404	0.0598488
15	0x3d24938a	0.040179767
16	0x3e1b51f8	0.15167987
17	0x3e41fe9d	0.18944784
18	0xbe19f3a5	-0.1503435
19	0x3dd2734c	0.102758974
20	0x3de58330	0.11206663
21	0x3dc17823	0.094467424
22	0x3d8ea9cc	0.0696598
23	0xbcbbe050	-0.022934109
24	0xbe016070	-0.12634444
25	0x3e0c220f	0.13684867
26	0xbe18074e	-0.14846537
27	0x3de74352	0.11292137
28	0xbdec9f13	-0.115537785
29	0xbd18227b	-0.03714226
30	0x3bf0d7f7	0.0073499638
31	0x3c32ad1d	0.010905531
32	0x3d179ff1	0.037017766
33	0xbbd1434b	-0.006386196
34	0xbd355c6c	-0.044277593
35	0x3cff2d9a	0.031149674
36	0x3e0d8267	0.13819276
37	0xbdce190c	-0.10063371
38	0x3c3ee9bc	0.011652406
39	0xbd83b8f3	-0.06431761
40	0x3e3c9dac	0.18419522
41	0x3dc67d7f	0.09691905
42	0x3bf9dff8	0.007625576
43	0xbde602a9	-0.11230976
44	0xbe1aa9eb	-0.15103881
45	0x3dfc02fc	0.12305257
46	0xbb9e8989	-0.004838173
47	0x3e3b8915	0.18314011
48	0x3dd6dde9	0.10491545
49	0x3e39661e	0.18105361
50	0x3e08bddc	0.13353676
51	0xbe45a11e	-0.19299743
52	0x3d98ec47	0.07466941
53	0xbd98a90d	-0.07454119
54	0x3de3bcf5	0.11120025
55	0xbacc0f1a	-0.0015568465
56	0x3cc4bd4f	0.02401605
57	0xbda5eb58	-0.08101529
58	0xbdd93248	-0.106052935
59	0x3db30257	0.08740681
60	0x3dd524a1	0.10407377
61	0xbd46c39c	-0.04852639
62	0x3de66679	0.11250014
63	0xbd83ae20	-0.06429696
64	0x3c8db675	0.017298916
65	0xbd525038	-0.051346034
66	0x3c2c5f78	0.010520808
67	0xbc2b49e5	-0.01045463
68	0x3e30e1dc	0.17273659
69	0x3e28945e	0.16462848
70	0x3dabde3d	0.08391998
71	0x3d3f707c	0.046738133
72	0x3db33f48	0.08752304
73	0xbe5f177c	-0.21786302
74	0xbdfbbee6	-0.1229227
75	0x3cc5cda7	0.024145914
76	0xbdd867eb	-0.10566696
77	0xbe35093e	-0.17679307
78	0x3b55e2ae	0.0032636332
79	0xbd0f0cac	-0.034924194
80	0xbe47b997	-0.1950439
81	0xbcca7765	-0.024715135
82	0x3e1d820c	0.1538164
83	0x3d93b24d	0.072117426
84	0xbcb2fa44	-0.021847852
85	0xbe02e6d8	-0.12783372
86	0xbe05f79d	-0.13082738
87	0xbd6181ae	-0.055055313
88	0x3dc79f65	0.09747199
89	0xbde206ff	-0.11036491
90	0xbe0fd864	-0.1404739
91	0xbdc8a98c	-0.097979635
92	0x3a8f5b66	0.0010937273
93	0xbe616e17	-0.22014652
94	0xbe427ae7	-0.18992196
95	0x3e21cc13	0.15800504
96	0xbdd6005e	-0.10449289
97	0x3da8942c	0.082313865
98	0xbd36bdb4	-0.04461451
99	0xbda4b626	-0.080425546
100	0x3d358069	0.044311915
101	0x3db4b0d2	0.08822788
102	0xbdf6a179	-0.12042517
103	0x3d54d691	0.05196244
104	0xbd592169	-0.053010378
105	0xbe5174df	-0.20454739
106	0x3dd03e1c	0.101680964
107	0x3e2d0078	0.1689471
108	0x3d7ab754	0.06120999
109	0xbd738efe	-0.05946254
110	0x3e123e2a	0.14281526
111	0xbe0f36eb	-0.13985793
112	0xbcccea99	-0.025014209
113	0xbcc80e6c	-0.02442094
114	0xbc9098e1	-0.017651023
115	0x3e0f9de8	0.1402508
116	0xbd5deb01	-0.054179195
117	0x3c0a0534	0.008424092
118	0xbcdd9662	-0.027049247
119	0xbe2c029c	-0.1679787
120	0x3c65e425	0.014031445
121	0xbe3cb23c	-0.18427366
122	0x3d66c88e	0.056343608
123	0x3dfe916d	0.124300815
124	0x3e5c412a	0.21509233
125	0xbd88c23e	-0.06677674
126	0xbcbe15f9	-0.023203837
127	0x3b90b14a	0.0044156658
128	0x3e5b894e	0.21439096
129	0x3e496185	0.19666107
130	0xbd8c8f8c	-0.06863317
131	0xbdf48b74	-0.11940661
132	0xbe3bb904	-0.18332297
133	0xbdf285f4	-0.11841956
134	0x3ddfb931	0.10923994
135	0x3d3499a7	0.044091847
136	0x3e2e917d	0.17047687
137	0x3dabc113	0.08386435
138	0xbd83fe4b	-0.06444987
139	0xbdb57506	-0.08860211
140	0x3e1dcf55	0.15411122
141	0x3dddbc94	0.10826984
142	0x3dc89538	0.09794086
143	0xbe0546b3	-0.13015251
144	0x3e66eff8	0.22552478
145	0x3ceb8c0e	0.028753307
146	0x3e0d0d01	0.13774492
147	0x3e0d7df1	0.13817574
148	0x3de1ac4e	0.11019193
149	0xbe09084e	-0.13382074
150	0xbdd25af7	-0.102712564
151	0x3dcbcc0b	0.099510275
152	0x3c6545b5	0.01399367
153	0xbe067ff6	-0.1313475
154	0x3e4a2309	0.19739927
155	0x3cfaed6f	0.030630795
156	0x3e1e7aae	0.15476486
157	0xbde9690c	-0.11396989
158	0x3cbeac84	0.023275621
159	0xbd489622	-0.048971303
160	0xbdb0aebe	-0.086270794
161	0xbc4716ac	-0.0121514015
162	0xbd9bc803	-0.076065086
163	0x3dd91707	0.10600095
164	0x3d05a4d5	0.0326279
165	0x3e2315a8	0.1592623
166	0x3b5b7865	0.0033488509
167	0x3ca1393a	0.019680608
168	0xbe25859a	-0.16164246
169	0xbe0babc5	-0.13639744
170	0xbd851ac6	-0.06499247
171	0xbe1debbc	-0.15421957
172	0xbca1e1ce	-0.019760992
173	0xbb39ba42	-0.0028339778
174	0x3c4470bc	0.011989769
175	0xbe0e195a	-0.13876858
176	0x3dd1dd54	0.10247293
177	0x3d95c035	0.07312051
178	0xbd7ec116	-0.06219586
179	0xbbb81c29	-0.0056185913
180	0x3e10967a	0.14119902
181	0x3e2eb8f4	0.17062742
182	0xbe2d84b4	-0.16945153
183	0xbd1d024a	-0.03833226
184	0x3c04f98d	0.008116138
185	0xbda9d2f2	-0.08292188
186	0x3e272523	0.1632276
187	0xbd820ee6	-0.06350498
188	0x3e37dd5c	0.17955536
189	0x3ce38693	0.02777413
190	0xbc917034	-0.017753698
191	0xbddd2e85	-0.107998885
192	0xbd7f9786	-0.062400363
193	0x3db13810	0.08653271
194	0x3d6a5ce8	0.05721751
195	0xbd88e7a6	-0.066848084
196	0x3e3d4df9	0.18486775
197	0xbdf17bde	-0.11791204
198	0x3dfdd730	0.123945594
199	0x3e21f831	0.15817334
200	0xbd847304	-0.0646725
201	0x3e5a1f0e	0.21300909
202	0x3d262972	0.04056687
203	0x3b2b4fdc	0.002614013
204	0xbd667cb4	-0.05627127
205	0x3da5370c	0.0806714
206	0xbd708383	-0.05871917
207	0x3cc0bee6	0.023528527
208	0x3e10f835	0.14157183
209	0x3db8379e	0.08994983
210	0xbc173347	-0.009228534
211	0x3d8f907f	0.07009982
212	0xbe3f7945	-0.18698604
213	0xbe02f63f	-0.12789248
214	0xbe39bc55	-0.18138249
215	0xbe0c52db	-0.13703482
216	0xbc8e96ed	-0.017405951
217	0xbcaa9f12	-0.020827804
218	0xbd8df310	-0.06931126
219	0xbe0f4210	-0.13990045
220	0x3d0d62e8	0.034518152
221	0xbdb8cf72	-0.09023942
222	0x3c4671db	0.012112106
223	0xbe37c6dc	-0.17946953
224	0xbe063c5d	-0.13108964
225	0x3e262c14	0.16227752
226	0xbe474111	-0.19458415
227	0xbd7ee57e	-0.06223058
228	0x3e08f3e3	0.13374285
229	0xbd3782cb	-0.04480247
230	0xbdc6e3ac	-0.09711394
231	0xbc35f8ed	-0.011106712
232	0x3c4ac263	0.012375447
233	0xbe0015b3	-0.12508278
234	0x3c452181	0.012031914
235	0x3d8f0306	0.069829985
236	0xbd0d6517	-0.034520235
237	0x3d240100	0.040040016
238	0xbdecda18	-0.115650356
239	0x3d5f7a5c	0.05456005
240	0x3d7c54a5	0.06160416
241	0xbce3c688	-0.027804628
242	0xbe3d103f	-0.18463229
243	0x3df024cc	0.117257684
244	0x3e00d2a2	0.1258035
245	0xbd4609a0	-0.048349023
246	0x3d833ca6	0.06408052
247	0x3d936d95	0.071986355
248	0xbc8d94b7	-0.017282827
249	0xbd32e28c	-0.043673083
250	0x3e1468ee	0.14493152
251	0xbd336e55	-0.043806393
252	0xbe08c414	-0.13356048
253	0xbc4b5307	-0.012409932
254	0x3e0a1bb6	0.13487133
255	0xbd59dd1a	-0.053189375

bias f4 [32]
0	0x3e1ee20b	0.15515916
1	0xbcb9c84f	-0.022678522
2	0xbe204fcf	-0.15655445
3	0xbda58233	-0.08081474
4	0x3e26eaf6	0.16300568
5	0xbd161c09	-0.03664783
6	0xbd9d60a2	-0.07684447
7	0x3da00036	0.0781254
8	0x3cb54a5a	0.02213018
9	0xbe21682d	-0.15762396
10	0x3e16d4b8	0.14729583
11	0x3dbdc680	0.092663765
12	0x3e1eebf9	0.15519704
13	0x3d9fe3c4	0.07807115
14	0xbd7168f8	-0.058937997
15	0xbd72f3bf	-0.059314486
16	0x3daef131	0.08542097
17	0xbcf6581c	-0.03007131
18	0x3d0a0102	0.033692367
19	0xbe2d833d	-0.16944595
20	0xbdb8d1a3	-0.0902436
21	0x3d92e3e5	0.07172374
22	0xbc138319	-0.009003424
23	0xbdaf44cf	-0.08558046
24	0xbe1be534	-0.15224153
25	0x3de5bd6f	0.11217772
26	0xbd2891fd	-0.04115485
27	0xbe2f36b4	-0.17110711
28	0x3e32281a	0.1739811
29	0x3da46462	0.08026959
30	0xbdd89efd	-0.105771996
31	0xbe042fc9	-0.12908854

weight f4 [32, 32]
0	0x3e410556	0.18849692
1	0xbc1ab3f1	-0.009442315
2	0xbdbd31ad	-0.092379905
3	0x3dc9d7e1	0.09855629
4	0xbd083c1b	-0.033260446
5	0x3d67632b	0.05649106
6	0xbdb50cf9	-0.08840365
7	0xbdded4d9	-0.10880441
8	0xbddaecd6	-0.10689704
9	0xbce7e10d	-0.028305555
10	0xbe0dfc43	-0.13865761
11	0x3e21ca63	0.1579986
12	0xbd0a76c5	-0.033804674
13	0xbd217ddb	-0.039426666
14	0x3dc0c01c	0.09411642
15	0xbe2a4042	-0.16626075
16	0xbdf8f4b5	-0.12156049
17	0x3d641684	0.055685535
18	0xbdf2bfc8	-0.118529856
19	0x3e135b9c	0.14390415
20	0xba3790d8	-0.00070024794
21	0xbe3b9c1f	-0.18321274
22	0xbe51c971	-0.20487
23	0x3dbcdcae	0.09221779
24	0x3d9282ab	0.07153829
25	0xbd8260e7	-0.06366139
26	0xbe2655d1	-0.16243674
27	0xbde329d6	-0.11091964
28	0x3b5f3ae8	0.003406221
29	0xbc9b10bd	-0.01892888
30	0x3ce91c70	0.028455943
31	0x3cb7e720	0.022449076
32	0xbd8931ff	-0.06698989
33	0x3e001a53	0.12510042
34	0x3e6bc7f3	0.23025493
35	0x3e412cff	0.18864821
36	0x3e2cc15f	0.1687064
37	0xbcc5b4f4	-0.024134137
38	0xbd3d7deb	-0.046262663
39	0xbd528134	-0.05139275
40	0x3d7d5d60	0.061856627
41	0x3d9e9e24	0.07745007
42	0xbc368127	-0.011139191
43	0xbda0fc50	-0.07860625
44	0xbdf75c4f	-0.12078153
45	0x3e50257e	0.20326802
46	0xbd72b150	-0.05925113
47	0xbc831070	-0.015999049
48	0xbd9f8dd4	-0.077907234
49	0xbd73de7d	-0.059538353
50	0x3da8211f	0.08209442
51	0x3d5eaddd	0.054365028
52	0xbd937cf3	-0.072015665
53	0xbd101bc3	-0.035182726
54	0x3e023184	0.12714201
55	0xbde415c0	-0.11136961
56	0xbe296f4c	-0.16546363
57	0xbdb13468	-0.08652574
58	0x3de08326	0.109625146
59	0x3d65fb97	0.056148138
60	0x3d29792b	0.04137532
61	0x3ad8c586	0.0016538359
62	0x3dda3322	0.10654284
63	0xbd8c78b4	-0.0685896
64	0x3e175707	0.14779292
65	0x3d292466	0.041294478
66	0x3d18c739	0.03729937
67	0x3d41d2c0	0.047320127
68	0xbdf95070	-0.12173545
69	0x3e0bdf62	0.13659433
70	0x3d827028	0.06369048
71	0xbdc6003e	-0.09668015
72	0xbe0fdcd5	-0.14049084
73	0xbd98493d	-0.07435844
74	0x3de92b6b	0.113852344
75	0xbddd3860	-0.10801768
76	0x3e04d813	0.12973051
77	0xbdb64095	-0.08899037
78	0xbe10ed52	-0.1415303
79	0x3d87a51d	0.0662329
80	0xbde42807	-0.11140447
81	0xbd5bbc76	-0.053646527
82	0xbcea80c4	-0.028625853
83	0x3d03d4ba	0.032185294
84	0xbe1ae304	-0.15125662
85	0xbe379c65	-0.17930754
86	0x3dff1c9c	0.12456629
87	0xbc899975	-0.016796807
88	0xbe05ae59	-0.1305479
89	0xbc3d3d74	-0.011550296
90	0xbe529f3f	-0.2056856
91	0x3d13fb5e	0.036128394
92	0x3d571c29	0.05251709
93	0x3e2dd513	0.16975813
94	0xbe38b638	-0.18038261
95	0xbd87b357	-0.06626003
96	0x3dd33c8d	0.103142835
97	0x3e1778a7	0.14792119
98	0xbe136148	-0.14392579
99	0x3d89f174	0.06735507
100	0x3dda1c09	0.106498785
101	0x3e074305	0.1320916
102	0xbe076f17	-0.13225971
103	0x3d8a9976	0.067675516
104	0xbd5185b8	-0.051152915
105	0xbe00706c	-0.12542886
106	0x3d9c4e30	0.076321006
107	0x3df82f59	0.12118406
108	0xbde51552	-0.11185707
109	0x3d288b4c	0.04114847
110	0xbc1158fa	-0.008871311
111	0x3d99a5a5	0.07502297
112	0x3e169a5d	0.14707322
113	0x3cff6549	0.031176226
114	0xbe24b06a	-0.16082922
115	0xbe011869	-0.12606968
116	0x3d82a91c	0.06379911
117	0xbe0cdd3a	-0.13756266
118	0x3d8a1bea	0.067436054
119	0xbd7ccf88	-0.061721355
120	0xbcb11adb	-0.021619251
121	0x3de4acf6	0.11165802
122	0xbe2634ae	-0.16231033
123	0xbe08cab6	-0.13358578
124	0x3d0c5bc0	0.034267187
125	0xbe4988ae	-0.19681045
126	0x3de11109	0.10989577
127	0xbe1b7f8a	-0.15185371
128	0xbccef3bc	-0.025262706
129	0x3d6a1d7c	0.057157025
130	0x3d91e5a9	0.07123882
131	0xbdceffba	-0.1010737
132	0x3c6b4c0f	0.0143613955
133	0x3d2e3890	0.04253441
134	0x3dfdc55c	0.12391159
135	0xbdf800a7	-0.121094994
136	0xbd1094b6	-0.03529807
137	0x3daa8322	0.08325793
138	0x3c25b4e9	0.010113933
139	0xbe2b3bf9	-0.16722097
140	0xbd506409	-0.05087665
141	0xbe6b5286	-0.22980699
142	0xbdd4a854	-0.103836685
143	0xbcb67a58	-0.022275135
144	0xbdbcf0e1	-0.092256315
145	0xbe19c9c0	-0.15018368
146	0x3d56d3e9	0.052448187
147	0x3de394ae	0.11112343
148	0xbdab4a47	-0.08363777
149	0xbc8804bb	-0.016603818
150	0x3dc1f6df	0.09470915
151	0x3e092d53	0.13396196
152	0xbdb64192	-0.08899225
153	0x3d86019b	0.06543275
154	0x3e322349	0.17396273
155	0x3e309a13	0.17246275
156	0xbe13b143	-0.14423089
157	0xbd35ae0b	-0.044355433
158	0xbc937d90	-0.018004209
159	0xbd2ea237	-0.04263517
160	0xbdb897ff	-0.09013366
161	0xbdf661b4	-0.12030354
162	0x3da2664f	0.0792967
163	0xbdd1c92a	-0.10243447
164	0x3ca89d90	0.020582944
165	0x3cfb38c2	0.030666713
166	0xbd1cbabb	-0.038264018
167	0xbc03942e	-0.008030934
168	0x3de1120a	0.10989769
169	0xbdf8fb30	-0.12157285
170	0x3d001e23	0.03127874
171	0xbaea108f	-0.0017857718
172	0x3dc4b2c1	0.09604407
173	0x3dbbeaac	0.091756195
174	0x3bcdb5d2	0.006277778
175	0x3be68fa0	0.0070361644
176	0xbe14ab5f	-0.14518498
177	0x3dd6647d	0.10468385
178	0x3d8d2811	0.06892408
179	0xbd9ad494	-0.07560077
180	0xbe227f90	-0.15868974
181	0x3e13ec7a	0.14445677
182	0xbd997dd9	-0.07494707
183	0x3d525b50	0.051356614
184	0xbcbe68f8	-0.023243412
185	0x3e0dac42	0.13835242
186	0x3e7c038e	0.24610731
187	0x3df87354	0.12131372
188	0xbd89088e	-0.06691085
189	0x3e1117bd	0.14169212
190	0x3d70bb80	0.058772564
191	0x3d2ee65a	0.04270015
192	0xbd2bd022	-0.041946538
193	0xbe02f50f	-0.12788795
194	0xbe3f1b1a	-0.18662682
195	0x3e50ce08	0.20391095
196	0x3e5385b2	0.2065647
197	0x3da950de	0.08267377
198	0x3d665d6f	0.05624145
199	0x3d1a7285	0.03770687
200	0x3d9b2a67	0.07576447
201	0xbe23782e	-0.15963814
202	0xbd9acba7	-0.07558375
203	0xbe183f40	-0.14867878
204	0xbd64efbd	-0.055892695
205	0x3d088ca3	0.033337247
206	0x3d8a25a6	0.06745462
207	0xbe33415b	-0.175054
208	0xbc309e77	-0.010779968
209	0xbe0415a2	-0.12898877
210	0xbe248ae4	-0.16068608
211	0x3cc2a556	0.023760479
212	0xbe0b9019	-0.13629188
213	0x3d0b0205	0.033937473
214	0xbe3e8ea4	-0.186091
215	0xbe15c388	-0.1462537
216	0xbc86f583	-0.016474491
217	0xbdec65c4	-0.11542848
218	0x3e282faa	0.16424432
219	0x3e584771	0.21121003
220	0xbdb7fee7	-0.08984166
221	0x3c90753b	0.017634025
222	0x3c129897	0.008947513
223	0x3d95553e	0.07291649
224	0xbced708d	-0.028984332
225	0xbe1939fa	-0.14963523
226	0x3de5b307	0.112157874
227	0xbdcba8b3	-0.09944286
228	0xbc3eed8b	-0.011653314
229	0x3b2aa2ef	0.0026037057
230	0xbcc662c4	-0.024217017
231	0xbd423dcc	-0.047422215
232	0xbe4726b1	-0.19448353
233	0x3c325bc5	0.010886137
234	0xbd7c1c10	-0.0615502
235	0x3e36a7fb	0.17837517
236	0xbd41bf1c	-0.047301397
237	0x3e2a3bff	0.16624449
238	0xbb34e123	-0.0027600012
239	0xbdd697af	-0.1047815
240	0xbd549080	-0.05189562
241	0xbc3ae9dd	-0.011408296
242	0xbcabd223	-0.020974224
243	0xbd3a90ee	-0.045548372
244	0x3d87e3f7	0.06635278
245	0x3e0eb098	0.13934553
246	0x3c7d7d3c	0.015471753
247	0x3d785594	0.06062849
248	0x3def3e3a	0.11681791
249	0x3c2256e9	0.009908416
250	0x3e029ec9	0.12755884
251	0x3dd6cb0e	0.10487948
252	0x3e3f7491	0.1869681
253	0xbe1820c6	-0.14856252
254	0x3daae919	0.08345241
255	0x3c71373c	0.014722642

bias f4 [32]
0	0x3e2446be	0.16042611
1	0xbcb75783	-0.022380596
2	0xbd5e1476	-0.05421873
3	0x3e172978	0.14761913
4	0x3d5394c6	0.051655553
5	0x3d11b09a	0.03556881
6	0xbdb2d5ea	-0.08732207
7	0x3e2875a3	0.16451125
8	0xbd754726	-0.059882306
9	0x3e18bcae	0.14915726
10	0xbc294571	-0.0103314975
11	0x3db10718	0.08643931
12	0x3de86012	0.11346449
13	0xbe08cb64	-0.13358837
14	0xbe055010	-0.13018823
15	0xbe35a48b	-0.1773855
16	0x3e061db3	0.13097267
17	0x3e18b365	0.14912184
18	0xbd77e8fe	-0.060524933
19	0xbdb469ec	-0.088092655
20	0x3ce48b33	0.027898407
21	0x3dc0b50d	0.09409533
22	0x3d45f082	0.04832507
23	0xbd0afad5	-0.03393062
24	0xbdf52d27	-0.11971503
25	0x3e10fc87	0.14158832
26	0xbde63f20	-0.11242509
27	0xbe3c3e3c	-0.18383116
28	0xbd91c5c5	-0.071178
29	0x3cdc0221	0.026856484
30	0x3da11a26	0.078663155
31	0x3d8cd148	0.06875855

weight f4 [32]
0	0x3f7d5e6a	0.9897219
1	0x3f7b8275	0.98245937
2	0x3f81a932	1.0129759
3	0x3f83abbc	1.0286784
4	0x3f80233d	1.0010754
5	0x3f7e1100	0.9924469
6	0x3f7905e7	0.9727463
7	0x3f746950	0.95473194
8	0x3f7660c4	0.962414
9	0x3f842a83	1.0325474
10	0x3f84df47	1.0380639
11	0x3f782d82	0.9694444
12	0x3f7162ab	0.9429118
13	0x3f83bc8b	1.0291914
14	0x3f801286	1.0005653
15	0x3f808057	1.0039166
16	0x3f72b6a2	0.94809926
17	0x3f7de7b5	0.9918168
18	0x3f8233be	1.017204
19	0x3f7eb0ba	0.99488413
20	0x3f7b0999	0.9806152
21	0x3f7716e2	0.9651929
22	0x3f83c4b4	1.0294404
23	0x3f765357	0.96220917
24	0x3f8366a0	1.0265694
25	0x3f81eea0	1.0150948
26	0x3f86e95e	1.0539968
27	0x3f846110	1.0342121
28	0x3f83e039	1.0302802
29	0x3f80f563	1.0074886
30	0x3f7b39fe	0.98135364
31	0x3f7777c4	0.9666712

bias f4 [32]
0	0xbc270593	-0.0101942
1	0xbbd46a20	-0.0064823776
2	0xbd027e30	-0.031858623
3	0x3d174ee9	0.03694049
4	0x3d129772	0.03578896
5	0x3cf199c2	0.029492263
6	0xbdca205c	-0.09869453
7	0xbd373da3	-0.044736516
8	0xbcec4264	-0.028840251
9	0xbc942967	-0.018086148
10	0xbd35a7d3	-0.044349503
11	0x3cd99df5	0.026564578
12	0xbdab07ea	-0.08351119
13	0x3db01180	0.08597088
14	0xbd36b7c4	-0.044608846
15	0x3d3327d4	0.043739155
16	0xbdabe3ef	-0.08393084
17	0x3aad9e06	0.0013245947
18	0xbb4d75db	-0.0031350765
19	0x3cc17b0d	0.023618245
20	0xbca57d78	-0.02020143
21	0xbd0a6431	-0.033786956
22	0xbbcf5162	-0.0063268403
23	0xbd14f27d	-0.036364067
24	0x3d2ea2d1	0.042635743
25	0x3c843083	0.016136413
26	0x3bce2725	0.0062912875
27	0x3d963a31	0.07335318
28	0xbcadb7c4	-0.02120579
29	0x3be5f8b1	0.0070181717
30	0xbcdac6cf	-0.026706127
31	0xbd1e4d22	-0.03864778

running_mean f4 [32]
0	0x3f7b8613	0.98251456
1	0x3f2d50f6	0.6770166
2	0xbf8b3f4b	-1.087869
3	0xbdccbccb	-0.09996947
4	0x3fa5b083	1.2944492
5	0xbe5bbed6	-0.21459517
6	0xbe63c18e	-0.22241804
7	0xbc3f86c9	-0.01168985
8	0x3d74a689	0.059729133
9	0x3e1b0412	0.15138271
10	0x3e72267f	0.23647498
11	0x3f31e5de	0.69491374
12	0x3e404ac3	0.1877852
13	0xbd133f72	-0.035949178
14	0x3f4b5f89	0.7944265
15	0xbf01119a	-0.5041748
16	0x3eed3b32	0.46334225
17	0x3e059c66	0.13047943
18	0x3ecdeb5d	0.4021863
19	0xbf482c87	-0.78192943
20	0x3f361941	0.71132284
21	0x3f0ddebd	0.55417997
22	0xbe80f556	-0.25187176
23	0xbf2faa9e	-0.68619716
24	0xbecb6317	-0.39724037
25	0xbdc1e0c4	-0.09466699
26	0xbb30fc4f	-0.0027005856
27	0xbd9d1ee8	-0.076719105
28	0x3f511564	0.81673265
29	0xbf075285	-0.5286029
30	0xbe90699e	-0.2820558
31	0x3ea76404	0.32693493

running_var f4 [32]
0	0x3fb00889	1.3752605
1	0x3f709f5d	0.9399317
2	0x3fa3b6d5	1.2790171
3	0x3f96e441	1.1788408
4	0x3f741792	0.95348465
5	0x3fad827f	1.3555449
6	0x3f1af8ad	0.605357
7	0x3f8e9cd3	1.1141609
8	0x3fb10cd2	1.3832037
9	0x3fb955f6	1.4479358
10	0x3f9e5bb1	1.2371732
11	0x3f9d43ff	1.2286376
12	0x3f857ae6	1.0428131
13	0x3f7c7753	0.98619574
14	0x3f8f47ac	1.1193748
15	0x3fe191da	1.7622635
16	0x3fa2425c	1.2676501
17	0x3faf3e31	1.3690854
18	0x3f00ac52	0.5026294
19	0x3fea2d0d	1.8294998
20	0x3f5c2ff5	0.86010677
21	0x3faeccfa	1.3656304
22	0x3fa54a6c	1.2913337
23	0x40069a4f	2.1031682
24	0x3f348eb1	0.7053023
25	0x3f5679f0	0.8377981
26	0x3f601779	0.87535816
27	0x3f815aea	1.010587
28	0x3f9d2a02	1.2278445
29	0x3f0f3405	0.5593875
30	0x3f6fd903	0.9369051
31	0x3f0ac868	0.54212046

weight f4 [32, 32]
0	0xbdd83171	-0.10556305
1	0xbd7a985e	-0.061180465
2	0xbd8bee7e	-0.06832598
3	0xbdfab012	-0.12240614
4	0xbdddbb2e	-0.10826717
5	0x3d4be85c	0.049782142
6	0xbd5d2298	-0.05398807
7	0xbe4c8755	-0.199735
8	0xbdf1d09c	-0.11807367
9	0xbe218da6	-0.15776691
10	0xbd22f499	-0.039784048
11	0xbdc1097f	-0.09425639
12	0xbd8f2a78	-0.06990522
13	0x3d85fcd4	0.06542364
14	0xbe48d911	-0.19614054
15	0xbd0f9085	-0.035049934
16	0xbd49b9a7	-0.049249317
17	0xbd623975	-0.055230577
18	0xbdc2319b	-0.09482118
19	0xbdc2f25b	-0.09518882
20	0xbca04556	-0.019564312
21	0xbe0c8025	-0.13720758
22	0xbc631e16	-0.0138621535
23	0x3e277fcc	0.16357344
24	0x3e18f09f	0.1493554
25	0xbdaa3912	-0.083116665
26	0x3d4df2c5	0.05028035
27	0xbe2a86bc	-0.1665296
28	0x3e16e44b	0.14735524
29	0xbe1b48db	-0.15164511
30	0xbe1931f2	-0.14960459
31	0xbe1f31f1	-0.15546395
32	0xbe2988e7	-0.1655613
33	0xbc4fa54e	-0.012673689
34	0xbcd46fda	-0.025932241
35	0x3db07f38	0.08618015
36	0x3c15d581	0.009145142
37	0xbcdd4ac9	-0.0270132
38	0xbdd6caba	-0.10487886
39	0xbdb05e80	-0.086117744
40	0xbe20ed61	-0.15715553
41	0x3e0f0b98	0.13969266
42	0xbe1b44e9	-0.15163006
43	0xbd0045f2	-0.031316705
44	0x3d948583	0.07252028
45	0xbd7772eb	-0.06041233
46	0xbbae5ef7	-0.0053213793
47	0xbdf2da3b	-0.118580304
48	0xbe275952	-0.16342667
49	0x3dc071d6	0.093967125
50	0xbd125fff	-0.03573608
51	0x3dcba857	0.09944218
52	0xbc456997	-0.0120491
53	0x3dcbb61b	0.09946843
54	0xbe1ed594	-0.15511161
55	0xbc3ef16c	-0.011654239
56	0xbd383005	-0.04496767
57	0xbd22c9ce	-0.039743237
58	0xbc9d1de4	-0.019179292
59	0xbc4cc3e9	-0.0124978805
60	0xbe0e52e1	-0.13898803
61	0x3ce060ce	0.02738991
62	0x3e00f1fa	0.12592307
63	0x3cfba9e3	0.030720657
64	0x3e2f2d4e	0.17107126
65	0x3dae30ba	0.085053876
66	0xbe211ab5	-0.15732844
67	0xbd93d514	-0.07218376
68	0xbdce5df8	-0.10076517
69	0x3c8cd5a1	0.01719171
70	0xbd8658aa	-0.0655988
71	0x3e299c17	0.1656345
72	0xbca4fb28	-0.020139292
73	0xbd5cd7b4	-0.053916648
74	0xbd4bfbcc	-0.04980068
75	0xbe0b55da	-0.13606969
76	0xbde1c64c	-0.1102415
77	0x3df0a4b8	0.117501676
78	0x3bcdec5b	0.0062842793
79	0xbe151bbf	-0.14561366
80	0xbde6eaa9	-0.112752266
81	0x3ddaf846	0.10691886
82	0xbe17873e	-0.14797685
83	0xbdca8d4c	-0.098902315
84	0xbdd78fdb	-0.10525485
85	0x3e49019a	0.19629517
86	0x3c2f5a24	0.010702644
87	0xbd1990ee	-0.03749173
88	0xbe1f4508	-0.15553677
89	0x3e159056	0.14605841
90	0xbc86baa4	-0.016446419
91	0xbca665d6	-0.020312231
92	0x3d79de3d	0.06100296
93	0x3c3ba200	0.011452198
94	0x3dab77ac	0.08372435
95	0x3c6cba74	0.014448751
96	0x3cd76a66	0.026295852
97	0xbd996a74	-0.074910074
98	0xbdf31b46	-0.11870436
99	0xbd9ff4b1	-0.07810343
100	0x3e3a4e5e	0.18193957
101	0xbdc2bcee	-0.09508692
102	0xbda87305	-0.08225063
103	0xbe1dfe21	-0.15428974
104	0xbd02584c	-0.031822488
105	0xbe82608f	-0.25464293
106	0xbdc702ac	-0.097173065
107	0x3e4b6e7d	0.19866367
108	0x3d603259	0.054735515
109	0x3de261a8	0.11053783
110	0xbcb2dd1e	-0.021833953
111	0xbe37840f	-0.1792147
112	0xbd498076	-0.049194776
113	0xbdbeef7a	-0.0932302
114	0xbe03bfff	-0.1286621
115	0x3d047660	0.032339454
116	0xbd148da3	-0.036267888
117	0x3e3851f6	0.18000016
118	0xbe3fbc6e	-0.18724224
119	0xbdec4555	-0.115366615
120	0x3e4d47ef	0.20046972
121	0xbe19ffeb	-0.15039031
122	0x3e1e7d6b	0.1547753
123	0x3da19a6a	0.0789078
124	0xbe0f5a9a	-0.13999406
125	0x3e236dbb	0.15959828
126	0xbd18abd2	-0.037273236
127	0xbd68235c	-0.056674346
128	0xbdf42012	-0.119201794
129	0xbe2781fa	-0.16358176
130	0x3d36c52f	0.044621643
131	0xbe6816b7	-0.22664915
132	0x3db13e33	0.08654442
133	0xbd84ee71	-0.064907916
134	0x3d8dce40	0.06924105
135	0xbd50ca6d	-0.0509743
136	0x3d09f0b1	0.033676807
137	0xbd088ded	-0.033338476
138	0x3d8e9968	0.06962854
139	0xbd2aa435	-0.041660506
140	0xbdcf417c	-0.10119912
141	0x3db47741	0.088118084
142	0xbd5fae69	-0.05460969
143	0xbdf751a2	-0.12076117
144	0xbe142e83	-0.14470868
145	0xbd6bf838	-0.057609767
146	0xbdff31dd	-0.124606825
147	0x3e038144	0.1284228
148	0x3db5e97f	0.088824265
149	0x3ca97c34	0.020689107
150	0x3e1e5663	0.15462641
151	0x3e0ae1b1	0.13562657
152	0xbe4b9124	-0.19879586
153	0xbd2cf320	-0.04222405
154	0x3d284ec9	0.04109076
155	0xbe04c2dc	-0.12964958
156	0x3d1c6573	0.038182687
157	0xbdbb215d	-0.09137223
158	0xbdc30e49	-0.09524209
159	0x3c923867	0.01784916
160	0xbdf0f061	-0.11764599
161	0x3daf0580	0.08545971
162	0x3d9ec2f1	0.07752026
163	0x3e15d879	0.14633359
164	0xbd824ed4	-0.063626915
165	0x3d67e169	0.056611452
166	0x3c177379	0.009243839
167	0xbe35e0f1	-0.1776159
168	0x3da14a82	0.07875539
169	0xbdb38ffc	-0.08767697
170	0xbdbdcf7c	-0.0926809
171	0xbd874f68	-0.066069424
172	0xbe381dd6	-0.17980132
173	0x3c8710af	0.016487448
174	0x3d01b47f	0.031666275
175	0xbcdb6aa7	-0.026784254
176	0x3e20b20c	0.1569292
177	0x3d1d69b1	0.038430873
178	0xbd7e66a7	-0.062109616
179	0xbdf12f5b	-0.117766105
180	0xbe25a0cf	-0.16174625
181	0xbbea1247	-0.007143292
182	0xbde167bc	-0.11006114
183	0xbde31061	-0.110871084
184	0xbc6d729d	-0.014492658
185	0xbd0231a6	-0.03178563
186	0xbdf810c9	-0.121125765
187	0x3dc17595	0.09446255
188	0x3e03a448	0.12855637
189	0xbde5e4ff	-0.11225318
190	0x3dd1f55b	0.10251876
191	0xbdb63519	-0.08896846
192	0xbcbc69fc	-0.022999756
193	0x3e56f012	0.20990017
194	0x3d0b1e3b	0.033964377
195	0xbe36629e	-0.17811057
196	0x3dcbf29d	0.09958384
197	0xbcec7d72	-0.02886841
198	0xbe140347	-0.14454375
199	0xbdc01f31	-0.09380949
200	0x3e570349	0.20997347
201	0x3d8fbd1c	0.070184916
202	0x3e107a23	0.14109091
203	0x3db14a1e	0.08656715
204	0xbd2b4b4e	-0.041819863
205	0x3cbdc602	0.023165707
206	0xbd43cde5	-0.04780378
207	0x3e12ec2c	0.14347905
208	0xbe049b57	-0.12949882
209	0x3db68e4a	0.08913858
210	0x3da54887	0.08070474
211	0x3df411fa	0.11917491
212	0xbdf3b613	-0.11899962
213	0xbcdd4274	-0.027009226
214	0x3d8c7a44	0.06859258
215	0xbd34ba15	-0.044122774
216	0xbc872724	-0.016498156
217	0x3d62c52c	0.05536382
218	0xbdd0922c	-0.1018413
219	0xbd7e93a8	-0.062152535
220	0x3d4b9bff	0.049709316
221	0x3dea31d6	0.11435287
222	0x3e1c6191	0.15271594
223	0xbc975366	-0.018472385
224	0x3cef8ae7	0.029241038
225	0xbdb59218	-0.08865756
226	0xbca68743	-0.02032817
227	0xbdd5b09f	-0.104340784
228	0x3e3dc358	0.18531549
229	0x3c8da8d2	0.017292414
230	0x3d98ed2a	0.074671105
231	0x3da002d4	0.078130394
232	0x3d02776d	0.031852175
233	0xbd012e6c	-0.031538412
234	0xbbaef857	-0.005339663
235	0xbde0a48d	-0.109688856
236	0xbbd564b7	-0.0065122503
237	0xbd0b672f	-0.03403395
238	0xbe3b7ee3	-0.18310122
239	0x3e143fbd	0.14477439
240	0x3c251745	0.010076349
241	0xbd4dfe7d	-0.050291527
242	0xbe713548	-0.23555481
243	0xbe35c7db	-0.1775202
244	0x3d420598	0.047368616
245	0xbd7086bd	-0.058722246
246	0xbdf9f562	-0.12205006
247	0xbe0e0526	-0.13869151
248	0x3e2039c9	0.15647043
249	0x3a617592	0.0008600588
250	0x3de73ee1	0.1129129
251	0x3e23fbe8	0.16014063
252	0xbe0961a1	-0.13416149
253	0x3e27d1a1	0.16388561
254	0xbcc4b2e8	-0.02401109
255	0x3e2aa910	0.16666055

bias f4 [32]
0	0x3ba9ddf3	0.005183929
1	0xbe1031d6	-0.14081511
2	0xbdd27dcf	-0.10277902
3	0xbd914582	-0.07093336
4	0x3c9c2b97	0.019063754
5	0x3d8b187b	0.06791779
6	0xbd078e3e	-0.033094637
7	0xbd8ff10a	-0.070283964
8	0x3d9ab1df	0.075534575
9	0xbe320b12	-0.17387035
10	0x3dfd9e48	0.123837054
11	0xbcb9decf	-0.022689251
12	0x3e006dad	0.12541838
13	0x3e07f52c	0.1327712
14	0x3ca212ba	0.01978432
15	0x3d5f9058	0.054581016
16	0xbdcd3327	-0.10019522
17	0x3e02fe7b	0.12792389
18	0x3dd1aefc	0.10238454
19	0xbce26ccc	-0.027639769
20	0x3d8cd102	0.068758026
21	0xbc244093	-0.010025161
22	0x3e0f72ca	0.14008632
23	0x3d93f5dd	0.07224629
24	0x3e02a160	0.12756872
25	0xbe248c79	-0.16069211
26	0x3e31bd4c	0.17357367
27	0x3d87c497	0.066292934
28	0x3dac5556	0.08414714
29	0x3d234f36	0.039870463
30	0x3df28c73	0.11843195
31	0x3e2bbb66	0.16770706
