HML/Decision/GCN_xgboost_1226/state/CASE39_0_256_64_0.001_.pth (torch, 151938 bytes, 51 tensors)

eps f4 [4]
000000 00 00 00 00 00 00 00 00 00 00 00 00 00 00 00 00
       0.0 0.0 0.0 0.0

weight f4 [64, 2]
000000 c9 4b de 3c 2e 8d d7 3e 51 67 0a bf 53 e8 0f bf
       0.027135747 0.420999 -0.540639 -0.56213874
000010 02 c8 aa be cf 35 fc 3d fc eb 17 3d a5 8d 0d 3f
       -0.3335572 0.12314951 0.037090287 0.5529426
000020 ce 87 96 bd 67 c6 3a 3e 35 17 8e be 40 20 82 bd
       -0.073501214 0.18239747 -0.2775208 -0.063538074
000030 b4 ff 1b bf 2f 71 08 bf 4e 83 a9 be ab 5b 2b bb
       -0.60937047 -0.53297704 -0.3310799 -0.0026147168
000040 11 a8 a6 3e 6f 92 c1 3e 7d 36 f4 be cd 09 a0 be
       0.325501 0.37807032 -0.4769782 -0.31257477
000050 7c b6 7c 3e 65 8d 19 3f f7 1b f5 bd 66 d9 0e 3f
       0.24678987 0.59981376 -0.119682245 0.55800474
000060 6b d0 e4 bd 55 66 b7 3d ba c4 2b 3f 11 42 20 bf
       -0.11172565 0.08955065 0.67097056 -0.6260081
000070 ab 62 d2 be 6d 7b 5a be 8e 73 89 be 9f b9 1e 3f
       -0.41090903 -0.21336146 -0.26845974 0.62001985
000080 f3 67 e1 be 83 bd b0 be 11 19 0f bf 12 81 18 bf
       -0.4402462 -0.34519586 -0.55897623 -0.59571946
000090 41 18 c9 be 11 ff 20 3f e2 c3 b6 3e 85 b1 9a 3e
       -0.39276317 0.628892 0.35696322 0.30213562
0000a0 75 34 26 3d 33 8d be be 94 20 a5 3d 64 0b 34 bf
       0.04057737 -0.372171 0.080628544 -0.7032988
0000b0 0e b1 06 bf 2e d6 b3 be 77 ce e7 3e e9 08 d2 3e
       -0.52613914 -0.35124344 0.45274708 0.41022423
0000c0 81 e2 9e be cf 9f 25 bd 09 59 bf 3e e9 8c 47 3f
       -0.31032184 -0.04043561 0.37372616 0.77949387
0000d0 10 76 8a 3e 6f ad e2 3d d3 02 f5 3e 9e d2 d3 be
       0.270432 0.11068236 0.47853717 -0.41371626
0000e0 57 0e eb 3d 87 b0 12 bf 08 7f ff be 0e 33 b7 be
       0.114773445 -0.5730061 -0.49901605 -0.3578114
0000f0 cc 29 ac 3e f5 56 8a 3e 7f ae d4 be 9a 55 61 3e
       0.33625638 0.27019468 -0.4153938 0.2200531
000100 94 7c c5 3e 38 c3 c5 bd 38 68 0f 3d ac d4 30 3e
       0.38571608 -0.09656376 0.0350115 0.17268628
000110 9a 13 04 3f 9c 19 19 3f 69 ef fe be 54 f9 9c be
       0.5159241 0.598047 -0.4979203 -0.30658972
000120 ed cb 8e 3e ff 3a 16 3f 22 f3 22 3f cd 7a 1a 3f
       0.27889958 0.5868377 0.6365224 0.6034363
000130 15 21 fb 3d 66 10 23 bf 22 e8 66 3d f9 df ea be
       0.12262169 -0.636969 0.056373723 -0.45874003
000140 88 1c 33 bf 87 35 16 3f 1c c2 03 3f d6 cd 3a bf
       -0.6996541 0.58675426 0.5146806 -0.7297033
000150 ef 6c 05 3e 83 bc 02 be 7c 5a fc bd 34 65 a4 be
       0.13029836 -0.12767224 -0.12321946 -0.32108462
000160 1b 81 8f 3e 97 31 d3 be 2b 29 3b 3e c9 e3 dc 3e
       0.28028187 -0.41248772 0.18277423 0.43142536
000170 27 83 ef 3e 75 f7 9b 3e 0d 06 34 bf 57 f6 e9 be
       0.4677975 0.30462232 -0.7032173 -0.45695755
000180 19 15 b6 3e 30 73 1a 3e 7f 78 fa be 6c 4e ef be
       0.3556297 0.15083003 -0.48920056 -0.4673952
000190 92 24 33 3f fc d3 e2 3e b5 0e 8c be fb c5 5a be
       0.69977677 0.44302356 -0.2735497 -0.21364586
0001a0 15 d1 30 bf 9c f8 56 bc 77 7b 05 bf 95 c6 0e bf
       -0.69069034 -0.0131207965 -0.5214152 -0.5577176
0001b0 0e b6 5f bd 86 c3 cc 3d 20 26 9f be c5 91 cc 3e
       -0.05461698 0.09998231 -0.31083775 0.39954963
0001c0 03 cc ca be 7b 15 2d 3f a7 8a f6 3e 1b c6 19 bf
       -0.39608774 0.676109 0.48152658 -0.6006791
0001d0 48 c6 32 be 0d 80 38 3d 19 5b 72 3d 12 8a 5d 3e
       -0.17458451 0.045043994 0.05916891 0.21634701
0001e0 69 67 a0 3e 01 38 ca 3c a5 be a5 be 91 9d b6 3e
       0.31328896 0.024684908 -0.32372013 0.3566709
0001f0 57 ae 27 bf f6 25 e3 be e6 b8 53 be fe 1a a1 be
       -0.65500396 -0.443649 -0.20676002 -0.31465906

bias f4 [64]
000000 e8 a9 84 be e9 b4 17 bf 1b b1 0a be c1 ea 07 3e
       -0.25910878 -0.5926042 -0.13544123 0.13273145
000010 d0 56 d9 be 77 b6 4e bb 5f 7f 01 3f da bd b1 bd
       -0.42449045 -0.0031541863 0.5058498 -0.086787894
000020 7a dc 22 3d 7c c0 62 bd 06 45 06 3e fa 11 08 3f
       0.039761044 -0.05535935 0.13112268 0.5315243
000030 2c 4b 24 3f 39 f3 e1 3e 48 80 2b 3f 73 e5 49 bd
       0.64177203 0.44130877 0.66992617 -0.049291085
000040 11 36 20 bf a2 8e aa be 9e 91 ff 3e 4b 90 6f b8
       -0.625825 -0.33311945 0.49915785 -5.7116424e-05
000050 89 ba 94 be f4 1d 0a bf a3 7a 27 bf a6 8b 1c bf
       -0.29048565 -0.53951955 -0.65421504 -0.61150587
000060 6e 47 14 be ae 33 ce 3e 81 53 bd 3e a1 2c 31 bf
       -0.14480373 0.40273803 0.3697777 -0.69208723
000070 22 7c eb 3e 36 6d 0d bf c8 cb 0d be b8 d7 98 be
       0.45993143 -0.5524477 -0.13847268 -0.2985208
000080 f0 0e f7 bd 41 fc ca bd 88 6b 21 bf ee c3 16 bf
       -0.12063396 -0.09911395 -0.63054705 -0.58892715
000090 20 9b cb bd 00 0d c6 3a 12 12 a2 be fc 82 7f 3e
       -0.09941697 0.0015110075 -0.31654412 0.2495231
0000a0 e4 9a 23 bf 09 90 2b bd 07 b6 25 3f 1c ea 9e be
       -0.6390822 -0.04188541 0.64730877 -0.31037986
0000b0 af 20 29 3f 7c 93 7b 3e 18 04 24 bf 50 c7 e5 3e
       0.66065496 0.2456798 -0.64068747 0.44878626
0000c0 d8 12 6f bd 37 e3 9e be 3c 34 10 3f 0b d6 0f bf
       -0.05836758 -0.31032726 0.56329703 -0.5618598
0000d0 8b 92 a2 3d 9e 5c 1e be e4 0f ff 3e a2 00 4c 3e
       0.07938107 -0.15465018 0.4981681 0.19922116
0000e0 61 93 b3 3e 3e 4c 83 3e 77 0e 5a be d1 41 e7 bd
       0.3507338 0.25644106 -0.2129458 -0.1129185
0000f0 7b ba 0e bf d6 4a cd 3e 14 15 0f 3f d4 e1 fa 3e
       -0.55753297 0.40096158 0.5589154 0.49000418

weight f4 [64, 64]
000000 0c 95 08 be 64 58 80 3c 77 39 bd bd a4 38 f6 bd
       -0.13338107 0.015667148 -0.09239476 -0.12022522
000010 f7 91 d8 bd a3 25 39 3d e4 3e 86 bd ee fe 3e ba
       -0.105747156 0.04520191 -0.06554964 -0.0007285912
000020 8f cf 9d bc a6 ff b5 3d 63 cd ff bd d7 5b 09 be
       -0.01926401 0.08886652 -0.12490346 -0.1341394
000030 f5 0c a9 bd 55 be ac 3d c8 7e 1c bd 32 0b 95 3d
       -0.082544245 0.084347405 -0.038206846 0.07277526
000040 39 b1 5b 3d 39 60 dd 3c 1f 08 dc bc 6e a0 39 bd
       0.05363581 0.027023422 -0.026859341 -0.045319013
000050 e9 4d fd 3c 6b 74 54 bc 63 df f0 3b 34 3c 7d bb
       0.03092094 -0.012967209 0.0073508485 -0.003864062
000060 3c 11 c2 bd 15 22 d2 bd 50 9c b5 3d 95 1d de bd
       -0.094759434 -0.10260407 0.08867705 -0.10845486
000070 fe e5 11 3a 54 b0 07 3e 63 d9 d7 3c 04 47 9d bb
       0.00055655825 0.13250858 0.026348775 -0.0047997255
000080 ac 1b eb bd 78 af 51 3c 72 03 e9 bd 69 e9 e7 bc
       -0.11479887 0.012798183 -0.1137761 -0.02830954
000090 a8 28 99 bd ff 03 21 bd 8f e0 8b 3b 94 4e ec 3d
       -0.07478458 -0.03931045 0.004268713 0.11538425
0000a0 1c 76 6f b9 e9 23 d8 3d 80 80 8b 3d c7 ac 6e bd
       -0.00022836815 0.10553724 0.06811619 -0.058270242
0000b0 d9 65 5f 3d 9f 33 fc bd 6c 83 8a bd cf 2d 36 3d
       0.05454049 -0.123145334 -0.06763348 0.04447728
0000c0 a0 4a e6 3c e9 5c d2 3d bc d1 66 bd 1f 03 0d 3c
       0.028111756 0.102716275 -0.056352362 0.008606701
0000d0 4b 96 89 3d 43 f0 e2 bd 56 5e 6d 3d 22 59 fb bd
       0.06718119 -0.110809825 0.057951294 -0.1227286
0000e0 fb 8f de bc a1 e6 ec bc 9b 7c 8d bd 5a fb cf bc
       -0.027168265 -0.028918566 -0.06908532 -0.025388408
0000f0 25 ee be 3d b5 31 59 bd e1 e7 86 bd de ee 14 bd
       0.09322766 -0.05302592 -0.06587196 -0.036360614
000100 d6 0d 46 be 02 14 4b 3d 12 e3 6d bd 8f 49 19 be
       -0.19341215 0.049579628 -0.05807788 -0.14969467
000110 dd 21 8b bd fd 37 88 3d 0b 5c 73 3d ed 4b c5 3d
       -0.06793568 0.06651304 0.05941395 0.09633622
000120 70 03 89 3c dc a8 42 bd 4b 40 9a bd bc 7c 17 3d
       0.016725272 -0.047524318 -0.07531794 0.03698419
000130 5c 65 d2 3d 89 42 c7 3c 94 3d 83 bd b6 ba 5b bd
       0.10273239 0.024323719 -0.064082295 -0.05364486
000140 8c 4e fe bd fe a9 96 3c 39 0a 89 bd de 66 0f be
       -0.124173254 0.018391605 -0.06691403 -0.14004084
000150 5e 68 5f 3d cd 0f ec bd 21 e7 a6 bc fb 3b eb 3b
       0.05454289 -0.11526451 -0.020373883 0.007178781
000160 00 7b 8c 3a 68 f2 f1 bd 02 8d fb bd 9b 74 b1 3d
       0.0010717809 -0.118138134 -0.122827545 0.08664819
000170 5b 3a 34 3b 5b 75 c8 3d 1d 5a 90 bd bc 9f 17 3d
       0.0027500603 0.09788009 -0.07048438 0.03701757
000180 50 be 2d bd c6 d3 a6 bd 16 3a d6 bd cf 88 17 3d
       -0.042417824 -0.08145861 -0.10460298 0.036995705
000190 f0 86 87 3b 8b 75 fb bc 44 e2 46 bd 3b 26 cb bd
       0.004135959 -0.030695697 -0.048555627 -0.09919401
0001a0 6d bd b3 3d 1b 55 c8 bd d1 b1 2b 3d 14 8f 61 bd
       0.087763645 -0.097818576 0.041917626 -0.05506809
0001b0 94 49 70 bd a7 71 65 bc 6e c5 b7 bd 2a b2 bc 3c
       -0.05866392 -0.014004148 -0.089732036 0.023034174
0001c0 0b 35 b5 3a b0 4a cb bd 5c 09 9a bb fb 6d 43 3d
       0.0013825012 -0.09926355 -0.0047008228 0.047712307
0001d0 d3 a3 4a 3d e2 94 be bc 92 52 c7 bd 92 dd 82 bc
       0.04947264 -0.023264352 -0.09732546 -0.015974794
0001e0 b8 6a 3f 3d fa 27 5c bd fe aa 3f 3d c1 c4 24 3d
       0.046732634 -0.053749062 0.04679393 0.0402267
0001f0 e3 45 af bd 55 cf 27 3b 5d 35 3e 3d 8b e7 07 ba
       -0.08558252 0.0025605757 0.04643761 -0.0005184344
000200 64 d4 f6 3c 08 8e 59 3c 0b 66 c0 bd b1 63 fb 3c
       0.030130573 0.013278492 -0.09394463 0.030687185
000210 a2 99 ab 3d 15 40 e8 3d 90 b4 93 3d c0 01 9b 3c
       0.083789125 0.11340348 0.07212174 0.018921733
000220 14 ff a7 3d d7 36 7f bd 03 70 9c bd 4d fb d0 bd
       0.08202949 -0.06230816 -0.07638552 -0.10204182
000230 b4 44 05 3e 24 f3 df 3d 45 d0 b1 bd f1 7a 47 3d
       0.1301449 0.10935047 -0.086823024 0.04870123
000240 17 46 be 3d 46 4d f9 3d ed c3 f1 3d ba 24 f9 3d
       0.09290712 0.12172942 0.11804948 0.12165208
000250 27 1f 11 bd 6a af 36 bd ba 44 cf 3d 54 10 c3 3d
       -0.0354301 -0.04460088 0.101205304 0.09524599
000260 01 5b 96 bd a1 a3 0e 3e cc b7 ad 3d e2 7b c9 3d
       -0.07341576 0.13929607 0.08482322 0.09838082
000270 72 00 bf bd d0 e0 0a 3d ab 98 98 bc de 21 d1 3d
       -0.09326257 0.033905804 -0.018627485 0.10211538
000280 3a 5f a1 3b 00 75 99 3d 10 1a 3c 3d 09 ff 55 3d
       0.004924682 0.07493019 0.045923293 0.052245174
000290 e5 52 87 bc 85 58 b0 3d db 2d d4 bd b9 29 ac 3c
       -0.01651902 0.08610634 -0.10360309 0.021015989
0002a0 6c 6c 9f bd 53 72 be bd 50 b6 8f bd c0 6f bc 3d
       -0.07784352 -0.09299149 -0.07017195 0.09201002
0002b0 26 b6 c7 3d 83 46 15 3e cd 67 ff 3d ee 01 e7 bd
       0.09751539 0.1457768 0.1247097 -0.11279665
0002c0 f5 10 77 bd 97 27 b1 bc 95 48 67 bd 2d 9c ae 3d
       -0.060318906 -0.021625323 -0.056465704 0.08525882
0002d0 fa b0 bd bd 80 56 81 bd be f4 f0 bd 59 2c 7f bd
       -0.09262271 -0.06315327 -0.11765431 -0.062298153
0002e0 58 77 e4 3d 8d d4 08 3e 0d f1 bd 3d fe 68 01 3e
       0.111555755 0.13362332 0.092744924 0.12637708
0002f0 a0 9f 0d 3e 73 5d ce bc 1b 1d 5a 3d b7 c4 db 3d
       0.13830423 -0.025191044 0.053250413 0.1073088
000300 cc 2a 31 3d 88 19 14 3e fe 52 b3 3d 50 9d 9d 3d
       0.043253705 0.14462864 0.08756064 0.076960206
000310 58 64 4b bd ca 27 b0 3d a5 96 0b 3d 94 db 86 bb
       -0.049656242 0.08601339 0.034079213 -0.004115531
000320 54 dd ad bd 74 be 4b bd 4e 15 e6 bd 69 3e 94 3d
       -0.084894806 -0.049742177 -0.11234532 0.07238466
000330 a5 68 de 3d d1 02 98 bc 68 43 51 bd 48 5e c6 3d
       0.10859803 -0.01855603 -0.051089674 0.096859515
000340 a3 de cc 3d 2b 70 ee 3c 52 a5 41 bd 8e d8 cf 3d
       0.10003402 0.02910622 -0.047276802 0.101487264
000350 be 3c c4 3d 20 41 27 bd be 30 0f 3e 79 4c a6 3d
       0.09581898 -0.040833592 0.13983437 0.08120055
000360 fd df a3 bc fd 87 59 3d de 4b ac bd f0 99 c5 bc
       -0.020004267 0.053108204 -0.08412908 -0.024121255
000370 75 6f 0a 3e 05 85 ce 3c 79 04 d0 bd be e6 98 bc
       0.1351908 0.025209913 -0.10157103 -0.018664714
000380 f8 07 1e bd 02 be f1 bc 15 43 16 bb 8f fb 0a 3e
       -0.03858182 -0.029509548 -0.0022928168 0.13572524
000390 d2 18 18 bc 66 ec b9 bd cd e1 5d 3c f3 d2 c8 3d
       -0.009283261 -0.090782925 0.013542605 0.0980586
0003a0 02 68 a7 3d 28 64 fa bd 47 3b e9 bc 59 87 99 bd
       0.08174135 -0.122261345 -0.028470648 -0.07496519
0003b0 b6 d3 79 bd be c7 d8 3c 8b ef d3 bd cc e1 88 3d
       -0.06099292 0.026462432 -0.103484236 0.06683692
0003c0 03 0e c0 3d 07 6c e6 3c 00 c1 c6 bd b7 8a cc bc
       0.093776725 0.028127683 -0.097047806 -0.024968488
0003d0 79 a7 58 3d 34 c9 99 bd 9e 0e 74 3d 1e 82 cb bd
       0.05289409 -0.075090796 0.059584253 -0.09936927
0003e0 6c d6 e0 bd 81 fe 03 be 27 2b 89 ba 1a 3c 86 3d
       -0.10978398 -0.12890054 -0.0010465131 0.06554432
0003f0 ce 84 fa bd f4 94 fa 3d 28 3a f6 bc f3 94 63 3d
       -0.12232362 0.12235442 -0.030057028 0.05556197

bias f4 [64]
000000 d6 cf bd bd 38 c8 30 bd ed e7 1c 3d 0c 35 07 bd
       -0.09268157 -0.043159693 0.03830712 -0.033009574
000010 97 4d 83 bb a2 0a 3c bc 97 7c ea 3c 9f 62 13 3d
       -0.004007052 -0.011477144 0.028623862 0.035982724
000020 b4 af a1 bd 7c d2 a9 3d 28 eb 18 3d 29 88 6d 3d
       -0.07894841 0.082921 0.037333637 0.05799118
000030 9b 9b dc 3c 37 d4 c8 bd 44 18 0a bd 31 21 0d bd
       0.026929667 -0.09806102 -0.033714548 -0.034455482
000040 01 a4 d4 3c c0 f7 b1 bd 88 c1 7e 3c cd bf 23 b9
       0.02595711 -0.08689833 0.015549071 -0.00015616343
000050 b1 58 00 3d b5 fc bc bd 67 c9 5e 3b 5f 71 a3 3d
       0.031334583 -0.092278875 0.0033994557 0.07980608
000060 8e f4 7b bd 89 db 81 3c 31 d2 f8 3c fa 3f 83 3d
       -0.061512522 0.015851753 0.030373665 0.06408687
000070 5a 13 c8 3c d2 9a 8b 3d 8b 4e 92 bd 69 74 e9 3d
       0.02442329 0.06816639 -0.07143887 0.113991566
000080 70 ba 31 3c c1 1b a0 3d 67 cd ad 3a 2e fb 29 bd
       0.010847673 0.07817794 0.0013260067 -0.04149931
000090 c8 bb df 3c 32 0c ec 3d 7e b5 06 3e 00 1c e3 bd
       0.02731122 0.115257636 0.13155171 -0.11089325
0000a0 cd dc a1 3b f7 7a 67 bd bf 18 9f 3d fd 2b c0 3d
       0.0049396516 -0.056513753 0.07768392 0.0938339
0000b0 80 e7 ab bd 44 31 8c bc bb 9a 6d 3d a0 5f c2 3d
       -0.083937645 -0.017113335 0.05800889 0.09490895
0000c0 4f c9 8e bd 99 73 1a 3d 5c dc 53 bd 83 4e f4 bd
       -0.0697199 0.0377079 -0.051723823 -0.119290374
0000d0 69 5e a6 3b 75 96 66 3d 40 43 9c 3d 9a b4 74 bd
       0.0050771725 0.05629583 0.076300144 -0.059742548
0000e0 49 4c 83 bd 77 a9 ad bd fd 10 30 3d e0 a6 ba bd
       -0.064110346 -0.084795885 0.04298495 -0.0911386
0000f0 05 29 4b 3d e2 9f b9 bc ff 6c b8 3d 48 2d 88 3b
       0.049599666 -0.022659246 0.09005164 0.0041557886

weight f4 [64]
000000 6c f5 88 3f 54 b9 7a 3f df 0b 7a 3f d0 7b 84 3f
       1.0699897 0.9793904 0.97674364 1.0350285
000010 f6 13 82 3f 85 50 79 3f af 7a 7b 3f 8c 3a 7c 3f
       1.0162342 0.9738849 0.98234075 0.98526835
000020 0f 10 82 3f fe 03 7c 3f ee d7 82 3f 6b 23 83 3f
       1.0161151 0.9844359 1.0222147 1.0245184
000030 0d 99 7e 3f b0 18 80 3f 67 4a 7f 3f b4 0f 7e 3f
       0.99452287 1.0007534 0.99722904 0.9924271
000040 9b d4 77 3f 8f 8d 76 3f 7d 08 7f 3f 20 a6 7c 3f
       0.96808785 0.9630975 0.9962233 0.98690987
000050 f8 82 87 3f b8 9b 86 3f 9f 72 7a 3f c0 b6 82 3f
       1.0586843 1.0516272 0.9783115 1.0212021
000060 08 be 76 3f 56 7e 84 3f e9 39 84 3f 31 5d 84 3f
       0.96383715 1.0351055 1.0330173 1.034094
000070 c6 ba 84 3f 7f 4e 77 3f 45 03 7d 3f 2f fa 76 3f
       1.0369499 0.9660415 0.98833114 0.964755
000080 0f 47 85 3f f0 60 80 3f 3d 44 7f 3f 15 bb 7b 3f
       1.041231 1.0029583 0.997135 0.9833234
000090 a9 e3 83 3f 21 8b 85 3f 06 1f 86 3f 6c d4 7c 3f
       1.0303851 1.0433084 1.0478218 0.9876163
0000a0 0a 6f 7c 3f 6b 93 80 3f 37 21 82 3f 2e 2b 84 3f
       0.9860693 1.0044988 1.0166386 1.0325677
0000b0 ad 98 82 3f 9a fb 83 3f 06 3c 84 3f c0 25 7a 3f
       1.0202843 1.0311158 1.0330818 0.9771385
0000c0 42 89 80 3f 96 54 7d 3f e3 66 82 3f 6e 96 7c 3f
       1.0041888 0.9895719 1.0187649 0.9866704
0000d0 73 75 76 3f b9 9d 7d 3f eb 91 78 3f a2 06 74 3f
       0.96272963 0.9906879 0.97097653 0.9532262
0000e0 76 43 76 3f 1b 0d 7f 3f a7 87 7b 3f b2 a5 7e 3f
       0.9619669 0.9962937 0.98253864 0.9947158
0000f0 b1 46 84 3f 0a 52 7f 3f 3a 30 75 3f 04 48 72 3f
       1.0334073 0.99734557 0.9577671 0.9464114

bias f4 [64]
000000 60 0d 7b 3c 5f 98 84 bd 5c 7d cc bd d3 90 a7 3d
       0.015323013 -0.06474375 -0.09984848 0.0818192
000010 25 7f 3b bd c8 38 c8 3d e2 52 19 3d de 1a 67 bd
       -0.04577555 0.09776455 0.03743256 -0.056422107
000020 ea 62 c4 3d ad 26 7d bd a8 d4 9a 3c 6c 70 01 3d
       0.09589179 -0.061804462 0.01890023 0.031601354
000030 f3 f9 29 bd 48 5a a7 3d 5f fb 94 3a 65 ed 52 bd
       -0.041498136 0.08171517 0.0011366418 -0.05149593
000040 9a 0b 54 bd 14 24 5e bd ee 3f d9 bb 72 51 aa 3b
       -0.051768877 -0.054233626 -0.0066299355 0.0051976973
000050 70 11 51 bb 93 0e 6f bb 02 4c f7 bc e8 c8 02 3d
       -0.0031901263 -0.0036477193 -0.03018761 0.03192988
000060 4b 33 32 3d b0 d9 f5 3c c9 0a 40 3d 9b b5 86 bc
       0.043505948 0.030011028 0.046885286 -0.016444018
000070 e5 dd c3 3d ac a2 bf bd e4 8e 90 3b 85 f6 f6 bb
       0.095638074 -0.09357199 0.004411565 -0.0075367116
000080 ba 69 48 3d f7 c2 24 3c 1d 39 b7 3d 6a 7a 9a bc
       0.048928954 0.010056249 0.0894644 -0.0188572
000090 7c c1 17 3d 25 4a f8 3c f2 f4 33 bd df 10 9a 3d
       0.037049755 0.030308792 -0.04393477 0.07522749
0000a0 a4 c6 d2 bc 9d bd 0d bd f0 a2 49 bd 2e 3c 97 bd
       -0.025729485 -0.034604657 -0.049227655 -0.07384525
0000b0 f4 86 11 3d 81 86 47 3c 27 36 67 3d 15 38 15 bd
       0.035529092 0.012178064 0.056448128 -0.036430437
0000c0 79 e8 05 3d 80 2d 24 3c 7a c2 19 3d 5c e2 8e bd
       0.032692406 0.010020614 0.037538983 -0.069767684
0000d0 1b 98 77 bd 63 41 02 bd d2 b3 42 3c 22 6c b7 bd
       -0.060447793 -0.03180064 0.011883693 -0.089561716
0000e0 d5 bd d5 3c df 04 8d bd c6 68 a1 3c c4 2d d7 bc
       0.026091496 -0.06885695 0.01970328 -0.02626694
0000f0 5a 4f 81 3b f8 e2 21 bc b1 2c 9f bd ab b0 a9 3b
       0.003946227 -0.009880774 -0.07772196 0.005178531

running_mean f4 [64]
000000 e1 a8 80 be 3f 93 c4 bf 7c 2f 43 bf 95 35 17 3e
       -0.25128844 -1.5357436 -0.7624433 0.14766534
000010 7f e8 13 bf 53 3d 02 bf c5 cc 10 bf 95 8d 32 bf
       -0.57776636 -0.50874823 -0.56562454 -0.6974729
000020 76 f1 1a 3f a0 d2 67 bf 97 f8 06 3f a0 ca 83 3e
       0.6052469 -0.90555763 0.5272307 0.25740528
000030 3e 07 db 3e 98 c9 de 3f d3 dc 8a bd bb f8 1a bf
       0.42778963 1.7405272 -0.067804 -0.6053578
000040 36 f0 b3 bf 03 9f a7 bf 15 a4 92 be a9 f9 21 3f
       -1.4057682 -1.3095402 -0.2864081 0.63271576
000050 ff d4 33 be 0a 5b a4 be 52 cd cb bf ea 91 40 3e
       -0.1756172 -0.32100707 -1.5922034 0.18805662
000060 54 40 36 bf aa 8e 82 3f 81 13 5c 3f 0e 6c 6d 3e
       -0.71191907 1.0199788 0.8596726 0.23185751
000070 e5 56 3a 3f 03 39 b8 bf 3c fd e9 3e c9 52 8b bf
       0.7278884 -1.4392399 0.45701015 -1.0884639
000080 2f 81 19 3f 18 8a 5a bd d6 a7 88 3e 38 6f bd bf
       0.59962744 -0.053354353 0.2669055 -1.4799566
000090 d2 31 b8 3e f5 4e 8f 3f 71 54 e5 bc 95 22 cd 3e
       0.3597551 1.1195971 -0.027994366 0.40065446
0000a0 3a 98 fe bf e1 2d 7b 3f c5 d0 66 3f 83 fa 01 bf
       -1.9890206 0.9811688 0.9016231 -0.50772876
0000b0 99 d2 9b 3f 97 d4 09 3f e6 bc 46 3e be 23 4d bf
       1.2173644 0.5384001 0.19407997 -0.80132663
0000c0 32 93 15 3f 9d 2b 95 bf ac 28 e8 3f 0b dd 85 bf
       0.5842773 -1.1653935 1.8137412 -1.0458082
0000d0 ed f9 98 bf 80 35 88 bf 3b a3 c6 3e cc bf d3 be
       -1.1951271 -1.0641327 0.3879641 -0.41357267
0000e0 f7 9c e3 be bc 60 9a 3f 22 f3 09 bf 09 23 b4 bc
       -0.44455692 1.2060771 -0.53886616 -0.021989362
0000f0 eb e1 9d 3c d7 48 6c be db 27 1b bf 8e ac 0d 3e
       0.019272765 -0.23074661 -0.6060769 0.13835356

running_var f4 [64]
000000 19 60 7b 3e eb 76 ce 40 e8 c6 d9 3f d3 c0 db 3e
       0.24548377 6.4520164 1.7013826 0.4292055
000010 4b b3 8e 3d 80 00 ae 3f 5c d5 f9 40 81 82 ea 3f
       0.06967791 1.3593903 7.807295 1.8321077
000020 47 82 1b 40 6b 41 90 40 24 25 ff 3f 37 e3 95 3e
       2.4298265 4.5079856 1.993321 0.29274914
000030 33 5b 30 3e 67 49 c6 40 04 4b 4e 40 81 b5 6d 3f
       0.1722229 6.1964602 3.2233286 0.9285508
000040 af 0a 7f 40 9d e7 de 40 a1 39 fd 3f b9 85 2b 40
       3.985027 6.965773 1.9783212 2.6800368
000050 fe a9 e2 3d 2f 05 cb 3e 3b 5e b0 40 1f 14 8c 40
       0.1106758 0.39652392 5.5115027 4.377456
000060 f4 22 d3 3f d3 b0 85 40 69 6a ae 3f d8 94 4c 40
       1.6495042 4.177835 1.3626224 3.1965847
000070 6f 32 98 3e b7 c6 a0 40 98 a7 15 40 7c 61 24 40
       0.29725978 5.024257 2.338354 2.56845
000080 0c 61 15 40 5f 35 9c 3d 9e 56 c3 40 3c f1 9b 40
       2.3340483 0.07627367 6.1043234 4.8731976
000090 f0 94 15 40 64 b7 0b 41 bf a2 b7 3e f2 be 2b 3e
       2.3372154 8.732273 0.35866353 0.16772059
0000a0 2a a2 db 40 88 93 5d 40 4d d4 70 3e c4 b9 06 3f
       6.8635454 3.4621296 0.23518486 0.52627206
0000b0 2f 3d 82 3f d8 b9 88 3f ee dc 8a 40 1d e9 1b 41
       1.0174922 1.0681715 4.339469 9.744412
0000c0 ba 0b 17 40 0a 45 a4 40 40 98 1a 41 32 61 c4 3f
       2.3600907 5.1334276 9.66217 1.5342162
0000d0 7d 0f 00 41 be 07 c2 40 97 b3 1c 3d 14 d9 a2 3f
       8.003781 6.063445 0.038257208 1.2722497
0000e0 ab b7 ff 3f 91 20 45 40 c7 9d f4 3e 74 bb 27 3e
       1.9977926 3.0801127 0.47776625 0.16380101
0000f0 17 90 d6 3f 22 00 b4 3f 9f b2 08 41 bb de 8a 3f
       1.6762723 1.406254 8.543609 1.0849222

weight f4 [64, 64]
000000 c0 89 2b bd 82 97 31 3d 7b 0e 15 3e dd 84 2b 3c
       -0.041879416 0.04335738 0.14556305 0.010468689
000010 f8 04 7b bd 85 60 71 bd 4c 2b 0e be 69 9d b5 bd
       -0.061284035 -0.05892994 -0.13883704 -0.08867914
000020 44 7a 9a bc e7 08 e3 bd 39 61 fe 3d a0 37 43 3d
       -0.018857129 -0.11085682 0.124208875 0.04766047
000030 3f d8 15 3e 2f 6a 19 bd 4b df b4 3c 7c 45 66 3d
       0.14633273 -0.03745478 0.02207913 0.05621861
000040 16 7a 1c bd 28 7f 97 bd 97 87 d0 bd 7e f7 8a 3d
       -0.038202368 -0.073973 -0.10182112 0.06785487
000050 17 a4 bd 3d f0 66 25 be 96 81 76 bd 39 59 cc bd
       0.09259813 -0.16152549 -0.060182177 -0.09977955
000060 5c c5 39 bd 10 dc cc 3d 58 e8 95 3d e3 2d 79 3c
       -0.045354232 0.10002911 0.07319707 0.015208694
000070 8d c1 81 3d c4 10 a2 3d 7d cc 9e 3d 28 17 9c bd
       0.06335745 0.07913354 0.07753847 -0.07621604
000080 4e da 8d 3d 8b 0a ff bd 5c a6 79 bd cd b6 81 bd
       0.06926404 -0.12453183 -0.06094967 -0.063336946
000090 63 51 0c 3c ba 0e a2 bd 75 5b a9 bc d2 1f 2a 3d
       0.008564326 -0.07912965 -0.020673493 0.041534252
0000a0 d1 13 3d bd 31 fb 86 3d b5 90 e2 3d f8 e6 23 bd
       -0.046161477 0.0659088 0.11062757 -0.04001519
0000b0 43 9e 37 bd a0 5b ea bd 63 a9 d9 bd 83 28 88 bd
       -0.044828665 -0.11443257 -0.10628011 -0.06648352
0000c0 6d 9e ce bd be be 53 bd 52 ec 7c 3d a2 c5 bb 3d
       -0.10088811 -0.051695578 0.06174881 0.09168555
0000d0 b2 25 15 3e 70 65 38 3e a2 b6 80 bd 47 a7 a6 3b
       0.14565161 0.18007445 -0.062848344 0.005085859
0000e0 dd 5a 73 3d 21 d3 98 bd fc 43 b8 3d b1 be 8b bd
       0.059412826 -0.07462145 0.08997342 -0.06823481
0000f0 4d 58 26 be 7d 5e b0 bd ef 6d aa bd bd 44 59 3d
       -0.16244622 -0.08611772 -0.083217494 0.05304407
000100 60 04 ec 3d 22 5d 9e 3d 8c 12 76 bd 43 7a ae bd
       0.11524272 0.077326074 -0.06007628 -0.08519413
000110 b1 1a 95 bd 10 82 8c bd ed 23 84 bc 27 07 04 be
       -0.072804816 -0.06860745 -0.016130412 -0.12893353
000120 06 73 a3 3d 5e b3 af bd f4 a0 c7 bd ed d9 ae 3d
       0.07980923 -0.085791335 -0.09747496 0.0853766
000130 f0 33 92 bd 91 c3 1f 3d 58 9a 07 3e 0b 78 39 3e
       -0.071388125 0.039004866 0.13242471 0.18112199
000140 8c 39 43 3d 60 04 86 bc a5 13 4b 3d 99 2c 6b 3c
       0.047662303 -0.016359508 0.04957928 0.014353895
000150 30 81 82 bc 2d d2 6e bc d9 79 35 3d 3e 0d a3 3d
       -0.015930742 -0.014576477 0.044305656 0.0796151
000160 ca d6 18 3d d3 91 29 3d 21 10 6d 34 47 81 f9 3c
       0.037314214 0.041398834 2.2078213e-07 0.030457152
000170 06 9a 10 3d 02 10 a4 3d 27 b4 b0 bd 3c 10 23 3d
       0.03530314 0.08010866 -0.08628111 0.039810404
000180 92 a3 61 bd c9 fc ae bd fc 90 a1 3d cc ca 2f 3d
       -0.055087633 -0.08544309 0.07888982 0.04291801
000190 0b 9e c3 3c 7a d9 93 bd ba be a1 3d 6f e5 28 3e
       0.023879072 -0.07219215 0.07897706 0.16493772
0001a0 1c c2 aa 3b 85 90 c3 3d cd a4 03 be 17 2f 8a 3d
       0.005211128 0.09549049 -0.12855835 0.06747263
0001b0 46 71 e8 3c 96 b2 42 3d 38 4a 9a 3d f9 0e 43 3b
       0.028374325 0.047533594 0.07533687 0.0029763563
0001c0 0c 46 08 3c 16 c0 06 3e 4a 65 d4 3d 33 04 cd bc
       0.008317482 0.13159212 0.10370882 -0.025026416
0001d0 38 b5 09 3e fe 52 1b 3e af 2a 34 3c d1 14 d8 bd
       0.13448036 0.15168378 0.010996505 -0.105508454
0001e0 7d c7 19 3d 4a 49 50 bd 6e 09 eb 3d d4 32 d5 bd
       0.037543762 -0.050851144 0.11476408 -0.10410085
0001f0 4a 39 9f 3c 89 46 7b 3c fb 58 9f 3c 40 76 d4 3d
       0.019436497 0.015336641 0.019451609 0.10374117
000200 3b 00 6b 3c c8 08 dc bd e2 c4 7c bd 6a ea 32 bd
       0.014343317 -0.107438624 -0.0617112 -0.043680586
000210 21 13 92 3c 81 7f 10 bd d0 e9 31 bd af 00 28 bd
       0.017831387 -0.035277847 -0.04343587 -0.041016277
000220 c6 69 62 3d 40 87 07 be 77 91 ba 3d 0b 1c 2d bc
       0.055276655 -0.13235188 0.091097765 -0.010565768
000230 13 14 ae 3d 77 1e db 3d a7 91 b9 3c 16 19 42 3d
       0.084999226 0.1069917 0.02265246 0.047387205
000240 1c 41 94 bd e2 a4 d4 3d 80 9c 94 3d 60 a4 44 3c
       -0.07238981 0.103830114 0.072564125 0.012002081
000250 ea 31 26 3d 50 b3 9c bc 9e f9 ad 3d dd b8 91 3d
       0.040574946 -0.019128472 0.08494876 0.07115338
000260 77 4a bb 3d ba 57 e9 bd 58 13 fb 3d d9 d7 2c 3d
       0.091450624 -0.11393686 0.12259549 0.042198036
000270 6e f3 7c 3d 52 fe af 3a ec 1e ab 3d 12 02 14 3e
       0.06175559 0.0013427234 0.08355507 0.14453915
000280 58 88 9f 3b 3d b6 e7 bd 27 d1 04 3e 63 ed e2 bc
       0.0048685484 -0.11314056 0.1297041 -0.027701085
000290 b8 ce 57 3c c3 81 91 3d 5b 41 9c 3d 79 28 34 3d
       0.013171844 0.07104828 0.07629653 0.04398391
0002a0 4f db cc 3c 3d d1 e7 bc af d9 f2 3d 59 a2 d4 3d
       0.025006918 -0.028298015 0.11857926 0.10382528
0002b0 26 10 cd 3d 58 c7 c5 3d 84 83 75 bd 61 a8 ea 3c
       0.10012846 0.096571624 -0.059939876 0.028644742
0002c0 9b e7 21 be 49 eb be 3c ab 97 d9 bd 62 74 0d be
       -0.15811007 0.023305552 -0.106246315 -0.13813928
0002d0 e4 f7 03 be b6 35 9f 3d 06 9a c3 bb 22 3f 32 3d
       -0.12887532 0.077739164 -0.0059692888 0.04351724
0002e0 61 50 2d 3d cf be 30 bd 50 b0 f2 bb 25 97 e0 bd
       0.042312983 -0.04315072 -0.007406272 -0.109663285
0002f0 60 f8 0b bd d6 39 9f bd 70 4e 92 3b 44 98 08 3e
       -0.034172416 -0.07774703 0.004464917 0.13339335
000300 98 57 df bd 40 e6 14 bd 73 ea d2 bd 5e 1d 6e bd
       -0.10905379 -0.036352396 -0.10298624 -0.058133475
000310 47 22 c5 3c 1d 27 8b 3b 88 85 84 3d b4 8c 3d bc
       0.024064196 0.004246606 0.064707816 -0.011569191
000320 6b b4 7f bc 21 fa 59 bd 6a e6 15 3c 84 c7 01 be
       -0.01560698 -0.053217057 0.009149173 -0.12673765
000330 69 68 06 be 87 f4 94 bd 81 f0 f8 3b c2 49 c1 bd
       -0.13125767 -0.072732024 0.0075970297 -0.09437896
000340 40 1b a6 bd ac d5 df 3d 2d 77 c1 3d 40 73 5b bc
       -0.08110666 0.109294266 0.09446559 -0.013394177
000350 79 cc 50 be 38 36 8a bd b8 cc 80 3d fd a8 33 3d
       -0.203905 -0.06748623 0.06289047 0.04386233
000360 30 90 28 bd ef f2 dd bd 18 34 35 bd 9c e7 69 3a
       -0.041153133 -0.108373515 -0.044239134 0.0008922757
000370 3b f6 80 3d da 21 cf bd 5d 43 ca 3d e3 4a 6f 3d
       0.06296965 -0.101138785 0.0987613 0.058421027
000380 ed ad 33 bd 02 b3 01 be 05 03 42 3e 54 8a 88 bd
       -0.04386704 -0.12665942 0.18946464 -0.06667009
000390 13 10 c6 3d 56 c4 bb bd f4 9f c3 bd 95 d5 96 bd
       0.09671035 -0.091683075 -0.09551993 -0.07364956
0003a0 58 9d 90 bd a4 b8 d2 bc ca 13 e4 bc 21 3f 89 3d
       -0.07061261 -0.02572281 -0.027841467 0.06701494
0003b0 bc 00 e8 bd 2c 71 27 3d 8d 28 19 3e bf 1e b2 3b
       -0.11328265 0.040879413 0.14956875 0.005435794
0003c0 00 9e 94 bd ff bd 15 bc 98 00 73 3d 11 0a 60 3d
       -0.072566986 -0.009139537 0.059326738 0.0546971
0003d0 fc 38 92 bc cf ba 5c bd 87 b7 86 bd 3a 06 d0 bd
       -0.017849438 -0.053889092 -0.06577974 -0.101574376
0003e0 3b d4 e3 3c b1 d8 d7 bd 49 42 0c bd 98 86 9b bb
       0.02781116 -0.105393775 -0.034242902 -0.0047462694
0003f0 9c 03 8f 3d 55 b2 0c 3e 74 93 ea bd 4b 9e ad 3d
       0.0698311 0.13739903 -0.11453906 0.084774576

bias f4 [64]
000000 9e 7d 87 3d fe c8 ea 3d fc a6 16 bd c1 65 e2 3d
       0.066157565 0.114641175 -0.036780342 0.11054564
000010 47 2a f9 3b b7 2a bf bd 29 23 f0 bd fb 47 59 bd
       0.007603917 -0.09334319 -0.11725456 -0.05304716
000020 8f 3a ba 3b 5c b4 d8 3d a9 8a 74 bd 89 01 4a bc
       0.0056832503 0.10581276 -0.05970255 -0.012329468
000030 48 56 b5 3d 8f cc 07 bd eb 7e 81 3d cc ae 8e bc
       0.088543475 -0.033154067 0.06323036 -0.017417334
000040 81 76 38 bd 96 a7 95 bd ad 02 f8 3d 63 78 48 bd
       -0.04503489 -0.07307355 0.12109885 -0.048942935
000050 c7 6f 06 3c b2 3c 48 3d 8f ff c1 3c fc 44 da bb
       0.008205361 0.04888601 0.02368143 -0.0066610556
000060 4e 5c ff bc ba ba 6c bd 11 d8 3a bc 0a db 52 bd
       -0.031171944 -0.057795264 -0.011404053 -0.051478423
000070 a0 02 1c 3d cc 74 85 3d b4 31 63 3d 3e 5a 86 bd
       0.03808844 0.06516418 0.055467322 -0.06560181
000080 b0 7b a5 bd 7a a3 01 bd 57 2f 07 3d ac 4b 15 3c
       -0.08080232 -0.031650044 0.03300413 0.00911228
000090 1c a2 00 3e c9 31 47 3d 73 66 2f bd 54 3e b5 3d
       0.1256184 0.048631463 -0.042822313 0.08849779
0000a0 a8 ea 90 bd 7e 06 53 bc 6c 36 c8 3d 2e 7f 97 bd
       -0.07076007 -0.012879966 0.09776005 -0.073973045
0000b0 9c 19 3d bd 7b f7 e8 bd f2 0f 66 3d 67 f7 c3 3d
       -0.046167 -0.11375328 0.05616755 0.095686726
0000c0 25 07 e1 3d 63 f6 28 bd 17 3c b3 bd 3c f8 73 3d
       0.10987691 -0.041250598 -0.087516956 0.059562907
0000d0 33 a6 f0 bc c5 13 2e bd 64 36 fe bd 27 5c a8 3d
       -0.029376125 -0.042499322 -0.12412718 0.08220702
0000e0 02 9f 2d bd 98 37 5d 3c 50 00 61 3b b6 4a 60 3a
       -0.04238797 0.013502024 0.0034332462 0.00085560547
0000f0 46 55 fa bc c0 91 d0 3d 20 20 eb bd 8f a4 bd bc
       -0.03055824 0.101840496 -0.11480737 -0.023149757

weight f4 [64, 64]
000000 5e 43 d0 bd 93 f8 ae bd 1a 54 4c 3d 38 05 a3 3d
       -0.10169099 -0.085435055 0.049884893 0.0795998
000010 e4 d1 39 3d 6a 65 6e 3d 75 c5 af 3d 19 b4 88 3d
       0.045366183 0.058202185 0.08582584 0.06674976
000020 28 9d b8 3c a9 88 8a bd 9f bc a2 3d 1f 13 9e 3d
       0.022535875 -0.06764347 0.07946133 0.07718491
000030 ee 49 a1 3d 30 e5 dd 3b 12 88 13 3e 2b f6 50 bd
       0.07875429 0.006771706 0.14407375 -0.051016014
000040 a0 46 98 3d 3b 42 f7 3d 47 02 6d 3c 5f c1 5c 3d
       0.07435346 0.12073179 0.014465875 0.05389535
000050 95 c6 e3 3d b0 9b 17 be b7 91 b0 3d ae c1 52 3d
       0.11121861 -0.14805484 0.08621543 0.05145424
000060 1d f0 ce 3d af a8 73 3d 29 ab cf 3d 47 a6 4b 3c
       0.10104392 0.05948704 0.10140068 0.01242978
000070 10 de 96 3d 8a 8a e3 bd e8 c3 07 be 1d 1e c8 3d
       0.07366574 -0.111104086 -0.13258326 0.09771369
000080 4e d6 06 3e a1 0a 06 bd 8a 02 c9 3d 91 d5 87 3b
       0.13167688 -0.03272498 0.098149374 0.004145332
000090 d5 0e 9e 3d f8 40 96 bb e7 4f 8c 3d 7f 2a 42 bd
       0.07717673 -0.0045853816 0.06851178 -0.04740381
0000a0 cf 80 e4 bd 1a b7 a3 3d 89 86 93 bd 4b 6e ce 3d
       -0.11157381 0.07993908 -0.07203395 0.100796305
0000b0 60 cf 4e 3c b5 97 44 bd 59 4d e6 3d ac c6 ed 3d
       0.012622684 -0.04799624 0.11245222 0.11610159
0000c0 3f 34 08 bd 45 04 82 3d 21 87 82 3d 01 0d 36 bd
       -0.03325295 0.063484706 0.0637343 -0.044445995
0000d0 d9 0d aa 3d 4d d5 df bd 42 f4 9f 3c 15 57 d5 bd
       0.083034225 -0.10929356 0.01952565 -0.10417
0000e0 06 88 0c 3e c7 85 ae 3d fe 11 cd 3d 18 6b 22 3c
       0.13723764 0.0852161 0.10013197 0.009913228
0000f0 9b fb 5a bd 8d 2e 92 3d 55 c6 ac 3d 2c f9 8e 3d
       -0.053462606 0.07137785 0.08436266 0.069811195
000100 04 49 52 bd 19 d8 e0 3d 3b ba 85 bd 6d 44 e4 bd
       -0.051339164 0.10978717 -0.06529661 -0.11145864
000110 0b f3 0b 3d de 4c 17 3e 2c b9 4b 3d 79 ee 07 bc
       0.03416733 0.14775416 0.04973714 -0.008296602
000120 75 e9 92 bd ad 30 bb 3d 09 b7 d0 bd eb c6 89 bd
       -0.07173435 0.091401435 -0.10191161 -0.06727394
000130 df 3f 9c 3d 78 bc ce bc c0 dd dc bd a6 b1 77 bd
       0.0762937 -0.025236353 -0.10784483 -0.060472153
000140 b9 90 22 3d ca 76 96 bd b6 a7 0e bd 7b 07 9e bc
       0.0396888 -0.07346876 -0.03482791 -0.019290676
000150 64 1e 31 3d 5e 32 8f 3d ae 6c 0b 3d e3 1b aa 3b
       0.043241873 0.06992029 0.034039192 0.0051913126
000160 f4 93 b4 bd 99 36 b6 3d 01 11 b5 3d 6a 3b 72 3d
       -0.08817282 0.088971324 0.08841134 0.059138693
000170 19 9b 43 3d 20 d8 1a bd 9a fe 95 3c 03 2f 02 be
       0.047755335 -0.03780377 0.01830988 -0.12713246
000180 de be a4 3d f9 af 3e bd e1 f3 d2 bc f2 56 ff bd
       0.080442175 -0.04655454 -0.025751056 -0.124677554
000190 85 49 b1 3b 34 86 9e 3c a3 05 f7 3d 6f b5 30 bd
       0.0054103755 0.019351102 0.12061622 -0.04314178
0001a0 6c 47 48 3c b2 8a ec 3d fd 25 60 3c a7 f0 cf 3d
       0.01222406 0.115498915 0.013680932 0.10153323
0001b0 91 06 12 3e 66 3e fb 3d 4f e8 78 3d 55 69 cd 3d
       0.14260317 0.12267761 0.06076842 0.10029856
0001c0 25 0e f3 3d 97 84 a4 ba ff da e2 3d da 00 4f bc
       0.11867932 -0.0012551722 0.110769264 -0.01263448
0001d0 13 81 19 3d 10 70 d9 3d 41 83 ae bd 88 d5 03 bb
       0.03747661 0.10617077 -0.085211284 -0.0020116288
0001e0 e0 2c 48 bb 76 af 24 bc d8 60 bb 3b 79 67 92 3b
       -0.0030544326 -0.010051599 0.005718332 0.0044679013
0001f0 94 18 85 3d b9 c0 dd 3d c4 d8 5c bc ca 72 4e 3d
       0.064988285 0.108277746 -0.013479415 0.05040244
000200 10 0e 61 3d 01 42 69 3d 63 04 bc 3d 94 9d 77 bb
       0.05494505 0.05694771 0.09180524 -0.0037783133
000210 f0 21 42 bd 69 51 08 bd 9a 6f 1b bd 15 21 fb bd
       -0.047395647 -0.033280764 -0.03794823 -0.12262169
000220 6b d5 25 bd ec a6 fb 3d 2d 05 25 3d dc 38 90 bd
       -0.040486734 0.12287697 0.04028814 -0.07042095
000230 da 51 a5 3d 59 31 f3 bb c4 30 1e bc 52 fb 22 3d
       0.080722526 -0.007421654 -0.009655181 0.03979046
000240 63 8a 97 bd 61 c7 8f bc 80 f6 9c 3d 45 d6 77 3d
       -0.07399442 -0.017551126 0.07664204 0.060507078
000250 53 c2 45 3d bd 75 d5 3c 72 52 05 bc 9d 46 39 3d
       0.048281025 0.026057119 -0.008137332 0.045233358
000260 9c f2 05 bd 7b 4d 9e 3d c9 70 99 3d 42 4f 28 3d
       -0.032702073 0.07729622 0.07492215 0.04109121
000270 82 e5 ad 3d 40 cf 60 bd be b8 f5 bd 5d a2 24 be
       0.08491041 -0.05488515 -0.119981274 -0.16077562
000280 00 c6 b9 3d 50 bb a9 bd a6 4b c7 bd 74 db 01 bc
       0.09070969 -0.0828768 -0.09731226 -0.007925857
000290 35 2d 16 bd 83 87 40 3c f0 47 e5 bc 3f 14 fb 3d
       -0.036664207 0.0117510585 -0.027988404 0.12259721
0002a0 d7 46 0f be 8a c8 15 be 24 c7 d0 3d ba 5d a1 bd
       -0.13991867 -0.14627281 0.10194233 -0.07879205
0002b0 7e db 55 3d 9d 13 97 3b f8 d3 70 3b 3f a6 af bd
       0.052211277 0.0046104924 0.0036747437 -0.08576631
0002c0 17 51 e7 38 f9 2e b0 bd 59 c2 8a 3d ec 05 41 3d
       0.000110300425 -0.08602709 0.0677535 0.04712479
0002d0 d2 e1 e1 3d a4 2e b6 3d 08 a0 c4 3c cc 1a 8f 3d
       0.110294 0.08895615 0.02400209 0.06987533
0002e0 0b cd b2 3d 2f f1 34 be 63 d7 89 3d d8 39 69 bd
       0.08730515 -0.17670129 0.06730535 -0.05693993
0002f0 2d d5 bc 3d 0a 99 31 bd 24 f8 a8 3b 4b e4 f8 3d
       0.092203476 -0.04335884 0.005156534 0.121529184
000300 5e b0 b1 3c 67 24 d2 bc c9 5f 50 3d 88 f6 c8 bd
       0.021690544 -0.025652124 0.050872598 -0.09812647
000310 98 9f c8 bc 23 46 52 bc 36 39 fe bd b5 9b 5e bc
       -0.024490163 -0.012834105 -0.12413256 -0.013586928
000320 7d b1 ea 3c 94 ea bb bd f5 5d f2 3d 9d 60 33 3d
       0.028649086 -0.091756016 0.11834327 0.04379331
000330 2f a2 d2 3d 8e cd 9c bd 3c 17 02 be 9f 5c 86 3d
       0.1028484 -0.07656394 -0.12704176 0.06560635
000340 5b e6 e8 3d 2d 7a af bd ed 3f ad bd 1a 97 e9 bc
       0.11372062 -0.08568225 -0.084594585 -0.028514434
000350 80 52 d0 3d d6 e5 05 bb b9 8b ce bd 92 c0 d5 bc
       0.101719856 -0.0020431182 -0.10085244 -0.026092801
000360 a0 65 4d bd c5 4b cd 3d a5 a1 c7 bd 76 30 c0 3d
       -0.050145745 0.100242175 -0.09747628 0.09384243
000370 bb 9b 89 3d 50 35 d1 3c 18 c2 80 bd ff 43 96 3d
       0.06719156 0.025538117 -0.062870204 0.07337188
000380 2b ff d2 bd 20 81 f6 bc 1b e7 a8 3d 31 c2 d1 bc
       -0.10302576 -0.030090868 0.08247205 -0.025605293
000390 73 69 05 3c d9 e1 a3 3d 64 f7 fb bd b9 ad 9d bb
       0.008142817 0.080020614 -0.123030454 -0.004811969
0003a0 b9 0f 07 bd 13 58 c8 bd 3b b1 f0 3d de 3d e0 3d
       -0.03297398 -0.09782424 0.11752554 0.109493
0003b0 af e3 26 3b c4 3a 01 bd 96 f2 60 3d 20 0a 75 bd
       0.00254653 -0.031550184 0.054918848 -0.05982411
0003c0 70 cc c2 3d 6c 01 ec bd 6d 61 f6 bd ca d7 c5 3d
       0.095116496 -0.11523709 -0.12030301 0.09660299
0003d0 f6 35 f5 3d 6d e6 0c be 5d 21 3c bd 94 4f 98 3d
       0.11973183 -0.13759775 -0.045930255 0.07437053
0003e0 b2 86 24 3d 80 00 b2 3d c8 d0 fc 3d 20 83 7c bd
       0.040167518 0.086915016 0.12344509 -0.061648488
0003f0 ea 76 f1 3c c5 e6 a4 3d 02 0c e7 bd 09 59 ac 3d
       0.029475648 0.08051828 -0.11281587 0.084154196

bias f4 [64]
000000 3b 26 bc 3d 72 b1 47 bc 92 c9 a4 3c 99 1a 87 3d
       0.091869794 -0.012188302 0.020115647 0.0659687
000010 0b 99 08 bb 38 ef 73 bd 5a 7d 4b 3d ca 20 03 3e
       -0.0020843174 -0.05955431 0.04968009 0.12805477
000020 d3 05 02 bd 60 f8 94 3d e8 bb 2c bd 68 50 b6 bd
       -0.031743836 0.07273936 -0.04217139 -0.08902055
000030 55 81 a3 3c ad c0 62 bc b9 72 03 3d 4e f2 ef bd
       0.019959131 -0.013839883 0.03209183 -0.11716138
000040 59 80 f0 bd a4 97 dc 3a 85 20 36 3d 50 fc d1 bd
       -0.117432304 0.001682986 0.044464607 -0.10253203
000050 8d c5 73 bd f8 52 b4 bd c0 b6 b4 bd d6 40 8f 3d
       -0.05951457 -0.088048875 -0.08823919 0.06994788
000060 63 8f f8 3d 33 e6 ea 3d 41 f8 e9 3d 77 e8 96 3d
       0.12136724 0.11469688 0.11424304 0.07368558
000070 77 9d a6 bd 59 6d 02 be 9f a6 8b bd f2 cd b8 bd
       -0.08135503 -0.12737025 -0.0681889 -0.09023656
000080 ed 1e 04 3e ef c8 89 bd 72 72 9b 3d 1c 8c 92 bc
       0.12902422 -0.06727778 0.07590188 -0.017889075
000090 6c 35 63 bd 6e 12 c3 3c 90 d7 82 bd 45 3b 15 3c
       -0.05547087 0.023812499 -0.063887715 0.009108369
0000a0 c6 b4 56 3d 66 f4 d2 bd 03 08 f6 bd 03 9a f5 3d
       0.052418493 -0.103005216 -0.12013247 0.11992266
0000b0 bb aa e6 3c 9a 43 cf bc 0b f0 7f 3d 59 33 94 bd
       0.028157583 -0.02530079 0.062484782 -0.07236356
0000c0 a0 f4 28 3d 3f 0e be bd ad 9f 87 bd 00 38 fb 3c
       0.041248918 -0.09280061 -0.066222526 0.030666351
0000d0 24 6f 65 3c 85 30 c2 3c 2f 4a 9b bc f5 11 fa 3c
       0.014003549 0.023704777 -0.018956272 0.03052614
0000e0 38 2f e2 3d 40 ca da 3d 25 63 84 bd aa 7e 47 bd
       0.110441625 0.106831074 -0.06464223 -0.04870478
0000f0 22 63 ea bc 7b ec df bb 20 d2 73 bc 8a 30 1c bd
       -0.028611723 -0.0068336106 -0.014881641 -0.038132228

weight f4 [64]
000000 c0 04 85 3f f4 2d 7d 3f 0f a8 7e 3f d5 c4 85 3f
       1.0392075 0.98898244 0.9947519 1.0450693
000010 f7 85 80 3f 48 f4 88 3f b5 e3 7b 3f bf bc 80 3f
       1.0040883 1.0699549 0.9839433 1.0057601
000020 3b 4a 84 3f 4d 6d 89 3f 0d 2c 80 3f bf 8b 79 3f
       1.0335153 1.0736481 1.0013443 0.9747886
000030 85 b5 78 3f 50 e6 80 3f bd 5b 78 3f b8 44 83 3f
       0.97151977 1.0070286 0.9701498 1.0255346
000040 5e ea 79 3f c6 0b 82 3f 4f 3e 80 3f 5a d0 7f 3f
       0.9762324 1.0159843 1.0019015 0.99927294
000050 51 cd 84 3f 28 ac 85 3f 60 38 82 3f 6d 98 7f 3f
       1.0375158 1.0443163 1.0173454 0.9984196
000060 18 cf 85 3f 47 8e 7d 3f 01 8b 82 3f 1a 51 86 3f
       1.0453825 0.99045223 1.0198671 1.04935
000070 4b 20 8c 3f 04 ed 79 3f e3 96 7a 3f a6 f1 7d 3f
       1.0947355 0.9762728 0.97886485 0.9919685
000080 d7 18 79 3f 0d 43 7a 3f 14 22 85 3f e7 17 75 3f
       0.9730353 0.9775856 1.0401025 0.957396
000090 73 2a 85 3f ca 3a 81 3f 2b 98 76 3f 7d 02 7e 3f
       1.040358 1.0096066 0.9632594 0.99222547
0000a0 6e 28 7a 3f b8 f5 80 3f aa 12 7b 3f 1e a6 82 3f
       0.9771794 1.0074987 0.98075354 1.0206945
0000b0 bf ec 7f 3f e5 a0 78 3f b9 60 83 3f 5e 72 80 3f
       0.9997062 0.97120506 1.0263892 1.0034902
0000c0 d7 b8 7f 3f 14 ee 77 3f 9f 0b 7a 3f 76 1e 82 3f
       0.9989142 0.96847653 0.9767398 1.0165546
0000d0 1f c3 87 3f 82 b4 7c 3f 5f 90 77 3f 78 8e 71 3f
       1.0606421 0.98712933 0.9670467 0.94358015
0000e0 8d 20 78 3f 16 3b 83 3f 42 8c 7f 3f 1f 21 75 3f
       0.9692467 1.0252407 0.9982339 0.95753664
0000f0 52 a9 81 3f f4 7b 71 3f ae e7 80 3f 37 57 7c 3f
       1.0129797 0.9432976 1.0070703 0.9857058

bias f4 [64]
000000 fb f7 c6 3b b3 35 95 bc fe bb 1b bc 75 b5 ec bc
       0.006072042 -0.018214082 -0.00950527 -0.02889512
000010 c6 b8 1e bb 08 3f 96 3c ba c8 bf bc 3e 50 cc bc
       -0.002421902 0.018340603 -0.023411144 -0.024940606
000020 f4 1b 45 bc 7e 26 92 3d c3 c3 ad bc f0 4e d5 bc
       -0.01203059 0.07136248 -0.02121151 -0.026038617
000030 46 95 5e bc ba 2f 6f bd 5b a7 89 bd 53 14 f0 3c
       -0.013585394 -0.058395125 -0.06721374 0.029306566
000040 c3 eb 23 bd 47 e6 45 bc d1 bd c9 3c a2 08 8e bb
       -0.04001976 -0.012078828 0.024626644 -0.004334525
000050 3d 72 d2 3c a0 40 0d 3d 1b 5b a4 bc 98 4a 76 bd
       0.025689239 0.03448546 -0.020062974 -0.060129732
000060 0e f9 f7 bc d5 ab 18 bb 26 8c 87 3b 09 5b cd 3d
       -0.030270126 -0.002329578 0.00413658 0.10027129
000070 d1 8c 86 3d 2d 36 1e 3c fd c9 83 bd 90 e6 2c bd
       0.06569827 0.009656471 -0.064350106 -0.04221207
000080 e7 ab cc bc bd 17 42 3b 34 93 91 3d 3e d7 7c bd
       -0.024984313 0.00296162 0.07108155 -0.06172871
000090 20 8d fe 3c 2d fd 08 bc 69 65 a1 bc 55 e4 8a bc
       0.031073153 -0.008361143 -0.019701676 -0.01695458
0000a0 71 a9 71 bc 0b 7d e2 b9 8f 88 e6 bc 7a 52 30 bc
       -0.014749871 -0.00043199243 -0.028141288 -0.010761851
0000b0 17 44 5f ba 0a 5e 91 bd cf 09 30 3d 90 01 0b 3d
       -0.0008516921 -0.07098015 0.042978104 0.033937037
0000c0 ad 86 3b 3c 43 74 85 bd 8b 7c af 3c 8e 39 ab bc
       0.011445683 -0.06516316 0.021421691 -0.020901468
0000d0 7d c8 04 3d ad 1d 86 bc 36 a1 03 ba 30 f5 16 bd
       0.032417763 -0.016371572 -0.0005021276 -0.036854923
0000e0 23 b8 f7 ba fa ec 7d bc 7f 57 e9 3c de 91 0a bd
       -0.0018899482 -0.015498394 0.028484104 -0.033830516
0000f0 9c 17 30 bc 8d 25 46 bd fe f6 df 3c 5d 9a 2d 3d
       -0.010747816 -0.048375655 0.027339455 0.04238354

running_mean f4 [64]
000000 d0 9d 2d bf dc 12 ba 3f c9 11 37 3f 1b e1 9b bf
       -0.6781893 1.4537005 0.71511513 -1.2178072
000010 18 25 0f 3f 73 a4 0d c0 20 79 21 be b2 c5 2f 3f
       0.55915976 -2.2131622 -0.15768862 0.68661034
000020 e8 96 03 c0 71 f8 35 bf 10 56 c8 bf 36 db 39 3f
       -2.0560856 -0.71082217 -1.5651264 0.72600114
000030 a5 92 ba 3f 8c 10 0f be 84 10 f9 3e 68 4b 87 3f
       1.4576002 -0.13971156 0.48645413 1.0569887
000040 d3 18 ef 3e 7e 7b 01 bf 41 cc 01 c0 2f ff 81 bf
       0.46698627 -0.5057906 -2.0280917 -1.0156001
000050 e3 21 b5 be c3 39 96 bd 55 b5 46 be d3 64 8b 3f
       -0.35377416 -0.07335236 -0.1940511 1.0890144
000060 79 90 14 3e ed 23 18 bf ba 3f 9d 3f ba b5 92 3c
       0.14508237 -0.5942982 1.2285073 0.01790892
000070 db 2d ef be e2 ea 37 bf e7 b8 86 be 93 3f cc bd
       -0.46714672 -0.7184278 -0.26312944 -0.09973063
000080 60 42 48 bf f3 55 b8 bf 0c 52 96 bf f3 8e 95 3e
       -0.7822628 -1.440123 -1.1743789 0.29210624
000090 28 26 14 3e ba d7 01 40 24 9d 0b 3f 04 19 40 bf
       0.1446768 2.028792 0.5453665 -0.7503817
0000a0 66 da 67 bf f7 41 ec 3f 34 3f 0b be 0f c1 87 3f
       -0.90567625 1.8457631 -0.13598329 1.0605792
0000b0 8a e0 be bf 0d 37 3d 3f ae 2f a4 3e 54 10 25 bf
       -1.4912274 0.73912126 0.32067627 -0.6447804
0000c0 7b 2e 8e be 13 5f cd be 1d 7b 7d 3e 87 98 d1 bf
       -0.27769837 -0.40111598 0.24753995 -1.6374673
0000d0 80 9b ac bf 8a cc 17 bf af 81 08 40 f9 b3 eb 3e
       -1.3484955 -0.59296477 2.1329153 0.46035746
0000e0 96 6e bd 3f 4b c3 ac be c5 a1 06 c0 05 8d 9b 3f
       1.4799373 -0.33742747 -2.1036236 1.2152411
0000f0 13 51 14 c0 11 c5 1a 40 22 fc a6 3f 63 a9 db bf
       -2.3174484 2.418278 1.3045695 -1.7161068

running_var f4 [64]
000000 ff 2b a1 3f 1a fd 0f 40 5f 66 1b 3f 1b e9 0a 40
       1.2591552 2.249823 0.6070308 2.1704776
000010 39 42 c0 3f 97 43 ba 3f e3 d4 3c 40 27 53 6c 3f
       1.502021 1.4551877 2.9504936 0.9231438
000020 ec 29 7d 3f 90 c6 9f 3f 76 18 a9 3f 0f 1b 9e 3f
       0.9889209 1.2482471 1.321059 1.2352008
000030 37 05 05 40 37 1b 03 40 48 d4 c9 3f 00 07 a6 3f
       2.0784433 2.048536 1.5767908 1.2970886
000040 44 59 50 40 17 98 4d 3f df 79 d5 3f 06 0e 3d 3f
       3.2554483 0.80310196 1.6677817 0.73849523
000050 59 3d 93 3f e5 d5 22 3f ee 2b b6 3f 40 fe 83 3f
       1.1503097 0.6360763 1.4232156 1.0311966
000060 2c 70 9b 3f 9b 5c 95 3f ce ed 54 3f 45 68 4f 3f
       1.2143607 1.1668886 0.8317536 0.8101848
000070 3d 14 99 3f 21 20 0f 41 3a e4 ad 3f 54 90 ed 3f
       1.1959301 8.945344 1.3585274 1.855967
000080 90 12 0b 40 0a b4 c5 40 ff 0d 1c 40 b6 6e 98 40
       2.173008 6.1782274 2.4383543 4.7635145
000090 d2 17 a7 40 b3 e1 54 3f 00 46 15 40 86 ef 6c 3f
       5.2216578 0.8315689 2.3323975 0.92552984
0000a0 46 e6 06 40 5f d1 e4 3f f6 57 e7 3f fe 8f 9f 3f
       2.1078048 1.7876395 1.8073719 1.2465818
0000b0 1e d9 b7 3f 60 63 51 40 ac b5 34 3f a3 05 f3 3f
       1.4363134 3.2716904 0.7058971 1.8986095
0000c0 5f 05 8e 40 49 34 83 3f 8c a2 89 3f fa c1 a1 3f
       4.4381557 1.0250331 1.075273 1.2637322
0000d0 42 f6 02 3f d9 09 70 3f 73 a0 e1 3f 25 af c8 3e
       0.5115701 0.93765026 1.762709 0.39196125
0000e0 3d 75 81 3f 1d 3f b4 3f 4f a0 a9 40 91 d4 fe 3f
       1.0113903 1.4081761 5.300819 1.990862
0000f0 62 38 7b 3f 0d 8f 1e 40 15 93 30 40 0b 2d 98 40
       0.9813291 2.4774811 2.7589772 4.7554984
