HML/Decision/GCN_xgboost_old/GCN_xgboost/state/CASE39_0_256_64_0.001_.pth (torch, 152903 bytes, 51 tensors)

eps f4 [4]
00000000: 0000 0000 0000 0000 0000 0000 0000 0000
0.0 0.0 0.0 0.0

weight f4 [64, 2]
00000000: 366e 55bc defb fe3e 6b34 fabe 62b3 1bbf
00000010: 1d8e a2be 0ba7 0f3e 3528 d4bc d34d 193f
00000020: 39f0 48bd 8ba1 5b3e 2dfa 4dbe 892c 21be
00000030: 81b0 20bf 2c28 04bf 502d a2be 1155 893c
00000040: 9f18 a53e 7e7d c33e 0f8a e8be 5398 abbe
00000050: b3a3 1a3e 2ef2 2f3f e327 03be fcb2 0c3f
00000060: 14e2 06be 69f6 803d b2ac 223f 468d 29bf
00000070: c5b5 debe b544 44be 65ef 88be e4f6 1e3f
00000080: 2248 d7be b130 babe 456d fabe 290e 2bbf
00000090: 85ef bcbe a4e3 263f 778e b73e e6ad 9a3e
000000a0: 55bd 233d be7c bebe 7ad9 b83d b996 31bf
000000b0: 81b9 f4be d42a ccbe 04ce ef3e caa1 c93e
000000c0: d83f a6be 0997 b9bc e12d cc3e 48b9 413f
000000d0: d2f2 8c3e c7dc da3d 48f9 fa3e a6f4 cdbe
000000e0: 68ec c73d 4be2 15bf 793c e6be c383 cfbe
000000f0: f3e4 a93e bf98 8c3e 22ca d8be 7dc2 573e
00000100: 843d c13e 3893 d8bd 27be b53c 2b23 363e
00000110: 1809 043f 7431 193f 508b f9be 39a9 a1be
00000120: f976 8c3e b378 173f 048c 243f b4d5 183f
00000130: 4f23 183e e367 1cbf c0d0 b83d 0995 d7be
00000140: 93d2 37bf a746 113f 1f56 fd3e 27ec 3fbf
00000150: 81a1 163e a833 e1bd 5fc6 cabd d551 b2be
00000160: 656c 873e 01aa dbbe 9cc3 463e 9f10 d83e
00000170: ba69 f53e 0737 963e 3736 2abf 3311 fdbe
00000180: d3a7 c23e 23f5 ff3d 1ba7 f6be 17f4 f2be
00000190: 5143 2b3f 3d2b f33e a164 91be 094d 52be
000001a0: 6169 2cbf c3ca 43bc e652 08bf 2a2a 0cbf
000001b0: a17d 73bd 474f b83d eca1 8dbe eb1a de3e
000001c0: a522 d1be d1fe 293f e8ba eb3e b938 1fbf
000001d0: 5b0f 40be 7076 1b3d 83f8 d33d e667 323e
000001e0: a5e7 a73e 4c2f 483c a998 a7be 36e1 b43e
000001f0: a798 1abf 850d fcbe b441 38be a99c afbe
-0.013026765 0.49801534 -0.48868117 -0.6082059 -0.3174905 0.14028566 -0.025898078 0.59884375
-0.04905722 0.21448343 -0.20114966 -0.15739645 -0.62769324 -0.516238 -0.31675196 0.016764196
0.32245347 0.3818168 -0.4541783 -0.33514652 0.15101509 0.6872891 -0.12808184 0.5496061
-0.1317218 0.06296999 0.6354476 -0.6623119 -0.43498054 -0.19166835 -0.26745144 0.62095475
-0.4204722 -0.36365274 -0.4891149 -0.6681848 -0.3690149 0.651911 0.3585088 0.302108
0.039975483 -0.37204546 0.09025855 -0.6937061 -0.47797778 -0.39876425 0.46836865 0.39381248
-0.32470584 -0.022655027 0.39878753 0.7567334 0.27529007 0.10686641 0.49018312 -0.40225714
0.09761888 -0.5854842 -0.44968012 -0.40530214 0.33182487 0.27460286 -0.42341715 0.21070285
0.37742245 -0.10574955 0.022185398 0.17786853 0.51576376 0.59841084 -0.487391 -0.3157442
0.2743452 0.5916855 0.64276147 0.59701085 0.14857219 -0.6109602 0.09024191 -0.42105892
-0.71805686 0.5674843 0.49479768 -0.74969715 0.14710046 -0.10996181 -0.099011175 -0.34828058
0.26449886 -0.4290314 0.19410557 0.4220018 0.47932225 0.29338858 -0.66488975 -0.49427184
0.38018665 0.12497928 -0.48174366 -0.4745185 0.6689959 0.47493926 -0.28397086 -0.20537199
-0.67348295 -0.011950198 -0.5325149 -0.5475184 -0.05944598 0.08999496 -0.276626 0.43379912
-0.40846744 0.66404444 0.46041036 -0.62195927 -0.18755858 0.037954748 0.10350134 0.17422447
0.32793918 0.012218308 -0.32733658 0.35328072 -0.6038918 -0.49229065 -0.17993814 -0.3429921

bias f4 [64]
00000000: e7d0 9ebe d9db 16bf c0ee 19be 3bf8 0f3e
00000010: 8151 f8be 2159 35bd ca00 023f ac17 6abd
00000020: ab5d a5bc 89a4 69bd e858 243e 0836 f53e
00000030: ffec 263f 74d7 eb3e e5a7 2c3f 80c0 62bd
00000040: bd3b 22bf 0304 afbe 1d35 053f 5f49 bbbb
00000050: d76f bfbe 0caf 04bf 9663 27bf d126 13bf
00000060: 77ee 0ebe a35d b23e 7a9d b53e d04e 2abf
00000070: a031 d53e baf0 0dbf 4321 fcbd 66ed 88be
00000080: 55d8 b4bd c1b6 87bd 0f8b 16bf 6bc4 1cbf
00000090: 65e9 43be d93c a5bc 8131 8cbe 2b44 a63e
000000a0: fe32 22bf d4d9 dcbc 562d 243f b805 99be
000000b0: e779 2d3f 8ea6 813e 3b44 26bf edb0 e53e
000000c0: 8b7d bbbb 07de a1be afc1 083f bb9c 11bf
000000d0: 0760 a33d ac89 1bbe 429b 0a3f f63d 653e
000000e0: a8f0 a83e 29f3 7d3e 0a98 34be e2f8 abbd
000000f0: b081 15bf 0ab6 c63e 0d3d 0f3f ce13 003f
-0.31018755 -0.5892921 -0.15032482 0.14059536 -0.48499683 -0.044274453 0.50782454 -0.05715148
-0.020186266 -0.05704168 0.1604954 0.47892785 0.6520538 0.46062815 0.67443687 -0.055359364
-0.63372403 -0.34182748 0.5203417 -0.0057155336 -0.37390015 -0.518296 -0.6538633 -0.57481104
-0.13958155 0.34837064 0.35471708 -0.6652651 0.41639423 -0.55445445 -0.12311032 -0.2674362
-0.088303246 -0.066266544 -0.58805937 -0.6123721 -0.19132002 -0.020170616 -0.27381518 0.32473883
-0.6335906 -0.026959337 0.6413168 -0.29887176 0.67764133 0.25322384 -0.6494786 0.44861546
-0.005721753 -0.31614706 0.5342054 -0.56879777 0.079773 -0.15189236 0.54143155 0.22386917
0.32996106 0.2479979 -0.17636123 -0.0839708 -0.5840101 0.3881076 0.5595253 0.5003022

weight f4 [64, 64]
00000000: 501b a5bd b77f 32bc bc25 d8bd 22c0 7ebd
00000010: d945 d8bd f24f cd3c 06ed bcbd 94ea 9fbc
00000020: 14fc 07bc 12ce 803d 55db c6bd ecde e5bd
00000030: 4d29 bdbd a265 c83d ebe7 7ebd 5e25 a93d
00000040: 703b e43c 8506 853a 06b4 f5bc c030 11bd
00000050: fcdd 663c 5010 e3bc fd74 98bc 9c9e be3b
00000060: 1c3e ebbd 8582 a1bd 3e94 cb3d 5170 b9bd
00000070: 25bf 7fbb 9435 d93d 38eb 0f3d c86a 93bc
00000080: bcc7 d1bd 72af 913d 0fba d0bd 2446 5abd
00000090: 5fd4 4fbd 0f02 f0bc e059 fb3b 7b53 d93d
000000a0: 2888 f9bb a193 f93d 9150 b43d 031d a5bd
000000b0: 7321 8d3d 0f29 d0bd 721d 6ebd 3703 9b3c
000000c0: 8476 1d3d 83b0 9b3d 7945 40bd bb9b 8ebc
000000d0: 60bd 413d 9892 0dbe 2524 893d 1412 04be
000000e0: 53d5 d4bc 4cde 13bc ce6a a9bd 7874 603b
000000f0: 9443 d73d b295 79bd a0d5 bbbd 3951 73bd
00000100: e614 49be f89f 4b3d 5aea 8dbd bf07 22be
00000110: 0f8d abbd f671 843d 780b 703d d1f3 b13d
00000120: 5126 7b3c 3606 48bd ffbb 9bbd acca df3c
00000130: 960c bc3d 15a7 81bc 5aed 89bd 9d23 84bd
00000140: ba59 00be 0e0c a33c 5ed7 a6bd 012f 17be
00000150: c7e0 8e3d 436f fabd 8c64 b2bc 481e 97ba
00000160: 8c5b 83bb 4849 e7bd 5ab6 17be 47de 553d
00000170: 4790 cebb ad09 c73d 5b79 a1bd cccf d43c
00000180: ed92 adbd c5b7 3cbd e165 dabd 19b5 0d3d
00000190: 69ab 1d3c 4f31 1abd 1677 56bd fd05 e2bd
000001a0: 1c16 9a3d 7350 0cbe 3a10 c73b b694 4ebd
000001b0: d908 c3bd 8394 e2bb 1676 dabd 28da ae3c
000001c0: 9975 02bd 2918 ccbd 717b afbc e8d4 3d3d
000001d0: ab24 2a3d 2dea babc 99c6 debd e948 f6bc
000001e0: 8298 033d 82db b4bd f4e2 1a3d 19c4 593d
000001f0: 93c4 fcbd e9d7 21bc d307 383d 5fd5 673b
00000200: f733 bfb9 058d 853c 3e21 bebd a29f d7ba
00000210: 7877 833d 3f28 e83d 2eea 973d f60a 9e3c
00000220: 5ad0 ad3d ff18 76bd caca a8bd 014a f7bd
00000230: e124 063e 8fc3 193e 36a3 adbd e410 383d
00000240: b0c6 c23d 3dc9 ff3d f9f4 f33d 8765 033e
00000250: ee69 1bbd 9a24 2abd 911d d43d 7d16 d03d
00000260: b469 97bd 1f96 0e3e 7e2b c63d 0dc2 073e
00000270: 7b6f 9cbd 8954 123d e466 42bc ccb7 d13d
00000280: 6993 d23c 4f53 883d aabc 463d 6520 5e3d
00000290: e426 8fbc 4adb bb3d 6af8 adbd 82be 813c
000002a0: 1358 9ebd a29b 22bd 931c 14bd 948d cd3d
000002b0: 262e 1f3e e253 133e 0071 093e 1aad e2bd
000002c0: 9eb1 41bd e7ae 9dbc 80c1 42bd 8ba1 b23d
000002d0: 3af9 bdbd afb7 76bd 966e e5bd dc27 7ebd
000002e0: ebdb e63d 3293 383e e024 bd3d 652e fb3d
000002f0: 9abf 1b3e 4966 d0bc b739 633d 77e4 e23d
00000300: f7e0 003d c1eb 163e e8fa c33d 94fc 8b3d
00000310: d3dd 7cbd 4c0f a53d 6873 133d 53b7 a139
00000320: 98aa a3bd 6a77 48bd 9d98 c9bd de53 8e3d
00000330: 57b2 f03d 9843 3d3b d2c5 50bd 2462 c43d
00000340: 9c46 ce3d f51e 023d c866 27bd 7f9e cf3d
00000350: 916e eb3d 0bc9 20bd 971d 103e 6cd9 a93d
00000360: 542b 82bc 5bea 703d e6bc a3bd 7f0b 85bb
00000370: 47fe 1a3e 4741 e13c 1c84 cebd 49aa 51bc
00000380: 6ead cabc dfc1 e4bc 3880 033b 5ea6 0c3e
00000390: c819 74bb 1ea5 b6bd 4bc8 063d 42fc 9d3d
000003a0: 4253 b83d 012f c0bd 279f c7bb 392a 85bd
000003b0: bf32 fbbc c9e3 0b3d 9f81 cbbd aa2b 8b3d
000003c0: ef30 d03d 1410 f63c 56ca c4bd 19d6 bebc
000003d0: d728 6c3d d557 95bd 090c 853d 986f b7bd
000003e0: 61b5 cfbd 2b70 d1bd f244 a03b dee4 903d
000003f0: 35fa e3bd bd56 053e d98e eabc 8702 793d
-0.0806185 -0.010894707 -0.10554072 -0.06219495 -0.105601974 0.025062535 -0.09224896 -0.019521035
-0.008299846 0.06289305 -0.09709803 -0.112241596 -0.09236393 0.0978501 -0.062232893 0.0825908
0.027860373 0.0010149038 -0.029993068 -0.035446882 0.014091011 -0.02771774 -0.018610472 0.0058172476
-0.11486456 -0.07886223 0.09940384 -0.09054626 -0.0039023843 0.10605922 0.03513643 -0.017995253
-0.102431744 0.07113542 -0.10191738 -0.053289548 -0.050739642 -0.029297857 0.007670626 0.10611626
-0.007615108 0.12186361 0.08804429 -0.08062174 0.068911456 -0.10164081 -0.05813355 0.018922431
0.038443103 0.07602026 -0.046941254 -0.017408242 0.047299743 -0.13825452 0.06696347 -0.12897521
-0.025980627 -0.009025168 -0.082723245 0.0034249108 0.105109364 -0.060933776 -0.09171605 -0.05940363
-0.19636878 0.049713105 -0.06929465 -0.15823267 -0.08376514 0.06467049 0.058604687 0.086890824
0.01532896 -0.04883405 -0.07604217 0.027318321 0.09182088 -0.015826741 -0.06734724 -0.06452105
-0.12534228 0.019903209 -0.08146547 -0.14764024 0.069764666 -0.12228253 -0.02177646 -0.001152941
-0.004008716 -0.11293274 -0.14815655 0.052213933 -0.0063038203 0.097186424 -0.07884475 0.025977992
-0.084752895 -0.046073694 -0.10663963 0.034596536 0.009623387 -0.03764468 -0.052359663 -0.110362984
0.07523748 -0.13702564 0.0060749324 -0.05043479 -0.09523172 -0.0069146766 -0.10667054 0.02134426
-0.03185043 -0.09965546 -0.021421166 0.04634562 0.041538876 -0.022816742 -0.10877723 -0.030064063
0.032127865 -0.0883093 0.037814096 0.05316553 -0.12342181 -0.009878137 0.044929337 0.0035374982
-0.00036469076 0.016302595 -0.09283684 -0.0016450773 0.06419271 0.11335801 0.07417713 0.019292336
0.084870055 -0.060082432 -0.08241804 -0.12074662 0.13100006 0.15016006 -0.08478396 0.044937983
0.09510553 0.12489555 0.11911959 0.12831698 -0.03794282 -0.041538812 0.10357202 0.10160539
-0.07393208 0.13924454 0.09676264 0.13257618 -0.07638451 0.03572515 -0.011865351 0.102401346
0.025705056 0.06656515 0.048519768 0.054230113 -0.0174746 0.091726854 -0.08494647 0.015837912
-0.077316426 -0.039699204 -0.036160063 0.100367695 0.15544948 0.14387468 0.13422012 -0.11068173
-0.04728853 -0.019248439 -0.047547817 0.08722218 -0.09276052 -0.060233768 -0.11202733 -0.06204973
0.11272415 0.180249 0.09235549 0.122647084 0.15209809 -0.025439398 0.055474963 0.110787325
0.031464543 0.1473837 0.09569341 0.06835285 -0.061734986 0.08059558 0.03599873 0.000308449
-0.079915226 -0.048942007 -0.09843562 0.0694959 0.117527656 0.00288794 -0.050969906 0.09589031
0.100720614 0.031767804 -0.040869504 0.101376526 0.11495698 -0.03925423 0.14073788 0.08293423
-0.015889801 0.05881725 -0.07995014 -0.0040602083 0.15136062 0.027496947 -0.100837916 -0.012796947
-0.0247409 -0.027924476 0.0020065438 0.13735339 -0.0037246812 -0.08918212 0.032905858 0.0771413
0.09000255 -0.09383965 -0.0060919705 -0.06502194 -0.030663846 0.03415278 -0.09936833 0.06795438
0.10165583 0.030036964 -0.09608905 -0.02329545 0.057656135 -0.07292143 0.06496436 -0.08956832
-0.10142017 -0.102264725 0.0048910314 0.07074903 -0.111317076 0.1302137 -0.028632568 0.060793426

bias f4 [64]
00000000: c680 8abd a6bd 59bb 2fb8 ee3d 79c5 143b
00000010: 8495 803c 5d63 a53c 6bdc 583d e07d 913c
00000020: f707 09be 9aa9 013e eac7 443d 4b87 263d
00000030: 71df ab3c e915 02be 33b0 cd3b 81c4 ee3c
00000040: f518 e13c 2ea2 a7bd 3989 bc3c e757 d5bc
00000050: 0bef 043e a6b9 b6bd ca35 d13c 3fad 2c3e
00000060: f374 b1bd 7e3a 133c 4b1e ac3d a173 d93c
00000070: 07e8 d13c cec5 ce3d 790b 8cbd 853a 2e3e
00000080: c0e6 64bd a17d 9f3d 83a7 cd3b f499 04bd
00000090: 899c 17bb 7cec 0d3e e7ca 073e d706 14be
000000a0: 799a 1dbd 28aa 5fbd 93b8 ad3d dc12 083e
000000b0: 0f78 b4bd 6088 923b 995b bf3d 8131 c93d
000000c0: 70f5 94bd 8806 e73d 96f1 f5bc 5cbd aebd
000000d0: 31ee a43d ac01 d03c 38cf b13d 218c cbbc
000000e0: 004e 0ebe e88e b0bd be9b e83c fbf6 f4bd
000000f0: 32c8 12bc bdff 05be f1be 0f3b 4503 d13c
-0.06762843 -0.0033224612 0.11656224 0.002270071 0.015696295 0.020188982 0.052944582 0.017760217
-0.13381945 0.12662354 0.048042215 0.04065637 0.020980569 -0.1270367 0.006277108 0.029146435
0.02747772 -0.0818523 0.023014652 -0.026042892 0.12981813 -0.089221284 0.025538344 0.16862963
-0.086648844 0.008986114 0.084042154 0.026544394 0.025623335 0.10096322 -0.06838126 0.17014511
-0.055884123 0.07787634 0.0062760725 -0.032373384 -0.0023134074 0.13859743 0.13260995 -0.14455734
-0.038477395 -0.054605633 0.0848247 0.13288444 -0.08811962 0.0044718236 0.09343643 0.09823895
-0.07273376 0.112805426 -0.030022424 -0.08532211 0.08053244 0.025391422 0.08682102 -0.024847092
-0.13896942 -0.08621007 0.028394576 -0.1196117 -0.008958863 -0.13085838 0.0021933878 0.025514254

weight f4 [64]
00000000: ec48 883f 520a 7c3f 9b1f 793f d58d 833f
00000010: e6fb 823f f03c 743f 8637 7a3f 9dfc 763f
00000020: 4514 823f c60c 7a3f 62e1 853f 2280 823f
00000030: 65e9 7c3f b15d 863f 45b0 7c3f cdca 7d3f
00000040: 9c2b 7b3f da9f 753f 4e45 803f 2aa0 813f
00000050: 2d42 853f 2e66 823f 4586 7b3f 3a69 833f
00000060: ebcd 783f 3ede 833f a52a 853f ba71 813f
00000070: bd12 853f 4ff4 743f c5c7 7a3f 5712 783f
00000080: c632 893f de86 7f3f 51d4 803f e413 7e3f
00000090: ef0a 843f 3cdd 843f a5e3 813f de6d 7b3f
000000a0: 60f8 763f 851c 813f 167d 7e3f 674f 863f
000000b0: dd89 833f 4e72 833f 249a 833f 0136 7c3f
000000c0: 3ee9 803f d625 7d3f 6891 833f eb59 783f
000000d0: d7b8 793f f4d1 7c3f af79 793f b0d3 783f
000000e0: 8b5c 753f 189d 823f 27c4 7a3f 5582 7a3f
000000f0: 3f44 843f 59ab 7f3f f6db 743f d2d1 793f
1.0647254 0.9845325 0.9731385 1.0277659 1.0233123 0.95405483 0.9774097 0.9647921
1.0162436 0.9767574 1.0459406 1.0195353 0.9879363 1.0497342 0.98706466 0.99137574
0.9811342 0.9594704 1.002115 1.0127003 1.041082 1.0187433 0.98251754 1.0266488
0.97189206 1.0302198 1.0403639 1.0112832 1.0396343 0.95685285 0.97961074 0.96902984
1.071862 0.99815166 1.0064794 0.992491 1.0315837 1.0380015 1.0147597 0.9821452
0.9647274 1.0086828 0.99409616 1.0492982 1.0276448 1.0269258 1.0281415 0.98519903
1.007118 0.9888586 1.027875 0.97012204 0.9754767 0.98757863 0.974513 0.9719801
0.95844334 1.0204191 0.97955555 0.9785512 1.0333327 0.9987083 0.95648134 0.97585785

bias f4 [64]
00000000: 9fcf 0e3d a0fa bcbc c3fc 93bd fb51 d83c
00000010: 8ac9 d23c 160f 9f3b d397 abbc c8ad 3dbd
00000020: 1a85 b03d 69f8 8cbc cd3f 3a3b d7f2 a9bc
00000030: e733 77bb c462 04bc 5bc0 573b 37f2 91bd
00000040: aa79 b33c 99c8 2ebc ca5a 1d3d e39a e3ba
00000050: 67a9 e93c abd1 653c 31a2 dabb 48be 8f3c
00000060: 41f3 38bd 28f2 443c c36d 833c 5ece 9e3b
00000070: f9f6 fd3c 505e ccbd 5174 07bc 6134 b43c
00000080: d517 1ebd 2ed6 98bc aab2 a33d 6e1a 46bd
00000090: 50d7 f53c f16a bc3c 57b1 89bc 3c99 babc
000000a0: b8dc 31ba baa6 82bd 855c 1d3d be93 ddbb
000000b0: 37ff d3bb 5b40 713c adb7 343c 8db0 72bc
000000c0: 3e60 3abd 80e1 a9bc 4c4d 92bc 1bde 30bd
000000d0: 4ed5 5abd 6cb0 cdbc 5000 80bc e8be c0bc
000000e0: a6b7 d33c a57b 9f3c a205 3bbd 9d76 b9ba
000000f0: ee89 b6bb 7c5e df3b 7634 e6bc 1197 9bbd
0.03486597 -0.023068726 -0.07225945 0.026406279 0.025730867 0.0048540933 -0.020946419 -0.04630831
0.08619137 -0.017208295 0.0028419376 -0.020745678 -0.0037720145 -0.008080188 0.003292105 -0.07126277
0.0219086 -0.010667943 0.03841666 -0.0017364885 0.02852316 0.0140270395 -0.0066721668 0.017546788
-0.04515386 0.012020625 0.01604355 0.004846378 0.031001555 -0.09978926 -0.008267478 0.021997632
-0.038596947 -0.018656816 0.07993062 -0.04836505 0.030009896 0.023000212 -0.016808195 -0.022778146
-0.0006784904 -0.06379457 0.03841831 -0.006761997 -0.006469633 0.014724816 0.01103012 -0.014812601
-0.04550194 -0.02073741 -0.017859124 -0.043180566 -0.05342608 -0.025108539 -0.015625149 -0.023528531
0.025844406 0.019468138 -0.04565967 -0.0014149729 -0.0055706417 0.0068166833 -0.028101187 -0.07597173

running_mean f4 [64]
00000000: b0c2 c5be b255 b8bf 1149 41bf 98bb fb3c
00000010: f023 19bf a802 cdbe 5b2d 1bbf 4db3 25bf
00000020: fbd4 093f a9ab 5dbf e2f3 bc3e 3017 3a3e
00000030: e2d4 cc3e 93f5 da3f 584d ecbd 3947 1dbf
00000040: ad35 b0bf 7832 97bf c22d 6ebe 3cf4 203f
00000050: 7211 86be 6c5c 90be d41c c0bf eea6 813e
00000060: d053 3dbf 9e2e 813f 25ba 5a3f 2ef5 903e
00000070: 91e5 273f edb8 acbf 6341 ef3e 58c3 89bf
00000080: cb94 1f3f 77b6 29bd 25d5 9e3e 7652 bebf
00000090: c30c 843e 9296 8e3f 70c9 823d e23b 093f
000000a0: eaa8 01c0 d922 783f 400b 6d3f cb77 e4be
000000b0: 5a44 9b3f 1b72 113f d9b0 593e ab62 3cbf
000000c0: cbe6 2f3f 4a98 94bf fe6f dd3f 3fab 89bf
000000d0: d6c2 95bf a2ff 8abf 0ec5 d73e 64e5 abbe
000000e0: 6f47 febe c053 953f 4634 07bf 2f70 b83d
000000f0: 9b39 ba3c 3126 83be aa13 03bf 1dbe 4b3e
-0.38625097 -1.4401152 -0.75502115 0.0307291 -0.5982046 -0.4004109 -0.6061608 -0.64726716
0.5384061 -0.8659006 0.36904818 0.18172908 0.40006167 1.7106193 -0.1153819 -0.614368
-1.376638 -1.1812277 -0.23259643 0.6287267 -0.26185185 -0.28195512 -1.5008798 0.2532267
-0.7395601 1.0092351 0.85440284 0.28312057 0.65584666 -1.3493935 0.46729574 -1.0762739
0.62336415 -0.041433778 0.3102199 -1.4868915 0.25790986 1.11397 0.063860774 0.53607
-2.0259347 0.96928173 0.9259529 -0.44622645 1.2130234 0.56814736 0.21258868 -0.73588055
0.6871154 -1.1608975 1.7299802 -1.0755385 -1.1700084 -1.0859263 0.42142528 -0.3357345
-0.49663875 1.1666183 -0.5281414 0.09005772 0.022732547 -0.25615075 -0.5120188 0.19896741

running_var f4 [64]
00000000: 84d3 723e 0908 b340 8061 c23f 5e66 a73e
00000010: 27c8 3c3d c62c 523f 5b36 0241 e069 d23f
00000020: c936 1840 40f1 8440 6137 a63f 40a5 9d3e
00000030: 3cd1 843e 2d41 af40 1c98 6140 faaf 6c3f
00000040: a4ca 6b40 3c3b b840 6947 df3f 6ae5 2a40
00000050: a23b e73d 6046 c83e f651 9740 ddc7 9140
00000060: b288 e33f 4a43 8e40 2527 b23f 0772 5740
00000070: 6142 943e 71cc 8840 1c06 1240 b8f4 2a40
00000080: c2af 0d40 e2e5 6d3d 59b9 c140 dcce 9540
00000090: d27b 1140 a2a6 0c41 9646 ca3e 65f5 2d3e
000000a0: 7c40 e840 a306 4a40 b606 9d3e d26f dc3e
000000b0: ebd5 653f 6fc4 913f 9446 8f40 80c6 0e41
000000c0: f210 2740 a60c a040 908d 0f41 a58c cf3f
000000d0: b600 f240 7bbd c640 ddf0 3c3d cda6 7d3f
000000e0: 62eb 0840 7685 3140 c390 0d3f a566 903e
000000f0: b733 e63f 7bae b83f fe50 f040 4644 6b3f
0.237135 5.594731 1.5186005 0.32695287 0.046089318 0.8209957 8.13827 1.643856
2.3783438 4.1544495 1.298565 0.30790138 0.25940883 5.476706 3.524909 0.9245602
3.6842432 5.7572308 1.7443668 2.6702523 0.11290671 0.39116192 4.728755 4.5556474
1.7776091 4.445714 1.3918196 3.3663347 0.28956893 4.274956 2.281623 2.6711864
2.2138524 0.05808056 6.0538754 4.6815014 2.2731824 8.790682 0.39506978 0.16988142
7.2578716 3.156655 0.30669183 0.43054062 0.8977954 1.1388072 4.4773655 8.923462
2.6104093 5.001544 8.972061 1.6214796 7.562587 6.21063 0.046128143 0.9908264
2.1393666 2.7737708 0.55299014 0.28203312 1.7984532 1.4428247 7.5098867 0.9190105

weight f4 [64, 64]
00000000: 4f93 89bd 6603 843d 29f3 e43d 53fa f13b
00000010: bde4 aabd ad4e 573c 3380 04be 1dc2 85bd
00000020: f2e0 78bc f374 bfbd 4672 4f3d 4527 d7bb
00000030: 4412 e83d cb34 2abd ad78 19bd ec65 cf3c
00000040: fde7 64bd 3efd 22bd 35b0 0dbe 57fa c63d
00000050: fceb c83d 65c5 05be 3342 92bd 590f d6bd
00000060: 4168 97bd 5a3e 973d fbda 743d 9d52 80bc
00000070: b847 a83c 2c79 b63c c9a5 5b3d 3345 1dbe
00000080: 0bd9 7c3c 6940 02be 0456 f6bd b1da 7abd
00000090: 0b6b 85bd a158 e6bd 8601 43bc 598f d4b9
000000a0: 2520 2bbd c762 4a3d 5aa2 813d c5c5 2ebd
000000b0: 9e3c 9abd d867 06be 6b8c 1bbe accf afbd
000000c0: d48a 43bd ccb3 84bd bf87 8c3d dc1f 4f3d
000000d0: d5c1 c83d cbb7 1c3e bfcb eabd 9784 9bbd
000000e0: ea53 953c 47db 07be ae48 fc3c aba4 06bd
000000f0: 8285 d2bd 8c1e f8bd 1fd0 fabd c951 923c
00000100: 92a5 e73d 3802 0e3e 2ee1 a6bd 80ff 9dbd
00000110: 4b6d 6fbd fa3b 1bbd c2e5 97bd b7a2 e6bd
00000120: 4da1 9c3d 4de3 cdbd 777a 9fbd d815 bf3d
00000130: 9461 c9bc 6d2c 533c f160 083e a1d2 223e
00000140: a584 743d a53a 0ebd 7875 813d 275a a33c
00000150: 69e0 65bd bcfa f9ba 814c 8a3b f138 9b3d
00000160: 5869 483d f108 663d cd51 7f3c 7b72 123d
00000170: b249 483d 24ec 993d da55 ebbd ec9b 8a3c
00000180: 61c7 3ebd 374f 66bd 1f20 29bc c83a 153c
00000190: 9be5 9dbc 993a 50bd 29ef 7d3d eaac e63d
000001a0: 4904 f73b a363 b33d 08b9 e5bd 45c1 5e3d
000001b0: 8ca2 2d3d 7543 0dbb d0c6 d93c 85b8 07bd
000001c0: 1dec 413d e24c 5b3e 5fd0 f13d 0f3d 80bc
000001d0: 96f4 023e 7347 3c3e a11e 463c c85c 05be
000001e0: bc3f 613d 9039 0fbd 1e52 ad3d 64fb 24be
000001f0: 45d4 fe3c e15c 15bd df62 49bc 35b7 9e3d
00000200: c25b 20bd 258c c5bd 3422 3fbd 3713 5fbd
00000210: adb1 de3b 2079 163d 9c4d a3bc d176 8ebd
00000220: cc3c ca3c 1f59 26be 7e36 c23d 30d2 e0bc
00000230: 6d6e cf3d b3c9 c13d bd6c 1b3d 64ca 493c
00000240: 5260 9cbd d838 e83d 2a10 4a3d 018d f63c
00000250: a007 803d 1118 a1bc 60aa b73d 19bd c23d
00000260: 2125 b53d 9163 fbbd 1045 db3d e5d4 923c
00000270: eeb4 6a3d 9a24 903b 0025 503c f6e4 1e3e
00000280: c5b7 0bbd 6921 c2bd 50a8 123e d5bf a8bc
00000290: d1c2 d9bc 375d c73d 36e8 c43b 896a c73b
000002a0: 7b6b cb3c e1e1 4dbd 6bd9 f73d 8d70 d43d
000002b0: 5794 c63d d6d3 df3d 417f 0ebd 13dd d7bb
000002c0: 0079 f2bd 727d d93d 942c 26be b1e0 07be
000002d0: bb3a d3bd c3fa d43d a319 223c e219 03bc
000002e0: 5a8d 523c 3a62 05bd aa3f 57bd b864 4dbd
000002f0: 53db 96bc 9c58 c7bd 79ae 4b3d 0c8a f43d
00000300: b848 cdbd 255e 6d3c bd5c adbd 1367 95bd
00000310: cb0a 1abb 2b5d a9bc 9ade 803d 2bf9 efba
00000320: 9170 91bc d1be 49bd 2d28 a83c a6c0 eabd
00000330: 7e4e 12be d6ec 95bd e902 e23c ac38 cabd
00000340: 1726 c8bd 34a4 923d a43f b43d 24f3 ebbc
00000350: 41cf 73be 75e5 8fbd 0805 1c3d 1627 e73c
00000360: a516 89bd 62f7 08be 2820 66bd bec9 14bc
00000370: dadb 303d c2f9 c5bd e9fb a33d ff23 ca3b
00000380: 20f7 a1bc 8795 33be 401e 273e 7b45 b0bd
00000390: 7e61 ba3d 64ef 5fbd 63bb edbd 0b41 c9bd
000003a0: 405d 98bd e6b9 eabc 1df1 3cbd 1662 3b3d
000003b0: cdc3 f1bd ba91 213d a74c e43d 8188 e6bb
000003c0: a895 e1bd 349d 30bd feb2 413d 6a2b 823d
000003d0: 1557 fbbc 188f 9bbd bdf9 47bd 0c0e f7bd
000003e0: ba97 443d faea 08be 7de5 87bd 0173 52bc
000003f0: 8c1b 693d 582b f03d c2be bdbd efaa 533d
-0.0671755 0.06445961 0.111791916 0.0073845773 -0.083444096 0.013141316 -0.12939529 -0.06531165
-0.01519035 -0.09348478 0.05064609 -0.0065659606 0.11331609 -0.041554254 -0.0374686 0.025317155
-0.055885304 -0.03979229 -0.13836749 0.09715717 0.098106354 -0.13063581 -0.07141533 -0.10452146
-0.07392932 0.073849395 0.05977915 -0.015664393 0.02054201 0.022274576 0.053624902 -0.15358429
0.015432606 -0.12719883 -0.12028125 -0.061243717 -0.065145575 -0.11247373 -0.011902219 -0.00040542593
-0.041778702 0.049410608 0.06329794 -0.042669076 -0.07531093 -0.13125551 -0.15190284 -0.08584532
-0.04773982 -0.06479606 0.06861829 0.050567493 0.098025955 0.15304486 -0.11464643 -0.07593649
0.01822849 -0.13267241 0.030796375 -0.032871883 -0.10279371 -0.12115201 -0.12246727 0.017861264
0.11310877 0.13868034 -0.08148418 -0.077147484 -0.05845384 -0.037898995 -0.0741687 -0.11261504
0.07647953 -0.1005312 -0.0778703 0.09330338 -0.024582662 0.01288901 0.1331823 0.15900661
0.059696812 -0.034723897 0.063212335 0.019940449 -0.056122217 -0.0019071917 0.0042205458 0.0757922
0.04892859 0.05616087 0.015583468 0.03575371 0.048898406 0.075157434 -0.11490984 0.016920052
-0.04657686 -0.05622789 -0.0103226 0.009108253 -0.019274523 -0.050837133 0.06199566 0.112634495
0.0075383526 0.087592386 -0.112169325 0.054383535 0.042391345 -0.00215551 0.026584059 -0.033134956
0.047344316 0.21416047 0.11807322 -0.015654115 0.12788615 0.1838663 0.012092263 -0.13023674
0.054992422 -0.034967005 0.08462928 -0.16111523 0.031107077 -0.03646553 -0.012291639 0.07749788
-0.039150007 -0.09645871 -0.046663478 -0.054461684 0.006796083 0.036736608 -0.019934468 -0.06956256
0.024687193 -0.16244934 0.0948305 -0.027443975 0.10128484 0.09462299 0.037945498 0.01231632
-0.07635559 0.11338967 0.04933182 0.030096533 0.06251454 -0.019664796 0.08968043 0.09508724
0.088449724 -0.1227485 0.10706532 0.017923782 0.057301454 0.0043988945 0.012704134 0.15517029
-0.034110803 -0.09479029 0.14322019 -0.020599285 -0.026582154 0.09734576 0.006009127 0.006085698
0.024831524 -0.050264243 0.12102016 0.1037303 0.09696262 0.109290764 -0.034789328 -0.0065876334
-0.11839485 0.1061963 -0.16227943 -0.13269307 -0.10313936 0.103993915 0.009893808 -0.008001776
0.012851084 -0.03256438 -0.05255095 -0.05014488 -0.018415129 -0.09733698 0.049726937 0.11940393
-0.100236356 0.014487778 -0.08464954 -0.072950505 -0.0023504968 -0.020674309 0.06292458 -0.0018308511
-0.017753871 -0.049254242 0.02052697 -0.11462526 -0.14287755 -0.073205635 0.027589278 -0.098740906
-0.0977289 0.071602255 0.08801201 -0.028802462 -0.2380953 -0.07026187 0.038090736 0.02821688
-0.06693772 -0.13375619 -0.05618301 -0.009081302 0.043178417 -0.09666778 0.080070324 0.006168842
-0.019771159 -0.17537509 0.16320133 -0.08607002 0.091006264 -0.05467166 -0.11608007 -0.09826859
-0.07439661 -0.028653096 -0.04612838 0.04574784 -0.11804924 0.039445616 0.11147433 -0.0070353155
-0.11014873 -0.04311867 0.04728984 0.06355937 -0.030681172 -0.07595652 -0.048822153 -0.12063226
0.04799626 -0.13370886 -0.06635568 -0.012844802 0.056911036 0.11727017 -0.092649 0.051676687

bias f4 [64]
00000000: ba52 a83d 74ab 113e 9793 99bc 5fb9 cc3d
00000010: 25ec af3b 1c8b fbbd b999 eabd dee2 4fbd
00000020: da82 d6bc 5440 083e 51c5 07bd b47e 90bc
00000030: 00ae bc3d 3c91 efbc f63a ff3c dbef d1bc
00000040: bdf8 14bd 86b2 b6bd 706a e73d a455 cbbd
00000050: f6f4 c6bb ac31 9e3d 2481 8e3c ad13 58bc
00000060: a684 d0bb c102 65bd c4bf ef3c 335a e9bc
00000070: 741b 253d 5a69 9e3d 8001 6f3d cac5 81bd
00000080: 3c11 afbd cd22 14bd 379d 503d 50ea f33c
00000090: c62d 0b3e 0cf8 d83d 7daf 93bd 2200 ad3d
000000a0: 912a 39bd 469a 84bd 2cf4 d83d 7719 c7bd
000000b0: c7fe a03b b0f3 c8bd 34b9 1a3d d93a a83d
000000c0: ddbb dc3d bd7e 11bd 596e ebbd e591 3b3d
000000d0: e5cc f1bd 0f0d 2ebd 3581 cdbd efdc bf3d
000000e0: 7cfe 02bc 9820 073d 61b9 0b3c bb0b cf3c
000000f0: 4b8a 92bd a394 ee3d f613 1dbe bb0f 62bc
0.08218904 0.1422556 -0.018747134 0.09996294 0.005368727 -0.122823924 -0.114551015 -0.050753467
-0.026185442 0.13305789 -0.03314716 -0.017638542 0.09212875 -0.029244058 0.031156044 -0.025627067
-0.036370028 -0.089207694 0.11299598 -0.09928444 -0.006071682 0.07724318 0.017395563 -0.013188285
-0.006363469 -0.05591083 0.029266246 -0.028485393 0.040309384 0.07734938 0.05835104 -0.063365534
-0.08548209 -0.036166 0.05093118 0.029774815 0.1359168 0.10594186 -0.07211206 0.08447291
-0.04520661 -0.06474738 0.10593447 -0.09721654 0.0049131843 -0.09812105 0.03777428 0.08214349
0.107780196 -0.035521258 -0.114956565 0.045793433 -0.11806659 -0.042492922 -0.1003441 0.093683116
-0.007995244 0.03299007 0.0085280845 0.025274148 -0.071552835 0.11649444 -0.15339646 -0.013797696

weight f4 [64, 64]
00000000: dfd2 48bd e786 32bd 8020 9b3d d54d 1a3e
00000010: 73de 5c3d 5f92 153d 7f7c c93d e799 003e
00000020: 2da3 bdbc 2255 77bd 0c79 793d a7af 8a3d
00000030: 91b8 983d d501 50bc fd58 2f3e 59c9 86bd
00000040: 25ea 9f3d 5010 353e 7f5b 643d c04e 583d
00000050: e50d 043e 2921 33bd 19a2 b73d 424c e23c
00000060: 71aa 263e 450f d73b 5921 763d 3251 913b
00000070: 262d f03d 9971 b6bd a953 0bbe 8dd3 cd3d
00000080: e14e f23d e04a 55bc eb53 5f3d 26a6 e3bc
00000090: ee62 c13d 5cea 82bc 1c4d 3b3d 8ce6 b3bd
000000a0: ae52 0dbe 9c30 873d 417a 50bd 9203 503d
000000b0: 6047 a63c 0cbf b6bd c68d d03d 0958 ff3d
000000c0: f2fd 6ebd 6fc9 483d d6d0 c93c 36a8 4ebd
000000d0: 58d2 ab3d dac8 4ebd 0878 59bc b83f d7bd
000000e0: 5037 ff3d 5079 083e 5389 fe3d c803 1dbc
000000f0: c2f6 74bd d8cb ba3d 8121 7c3d d77c be3d
00000100: dad3 2e3c 5785 183e 2367 86bd 21ad 19be
00000110: 6788 dd3c d062 013e 62ad ac3c 56a6 86bd
00000120: 710b afbd 52d9 853d 343c dcbd 8d21 49bd
00000130: ccf6 283d 340b 65bd 89a6 00be 7eea cebd
00000140: 350f 913c f0d5 fabc eacb 6cbd ff4d 80bd
00000150: 3565 7e3d 1175 db3d 1922 b53c f1d2 1f3c
00000160: a517 81bc 35dd b93d ab52 d63d 5881 94bc
00000170: 442e 9b3d dd76 4ebd 6b51 473b 22d3 efbd
00000180: 9746 4c3d 54b6 6cbd 0433 b9bb 7d8b 03be
00000190: 92ff 533d 8903 1f3d b022 b43d 8795 673c
000001a0: 2e6d 003d 4012 023e e17f c13c 5354 0a3e
000001b0: c616 c63d cb2b f63d 39f7 173d 36b1 e33d
000001c0: 7e14 e13d 91cd 10bc 99fc db3d 675a 09bd
000001d0: 672c 7abd a50b 343d adbd 9cbd 657c b5bd
000001e0: 292a e4bc dc40 a9bb 0ba1 70bc 4716 9e3c
000001f0: d8d2 dabc 8b68 063e 70b0 0dbd 2c0b 7d3d
00000200: 1d91 903d 5685 683d 96d8 a63d 47df bb3c
00000210: 3dce 833c c6a7 13bd 242e c5bc 5e13 95bd
00000220: e7ff 7bbd 626d db3d f36d 053d 4f8e fabc
00000230: 3904 ce3d 8e51 a5ba 56b2 973c 9261 ca3c
00000240: d1a6 adbd ca9b a1bd 4f57 b33d 3dcc cd3d
00000250: 8f80 723d 4d5c 073d f65b fd3c 927a 1b3d
00000260: cb26 5dbc 4de9 b73d 3612 6c3d 47d3 033d
00000270: 18f7 a43d e1a9 9bbd 3c06 b7bd 649b 12be
00000280: 357e e33d 9ddf 2bbd 96f1 cdbd d6c9 443b
00000290: 23fa 95bd 4626 503d f405 d0bc f749 e73d
000002a0: 61b2 ecbd dad5 05be b83c dc3d 6cb5 d7bd
000002b0: e876 133c 1996 123d 5c83 c23c 0f32 82bd
000002c0: 3301 87bb 857d 3ebd 61f4 f53d be80 b13c
000002d0: 6590 ce3d 36fb f53d 4679 863d d433 743c
000002e0: 3279 d93d b015 02be 9386 003e eac7 75bb
000002f0: 7017 1c3e b58c 123d 71a9 043d fe38 de3d
00000300: 99d7 87bd 3b3f 02be 6c23 813d 4b0b 26be
00000310: b424 f3bc 58fe 023c d8a7 eabd d0a5 b43b
00000320: f605 3b3d 3c33 57be a879 b93d 8a0e 833d
00000330: 6e7d 0c3e 8dce 9fbd 7782 d4bd 604c fa3d
00000340: f803 1e3e a746 b5bd 1253 c6bd a133 1bbd
00000350: eae1 fd3d 6f5c 52bd 5d99 dcbd e938 09bd
00000360: fc9c c4bd db57 ba3d 9ca9 c2bd 2f70 e63d
00000370: ea6d 373d e4ca 3fbb a061 1abd b5ee bf3d
00000380: f22a b4bd 8536 08bd 5fe5 953d e5e5 05bd
00000390: 671a 72bc 19c6 873d 8755 c3bd 18f6 9f3b
000003a0: dc8b f6bc b960 8bbd 14c3 793d bffb c23d
000003b0: b94e f33c 24c2 483a 0ba1 843d 2d0e 80bd
000003c0: 2e97 8f3d 5f43 80bd 6c1c 04be 6ba5 e03d
000003d0: ac39 da3d ec6f aebd a902 cfbc 5ea0 0a3d
000003e0: cd98 9a3d d6f8 ac3d bef8 6c3d 598c 98bd
000003f0: 5ec3 4a3c 4283 cd3d be84 d9bd 8714 183d
-0.049029227 -0.043585684 0.07574558 0.15068753 0.05392308 0.036516543 0.09838199 0.12558709
-0.023149097 -0.060383923 0.060906455 0.06771784 0.07457078 -0.012695749 0.1712379 -0.06581373
0.078083314 0.17682004 0.05575132 0.052809477 0.12895925 -0.043732796 0.089664645 0.027624253
0.16275956 0.0065630996 0.060090397 0.004434728 0.117273614 -0.08908386 -0.13606133 0.10050116
0.11831451 -0.01301834 0.05452339 -0.027789187 0.094426975 -0.015980892 0.045727834 -0.08784208
-0.13801071 0.066010684 -0.05089784 0.050784655 0.020297706 -0.08923158 0.10183291 0.12467963
-0.05834765 0.049020227 0.024635714 -0.050453387 0.08389729 -0.050484516 -0.013273247 -0.105102
0.12461722 0.13327527 0.12428536 -0.009583421 -0.05980564 0.09120911 0.06155539 0.09301155
0.010670627 0.14894615 -0.065626405 -0.1500745 0.02704258 0.1263535 0.02107877 -0.06574695
-0.08547104 0.06535591 -0.1075367 -0.049104262 0.04125099 -0.055918887 -0.12563528 -0.101033196
0.017707447 -0.030619591 -0.057811655 -0.062648766 0.062108237 0.10715688 0.022110986 0.009754882
-0.015758345 0.09075395 0.104649864 -0.018128082 0.07577184 -0.050406326 0.003041352 -0.11710192
0.049872007 -0.05779107 -0.0056518335 -0.1284618 0.051757403 0.03882173 0.087956786 0.014134771
0.031354122 0.12702274 0.023620548 0.1350873 0.096723124 0.120200716 0.037101004 0.11117785
0.10990237 -0.008838073 0.107415386 -0.03353348 -0.0610775 0.043956418 -0.07653365 -0.08861617
-0.027852135 -0.0051652025 -0.014686833 0.019297732 -0.026711866 0.13125817 -0.034592092 0.061778232
0.07058928 0.056767784 0.08146779 0.022933615 0.016089553 -0.036048673 -0.024069853 -0.072790846
-0.061523344 0.107142225 0.03257556 -0.030585436 0.10059399 -0.0012612806 0.018517654 0.024704728
-0.08479083 -0.078910425 0.08756887 0.10048721 0.059204634 0.03304701 0.03092764 0.03795869
-0.0134980185 0.089800455 0.057634555 0.03218391 0.08054942 -0.07600761 -0.08936736 -0.1431709
0.111080565 -0.0419613 -0.100558445 0.003002753 -0.073231004 0.05081775 -0.025393464 0.112934045
-0.115574606 -0.13069859 0.10753769 -0.1053265 0.009000517 0.035787676 0.023744278 -0.06357204
-0.004120016 -0.046506424 0.12009502 0.021667834 0.10086135 0.12010805 0.065661 0.014904935
0.10618819 -0.12703586 0.12551336 -0.0037503191 0.15243316 0.03577872 0.032388154 0.10850714
-0.06632919 -0.12719433 0.06305584 -0.16215245 -0.029680587 0.007995211 -0.11457795 0.0055129305
0.04565998 -0.21015638 0.09056407 0.063992575 0.13719723 -0.07803068 -0.10376447 0.122215986
0.15431201 -0.088513665 -0.09683813 -0.037891034 0.12396605 -0.051357683 -0.10771439 -0.03350154
-0.09600255 0.09098788 -0.09505007 0.11251866 0.044782557 -0.002926522 -0.03769076 0.09371702
-0.08797254 -0.03325512 0.0731914 -0.032689948 -0.014776803 0.06629581 -0.095377974 0.0048816316
-0.030095987 -0.06805558 0.060977057 0.09520673 0.029700624 0.0007658324 0.06476029 -0.06252704
0.07011257 -0.0626285 -0.12901467 0.10969051 0.10655531 -0.08517441 -0.025269823 0.033844344
0.07548676 0.08445899 0.057854407 -0.07448644 0.012375681 0.10034801 -0.10621022 0.03712895

bias f4 [64]
00000000: e4a0 9b3d 026b 013c aee6 c13c 5dfc 5d3d
00000010: 2f1e 7e3c 46b0 94bc 89d9 503d 8793 013e
00000020: 49ed f2bc aff7 973d c3b9 d9bc a0c3 00be
00000030: 9d70 463d 78cb 99bc 86e7 a53d 3669 cabd
00000040: 0f20 c1bd 2a1e 9f3b cc70 b63c 210a 08be
00000050: a330 dbbd afc2 59bd 6a14 51bd 6529 e73d
00000060: ae1c 463d af27 3d3d c89d eb3d b977 993d
00000070: ea0a 0cbd 8080 bfbd 4985 c6bd 0ea8 d6bd
00000080: abbb bf3d 09c0 45bd e5ba 123e bcd0 42bd
00000090: 4b55 37bd 580f 023d 149b 35bd 1d6d efbb
000000a0: 78b5 acba e7a4 eebd e06e 02be fa62 b23d
000000b0: 5273 653d 6c48 cebc 8e7d 903d 5066 103d
000000c0: 0cbd 203d 45a4 eabd 1597 86bd 757c 243d
000000d0: 94f5 0cbc f537 a4bc 7207 debc f054 763d
000000e0: ca61 d03d 733a 923d b4eb 02bd 6136 9dbd
000000f0: 1e7a 49bd 08b5 8bbc 0ae3 1239 380a efbc
0.07599047 0.007899048 0.023669567 0.05419575 0.015510126 -0.01815046 0.050988708 0.12653933
-0.029654162 0.07420289 -0.026577836 -0.12574625 0.04844724 -0.01877378 0.081008 -0.09883349
-0.09429943 0.0048558908 0.022270583 -0.13285114 -0.10702636 -0.05316418 -0.05104486 0.11287192
0.048367195 0.046180423 0.11504704 0.074935384 -0.034190096 -0.09350681 -0.09693391 -0.10481273
0.09361967 -0.048278842 0.14329107 -0.047562346 -0.044759076 0.031752914 -0.044337347 -0.0073067085
-0.001317664 -0.116525464 -0.12737608 0.087102845 0.05601818 -0.025181018 0.07055198 0.035253823
0.03924279 -0.11457113 -0.06571785 0.040157754 -0.008603472 -0.020046214 -0.02710316 0.060139596
0.10174902 0.071400546 -0.031963065 -0.076763876 -0.049188726 -0.017054096 0.00014008224 -0.029179677

weight f4 [64]
00000000: 53bb 7a3f e13a 813f 537b 6f3f 39de 853f
00000010: 16d8 7f3f b601 7c3f 2746 783f b99f 803f
00000020: 39e5 7c3f add0 833f 8153 883f da06 7a3f
00000030: 4d67 803f dc93 803f e5d7 843f 84ea 883f
00000040: 5654 7c3f 018d 853f c089 7f3f 32e8 7c3f
00000050: 92f6 823f 2b99 803f a5a2 7a3f ddd9 7f3f
00000060: 7462 823f 0333 733f d2f9 773f 4c8c 833f
00000070: 2b3f 8f3f daf5 763f ffe2 793f fbad 7d3f
00000080: 05f5 7b3f 2617 793f cce5 8d3f 4660 743f
00000090: 0f44 813f 9b4e 7d3f 45d0 7a3f 67e3 743f
000000a0: 8b1e 883f b5f7 803f 507c 7b3f fced 7e3f
000000b0: 20e0 813f 32c5 723f 2c70 863f 9e2f 833f
000000c0: 726c 7a3f 2c2d 773f d35b 7e3f 8cae 7f3f
000000d0: 6bcf 843f 0765 793f 5f55 823f 0365 893f
000000e0: 797d 7d3f 76ba 7e3f 196a 7c3f 9113 793f
000000f0: 8783 7b3f 4020 783f 5b38 803f 10be 7c3f
0.97942084 1.0096093 0.9354755 1.0458442 0.99939096 0.9844011 0.96982044 1.0048743
0.98787266 1.0298058 1.0650483 0.97666705 1.0031525 1.0045123 1.0378386 1.0696568
0.98566186 1.0433656 0.99819565 0.987918 1.0231497 1.0046743 0.97904426 0.9994181
1.0186296 0.9499971 0.9686557 1.027719 1.1191152 0.9646889 0.97611994 0.990936
0.98420745 0.97300947 1.1085753 0.954594 1.0098895 0.9894807 0.97974044 0.9565949
1.0634321 1.0075594 0.9823656 0.99581885 1.0146523 0.94832146 1.0502982 1.0248907
0.97821724 0.965533 0.9935886 0.9987571 1.0375799 0.9741978 1.0182303 1.0733951
0.9901958 0.99503267 0.9859939 0.9729548 0.9824757 0.9692421 1.0017198 0.9872751

bias f4 [64]
00000000: 37e1 d6bc fddc 1c3c 0ffe 43bd 7e40 3d3d
00000010: 9338 483b 8756 873c 645e 96bd b4c9 533d
00000020: 0092 53bb ba79 243d 5eac b53a 67cb babb
00000030: 9f8a 27bd 57f4 c2bd 822c e43c 2956 1e3c
00000040: 42fc 44bd 2bfe b3bc 19a0 c9bc 3d65 983d
00000050: 7a4d be3b ede2 afbc 916e 71bc 541f b5bb
00000060: 4770 533d 201a 8dbd 0c8b dfbc 3535 383d
00000070: 9231 42bb 7ce9 03bd a44b 68bd 29a7 c4bd
00000080: d301 8abc 51af 11bc 32b4 713c 59c3 d2bc
00000090: cf2a 0abd a607 5abd 0468 c63c 2f77 9cbd
000000a0: 3bd1 5d3c 39bd 97bb d8aa bfbc 464d b5bb
000000b0: 55df 9bbc d4f7 3cbd 257b 833d 6dc1 63bc
000000c0: 2a6b 003a 363b 9ebd d4d1 f9bc bc51 943c
000000d0: 01fe 663d cb8d a4bd ab5d 793b af68 493d
000000e0: 13c9 d8bc 1fe5 4c3d ecfb 20bc 35a1 64bd
000000f0: 3e6c 90bc 742e 10bd dfd1 883b fe70 a53b
-0.026230438 0.009574172 -0.04784971 0.046204083 0.00305513 0.016520752 -0.07342222 0.05170603
-0.0032283068 0.04015515 0.0013860574 -0.005700517 -0.040903684 -0.095192604 0.027853254 0.009664097
-0.048092134 -0.021971783 -0.024612473 0.07441185 0.005807576 -0.021470511 -0.014735834 -0.0055274162
0.051620748 -0.068897486 -0.027287982 0.044972617 -0.0029631597 -0.03220509 -0.05671276 -0.09602196
-0.016846573 -0.008891896 0.014752435 -0.025727915 -0.03373223 -0.05322995 0.02421952 -0.0763992
0.013538654 -0.0046307114 -0.023396894 -0.0055328934 -0.019027391 -0.046134785 0.06419972 -0.013901097
0.0004898781 -0.07726137 -0.030495562 0.01810538 0.05639458 -0.08034857 0.0038050215 0.0491721
-0.026463067 0.050023194 -0.009825688 -0.0558178 -0.017629739 -0.03520055 0.004175409 0.00504887

running_mean f4 [64]
00000000: 882e 03c0 d2a1 813f 5333 fc3e 460f 05c0
00000010: a9d9 ad3c d071 dabf 4db4 e03e 47df 0b40
00000020: 1c2d 1ec0 9293 dcbe 935a 03c0 2321 253f
00000030: 366e 433f 5cbc 1ebf ef51 573f 047e 223e
00000040: c4ef d33e d185 20bf 8fd4 babf 9e49 163f
00000050: b2c9 13be 8470 72bf 774b 293e 0aa5 943f
00000060: 7285 69be 9ff5 babf 203d 8b3f 4e21 5e3c
00000070: b57c adbf 89ed 53bf 373f 4d3f 3379 f43e
00000080: 34ff 88bf 0227 aebf 7df6 d3bf 4b5b 0f3f
00000090: 9134 0e3e 1660 f93f db4c 8abf e736 85bf
000000a0: 5e3f a5bf 3e30 f53f b3e0 06bf 8a3f c13f
000000b0: b602 13be 9337 f23e 6675 cabe ce43 62be
000000c0: 2acf 233f dcee 3fbf 76e1 a93f d12b 98bf
000000d0: eedf 9cbf 415d 5cbe 859b 90be a1bc 7bbd
000000e0: a3b3 da3f 96e3 f43e 98da 0dc0 6ebf 893f
000000f0: 1829 17c0 1e9a 573f 606b de3f e728 c2bf
-2.049715 1.0127509 0.49257907 -2.0790572 0.021221953 -1.7065983 0.4388756 2.1855028
-2.4715033 -0.43081337 -2.0524032 0.6450369 0.76340044 -0.62006164 0.84109396 0.15868384
0.41393864 -0.6270419 -1.4596118 0.5870608 -0.1443241 -0.94702935 0.16532694 1.1612866
-0.22804812 -1.4606208 1.0878029 0.013557745 -1.3553683 -0.82784325 0.80174583 0.47748718
-1.0702882 -1.3605654 -1.6559597 0.55998677 0.1388724 1.9482448 -1.0804704 -1.040738
-1.2909963 1.9155347 -0.52686614 1.5097516 -0.14356503 0.47308025 -0.39542693 -0.22096178
0.6398798 -0.74973845 1.327193 -1.1888372 -1.2255838 -0.21519949 -0.28243652 -0.061459187
1.7086071 0.47829884 -2.216467 1.0761545 -2.3618832 0.8421954 1.7376518 -1.5168732

running_var f4 [64]
00000000: 40e5 3f40 d4cc 753f 1a96 983f a5d8 5540
00000010: ea13 cc3f f4fc 2040 2c44 d43f c097 a53f
00000020: 21a2 9a3f 0b42 f63f 7780 303f 5c4f 7f40
00000030: beb0 7a3f a1bd a23f 30ec 7f3f 2b04 933f
00000040: 9cd7 2040 7a11 d63f 7ffb 3140 6181 7e3f
00000050: 6fdd cf3f 7953 123f 90f5 c23f e0e3 bf3f
00000060: 4961 2a40 4ce9 b83f b44e 453f 0002 553f
00000070: 2f99 8e3f c548 ef40 6bf5 cf3f 92f3 ec3f
00000080: 0ad7 fa3f 001f 9a40 b5f7 5540 e4f8 8840
00000090: afd7 9440 2f23 653f efe6 1d40 ddfe bb3f
000000a0: 2ff6 b03f 7b66 e43f b66d cb3f 1675 873f
000000b0: 1b50 0c40 4391 9a3f 87a1 8e3f 22d4 c93f
000000c0: 6a65 d440 33e5 973f 3aae 0240 79aa b63f
000000d0: aecb 1e3f 9202 833f 5ee1 f23f 3aeb a33f
000000e0: 09c5 cc3f 441e cd3f 970b b340 2734 fc3f
000000f0: fd55 8040 f6e4 ca3f 0675 2140 b54a cf40
2.9983673 0.9601567 1.1920807 3.341348 1.5943577 2.515439 1.6583304 1.2936935
1.2080728 1.9238905 0.6894602 3.9892187 0.9792594 1.271412 0.9996977 1.1485647
2.5131598 1.6724083 2.780975 0.99416167 1.6239451 0.5715862 1.523119 1.4991417
2.6621878 1.4446197 0.77073216 0.83206177 1.1140498 7.477633 1.6246771 1.8511832
1.9596875 4.816284 3.3432438 4.280382 4.6513286 0.8950681 2.46722 1.4687153
1.3825129 1.7843775 1.5892856 1.0582607 2.1923892 1.207558 1.1143044 1.5767863
6.6373796 1.1866821 2.041884 1.4270774 0.6202954 1.0235159 1.8975027 1.280616
1.599763 1.6024861 5.595165 1.9703416 4.0104966 1.5851123 2.5227675 6.4778695

weight f4 [64, 64]
00000000: 4182 d53d 38c5 84bd 2d4e ee3d a54e 693d
00000010: 7fef 093e 3f16 853d e738 563d adde 01be
00000020: 726a 403d 5a44 8dbd 4420 ac3b 6701 df3d
00000030: 82e9 873d d4ca 8e3d b96d d8bd 7a1b babd
00000040: 39d6 283a b4d5 393d 8d60 73bd 9019 a23b
00000050: c595 133c 320e 9bbd 3ab5 a83c ee80 d2bd
00000060: eeee a33d 1b94 debd fe7e c43d ed13 1f3e
00000070: f169 563d f495 9dbd dde4 b73d 1e22 44b9
00000080: d3a4 debd 5a61 d83d a268 113e 9feb 923d
00000090: 5324 aabd fc56 22bd 1643 f8bc 52a0 ef3d
000000a0: 6ce1 07be b76d a7bd 9786 653d 9da0 7d3d
000000b0: 782d c3bc 9d59 febd 2051 59bc 2a0e ce3d
000000c0: c176 3a3e 9234 70ba a9f8 87bd fa99 5b3d
000000d0: 1033 c93d e497 6dbd e2c0 863d 3cc4 0f3e
000000e0: 7f39 7bbc a3ad c8bd f2c6 57bd 3de8 f9bd
000000f0: 51ec e33c 876c b73d 95e0 07bd 7589 ed3d
00000100: f872 a6bd 856d f03d 35a1 babc 3a90 fe3c
00000110: f09e a23d b99b 223c d05a 503d 7da1 d93d
00000120: bfa6 a2bc 80dd 86bc 974b 663d bed8 153e
00000130: 7c87 8fbd 381a b63c ab9e d8bc 26fb 0a3d
00000140: d567 813d 188b 053e 2c4f 70bc bb55 80bd
00000150: a465 ab3d 63c4 b4bd 6310 07be af3e 08bd
00000160: a8b8 95bd c3d0 66bd 530b 463d f668 123d
00000170: 4dd4 663d 50f3 603d 83ad 843c cd5a bd3d
00000180: 375d b43d 4d06 65bd 3788 033e 340d b53d
00000190: cd9c 433e 4baa 1a3e 844d 13bd f0c6 873c
000001a0: b036 313d 1f2f d8bd 0231 a4bd 25c6 c1bd
000001b0: 59bc d33c 6cce 263d 1ebb ab3d 8fa1 94bd
000001c0: 77fa 153e 57c1 db3d 5c36 6f3b d43c 07be
000001d0: 84e6 e3b9 b212 d8bc 0326 48bd 8cce 38bd
000001e0: 1246 a6bb cbb1 e6bc 34a4 8cbb f1de b4bd
000001f0: 6b3d 853d 6998 1ebd 4af2 d9bd feb8 4139
00000200: 51c4 9e3c 3859 d1bd 3dfe 1d3e 8005 45be
00000210: f5ee e83d 8c85 4ebb 0e5c 04be 6d40 96bd
00000220: 1f82 45bd 0786 1e3e 4289 083e 650e b73d
00000230: d36d d83d f5e4 ff3d 4af2 643d ffe4 c33d
00000240: defa 8d3d 11e1 123d 874a 2e3d 9935 d73c
00000250: d217 65bd 0105 a63d 08cf 8337 6e0a 183d
00000260: 1fb8 d03d a64d 373e aa1e 5d3d 018f 5bbd
00000270: 9d2f 5d3d 50ae e43b d14a 1abd 2675 62bd
00000280: 6996 b4bd 9b4c 0bbd 6d6d c13d 0cb7 bd3d
00000290: 5dec e3bd ffda 8abd 704e 1c3d 6c0a 3e3d
000002a0: fac4 013d 88a9 6dbd 0f60 1e3e 3566 103d
000002b0: d54e a7bd c6b7 263d 3299 77bc e0fd e5bd
000002c0: c6f8 d4bd f822 213d 1763 3ebd 44bd 4abd
000002d0: df83 9d3d a0b2 dabb eff0 4fbd 8ec9 2a3d
000002e0: d748 ecbd b299 f93d 70fa b1bd cc4a 8cbd
000002f0: 230d 93bc aa0b 06be b862 b0bd c0ed 8bbd
00000300: 7799 8bbd 27e0 f73c 73c3 7d3d a841 dcbd
00000310: cfac 5b3d 22f3 96bd 5c0f ae3d d78a ebbc
00000320: 5f01 a73d ce3d 343b d7f3 c4bd 89ee 0d3d
00000330: a892 de3c 9b07 af3d d278 893d bfb0 3f3d
00000340: 71e9 e93c 5d09 d43d be97 9bbd fef4 d7bd
00000350: 9a6a f0bc 049c 043d a572 09be b1c0 1b3d
00000360: ee50 c43d 8562 b53d 897e c03d 0819 6abd
00000370: c0dc fabb 2be3 853d 0879 a8bd 0af7 00bb
00000380: 6898 f1bd 78d2 f93d 8697 bc3d 3c83 44be
00000390: 7832 373d 357d 993d d172 e43c b9e1 f13d
000003a0: 2c5c d3bd 674c 55bd e0a6 4d3b 1366 1f3d
000003b0: f61c 243d c4f1 aa3c 26ca de3d c89b a0bd
000003c0: 721e a73c a38e 253d 7fe9 ffbd 3532 cabc
000003d0: df05 c6bd 2339 34bd 2a6d 50bd c251 103e
000003e0: fd25 7bbd e8e6 48bc bce2 ddbd e5b5 c13d
000003f0: c2e3 77bd bd37 d2bd 4636 9fbd b466 cfbd
0.104252346 -0.06482929 0.116360046 0.056959767 0.13470267 0.06498384 0.05230036 -0.126826
0.046976514 -0.06897803 0.00525287 0.10888939 0.06636335 0.0697228 -0.10567803 -0.09087272
0.0006440613 0.04536982 -0.05941825 0.004946895 0.009007876 -0.07571067 0.020594228 -0.10278498
0.080045566 -0.108680926 0.09594534 0.15534945 0.052347127 -0.07694617 0.08979199 -0.00018704726
-0.108712815 0.10565443 0.1420007 0.071738474 -0.083077095 -0.039633736 -0.030305427 0.117005005
-0.13269585 -0.08175223 0.056036558 0.06192075 -0.023825392 -0.12419436 -0.013263971 0.10061295
0.18209364 -0.0009163107 -0.06639225 0.05361364 0.098241925 -0.058006182 0.06579758 0.14039701
-0.015333532 -0.097987436 -0.052679963 -0.12202499 0.027822645 0.08956247 -0.033173162 0.115984835
-0.08127397 0.11739639 -0.022781948 0.031074632 0.07940471 0.0099248225 0.050867856 0.106265046
-0.019854901 -0.016463041 0.05622443 0.14633462 -0.070082635 0.022229299 -0.026442846 0.03393092
0.063186325 0.13041341 -0.014667314 -0.06266352 0.08368996 -0.0882652 -0.13189845 -0.033262905
-0.07310611 -0.056351434 0.048350643 0.03574463 0.05635481 0.05491954 0.016196018 0.092458345
0.08806842 -0.055914212 0.1284493 0.08840409 0.19102784 0.15104024 -0.035962597 0.016574353
0.043265045 -0.10555863 -0.0801716 -0.09461621 0.025846647 0.040724203 0.08385299 -0.07257377
0.14646326 0.10730236 0.0036500907 -0.13206798 -0.00043468561 -0.026376102 -0.048864376 -0.045118853
-0.005074271 -0.02816095 -0.0042920355 -0.08831585 0.06505855 -0.03871957 -0.10641916 0.00018474829
0.01938072 -0.10222095 0.15429015 -0.1924038 0.113737024 -0.0031512706 -0.12925741 -0.07336507
-0.048219796 0.15480815 0.1333361 0.089382924 0.10567822 0.12494842 0.055895127 0.09565162
0.06932615 0.03585917 0.042551544 0.026270675 -0.05593092 0.08106423 1.5712823e-05 0.03711932
0.10191368 0.17900714 0.05398432 -0.053603176 0.054000486 0.0069787875 -0.037669007 -0.055287503
-0.08817751 -0.034008604 0.094446994 0.09263429 -0.11129067 -0.067800514 0.03816074 0.046396658
0.031681992 -0.058023006 0.15466331 0.035253722 -0.08169333 0.040702604 -0.015112208 -0.112300634
-0.10399012 0.03933999 -0.04648122 -0.049496904 0.07691168 -0.006674126 -0.05076688 0.041696124
-0.115373306 0.12187518 -0.08690345 -0.06850204 -0.0179506 -0.13090387 -0.08612579 -0.068324566
-0.068163805 0.030258251 0.061953973 -0.107547104 0.0536316 -0.07370593 0.08499023 -0.028752727
0.081545584 0.0027502659 -0.09616821 0.034651313 0.02716954 0.085463725 0.06712498 0.046799418
0.028553696 0.103533484 -0.07597302 -0.105447754 -0.029347707 0.03237535 -0.1342264 0.03802556
0.095857486 0.08856682 0.09399135 -0.057152778 -0.00765571 0.065374695 -0.0822621 -0.0019678497
-0.11796647 0.12198347 0.09208588 -0.19190687 0.044725865 0.074945845 0.02788678 0.11810631
-0.10320315 -0.052074816 0.0031379983 0.038915705 0.04006668 0.020867236 0.108784005 -0.07842213
0.02040026 0.040419232 -0.12495708 -0.024682144 -0.096690886 -0.043999802 -0.050885357 0.14093688
-0.061315525 -0.012262084 -0.10834262 0.09458522 -0.06051994 -0.102645375 -0.07774024 -0.10127011

bias f4 [64]
00000000: 3651 a5bc 3b3f 96bd 8c35 52bd 7c67 40bd
00000010: 0eff 013e af6d 3cb9 4e96 d33d 4b86 a1bd
00000020: d1eb 963d 0f2c e2bd b011 2bbd b97d 36bd
00000030: 650d edbd 3091 b4bd 39c1 96bd ba90 47bc
00000040: ee4d 2abd 3397 f7bd b7e4 33bb d573 853d
00000050: 9d96 9b3c a884 e33d ccda 03bc 4e65 bc3d
00000060: 45ce 40bb 61c5 c5bb c840 6dbc f6f1 63bd
00000070: d821 13bd bb3c 063d 14d5 a0bd 450d 5d3d
00000080: 0a3f cebd bb26 e5bc e06b 88bc 5acc 4ebd
00000090: 0429 b03d c833 00be 90a7 b53d 415c e7bd
000000a0: 6d56 973d 2491 fc3d 394b edbc 45ef a4bc
000000b0: 44e3 453c b185 8b3d 1cc4 7e3b 883f 07bd
000000c0: 71b7 df3d 96e7 ae3d f41d 12bc e666 87bd
000000d0: 32f4 ac3d dc1a 33bd c828 8cbd ea51 91bd
000000e0: d7a3 88bb 5b12 88bd da53 983d 3dc6 ba3d
000000f0: dac1 2dbd 0d2a 31bd bedf b13d aa2d 7abd
-0.020180326 -0.07336279 -0.051320598 -0.04697369 0.12694952 -0.00017969937 0.10331403 -0.078869425
0.07369197 -0.1104356 -0.041764915 -0.044553492 -0.115748204 -0.08816755 -0.07361073 -0.012180502
-0.041578226 -0.12089386 -0.0027449557 0.06516234 0.018992716 0.111092865 -0.008047771 0.0919901
-0.0029419821 -0.0060354923 -0.014480777 -0.055650674 -0.035920948 0.03277276 -0.078531414 0.053967733
-0.100706175 -0.02797257 -0.016653001 -0.050487854 0.08601573 -0.12519753 0.08869851 -0.11296893
0.07389531 0.12332371 -0.028966533 -0.020133624 0.01207811 0.06812609 0.0038874215 -0.033019572
0.109236605 0.08540265 -0.008918274 -0.06611423 0.08445014 -0.043726787 -0.06843716 -0.07095702
-0.004169922 -0.06644126 0.074378684 0.09119842 -0.0424212 -0.043252993 0.086852536 -0.061078705
