HML/celery_tasks/algorithms/_FeatureEng_utils/pretrained_models/GNN/CASE300_0_32_32_0.001_.pth (torch, 55397 bytes, 55 tensors)

eps f4 [4]
0	0x00000000	0.0
1	0x00000000	0.0
2	0x00000000	0.0
3	0x00000000	0.0

mlps.0.linears.0.weight f4 [32, 8]
0	0x3c871d6d	0.016493523
1	0x3e49ae45	0.19695385
2	0xbe8a3e17	-0.27000496
3	0xbe826bea	-0.25472957
4	0xbdda8e1f	-0.10671639
5	0x3e0211dc	0.12702125
6	0x3c493e7b	0.012282963
7	0x3e859f90	0.260983
8	0xbcf007ab	-0.029300531
9	0x3da75bec	0.081718296
10	0xbd927486	-0.07151131
11	0xbdac71cb	-0.08420142
12	0xbe95bcc0	-0.29245567
13	0xbe839753	-0.2570139
14	0xbe007d98	-0.1254791
15	0x3c7027e2	0.014657946
16	0x3df20299	0.11816902
17	0x3e629f72	0.22131136
18	0xbe86faf7	-0.26363346
19	0xbe0eca8e	-0.13944456
20	0x3dce80fc	0.100831956
21	0x3e9a142e	0.3009352
22	0x3db879d8	0.09007615
23	0x3e891a9f	0.26778123
24	0xbd800625	-0.06251172
25	0x3ccdd046	0.025123727
26	0x3e99e7b3	0.30059585
27	0xbeb1767d	-0.34660712
28	0xbe7cad43	-0.24675469
29	0xbddf9ec4	-0.10918954
30	0xbe24f2f8	-0.1610831
31	0x3e922669	0.2854493
32	0xbe7b2f7a	-0.2452983
33	0xbe17682a	-0.14785829
34	0xbe86650d	-0.2624897
35	0xbeabd08e	-0.33557552
36	0xbe7366c4	-0.2376967
37	0x3e9d0563	0.30668172
38	0x3db0afa7	0.08627253
39	0x3e306dc2	0.1722937
40	0x3c8c44ba	0.017122615
41	0xbe2223e1	-0.15833999
42	0x3da36c41	0.07979632
43	0xbeaad4c2	-0.33365446
44	0xbe605c6d	-0.21910258
45	0xbe4d9b77	-0.20078836
46	0x3e6417c0	0.22274685
47	0x3e50b7be	0.20382592
48	0xbe4998cf	-0.19687198
49	0xbcda3aea	-0.02663942
50	0x3e5c0396	0.21485743
51	0x3ea0822d	0.31349316
52	0x3dbe450e	0.09290515
53	0x3d84cf93	0.06484904
54	0x3eafd9d4	0.34345877
55	0xbe77497c	-0.24149126
56	0x3d7c5712	0.061606474
57	0xbe92dcfe	-0.2868423
58	0xbe60f1c3	-0.21967225
59	0xbe5848f7	-0.21121584
60	0x3e45568e	0.19271299
61	0x3e060888	0.13089192
62	0xbe2a28da	-0.16617146
63	0x3d907de9	0.070552655
64	0x3e32084f	0.17385982
65	0xbcc6c454	-0.024263538
66	0xbbcb9ab4	-0.0062135104
67	0x3ddbb259	0.107273765
68	0x3e35a200	0.1773758
69	0x3ead1197	0.33802482
70	0xbde5ebee	-0.11226641
71	0xbdfbf581	-0.123026855
72	0x3e067f43	0.13134484
73	0x3e91f43f	0.28506657
74	0x3e9dbe31	0.30809167
75	0x3e9a51bf	0.30140492
76	0x3d90982e	0.07060276
77	0xbea547e0	-0.322814
78	0xbcbaa1dc	-0.022782259
79	0xbe674ed1	-0.2258866
80	0xbe991ffb	-0.29907212
81	0x3e9cea24	0.30647385
82	0x3e7e8b49	0.2485782
83	0xbeb868b5	-0.36017385
84	0x3ca0f123	0.019646233
85	0xbda9c138	-0.08288807
86	0xbdc61f2c	-0.09673914
87	0xbe1a60df	-0.15076016
88	0x3e067c1d	0.13133283
89	0xbe69f06b	-0.22845618
90	0x3df2d433	0.1185688
91	0x3e305a88	0.17222035
92	0x3e829856	0.25506848
93	0x3e02854e	0.12746164
94	0xbe8b0398	-0.2715118
95	0xbe4fd1e7	-0.20294915
96	0x3e268a9f	0.16263817
97	0x3da62f06	0.08114438
98	0xbe8cc069	-0.27490547
99	0xbe437f5c	-0.19091552
100	0x3eb052e3	0.34438238
101	0x3e813264	0.25233757
102	0xbdc1c4a5	-0.09461335
103	0xbdcb896d	-0.09938321
104	0xbeaf4cbd	-0.34238234
105	0xbc9e9d3a	-0.01936208
106	0xbe9e11c3	-0.30872926
107	0xbe92c692	-0.28667122
108	0xbd98f679	-0.07468886
109	0x3d600398	0.054690927
110	0xbe37d05d	-0.17950578
111	0x3e449e6c	0.19201058
112	0xbe67184d	-0.22567864
113	0x3ea9bd4f	0.33152243
114	0x3eb37e9f	0.35057542
115	0xbe92c13d	-0.28663054
116	0x3cbf6c98	0.023367211
117	0x3cd13bd0	0.025541216
118	0x3d497c87	0.049191024
119	0x3db51cc5	0.08843378
120	0x3e16aabb	0.14713566
121	0x3d10dd98	0.03536758
122	0xbe10737d	-0.14106555
123	0x3e2b619b	0.16736452
124	0xbe9e1876	-0.30878037
125	0xbe572ba7	-0.21012746
126	0xbd5f65b2	-0.054540344
127	0xbe375a0f	-0.17905448
128	0xbdc54231	-0.09631766
129	0xbe95063a	-0.29106313
130	0xbdb36ee8	-0.08761388
131	0x3d65abb9	0.05607197
132	0xbe92a8f5	-0.2864453
133	0xbca0a74e	-0.019611027
134	0x3df5cd48	0.12002045
135	0xbd9b04d5	-0.07569281
136	0xbb47c97d	-0.0030485087
137	0xbd903c73	-0.0704278
138	0xbd596b6d	-0.053080965
139	0x3e6bff5f	0.23046635
140	0x3e7c92f4	0.24665433
141	0x3e48c151	0.19604994
142	0x3ecd0cd1	0.4004884
143	0xbd11df6f	-0.035613474
144	0xbe98f602	-0.2987519
145	0xbe313ccc	-0.17308348
146	0x3e7aa351	0.24476363
147	0x3ca846c0	0.020541549
148	0xbe372d9b	-0.17888491
149	0xbe8c27ec	-0.27374208
150	0xbeac1ba6	-0.33614844
151	0xbe9610e5	-0.29309765
152	0xbd7d1dd8	-0.06179604
153	0x3e572c68	0.21013033
154	0x3e1f3297	0.15546642
155	0xbea199a5	-0.31562534
156	0x3e27650e	0.16347143
157	0xbe908167	-0.28223726
158	0xbe055dbc	-0.13024038
159	0xbe24991e	-0.16074035
160	0xbd8ca719	-0.06867809
161	0xbd77c01a	-0.060485937
162	0xbea28b21	-0.31746772
163	0xbe99725f	-0.2997007
164	0xbd687f0a	-0.05676178
165	0x3bd44423	0.006477849
166	0xbe2ba3b6	-0.1676167
167	0x3e11a980	0.14224815
168	0xbe9e2757	-0.3088939
169	0xbc193a07	-0.009352214
170	0x3eba5c65	0.36398616
171	0xbe094031	-0.13403393
172	0x3ed31546	0.41227168
173	0x3e0db77c	0.13839525
174	0xbe7d166d	-0.24715586
175	0x3e6acddf	0.22930096
176	0xbd6c74bc	-0.057728514
177	0xbe10978c	-0.1412031
178	0x3e9323f6	0.28738374
179	0xbea014c1	-0.31265834
180	0x3d587e29	0.05285469
181	0xbdcfe885	-0.101517715
182	0x3e821267	0.25404665
183	0x3d630e25	0.05543341
184	0x3e1c27b0	0.15249515
185	0x3df97ed9	0.121823974
186	0xbe338fe2	-0.17535356
187	0xbd957bee	-0.07299028
188	0xbecd254e	-0.40067524
189	0x3e443a59	0.19162883
190	0x3e11dced	0.14244433
191	0x3e7e8aa9	0.24857582
192	0xbe7f5e2d	-0.24938269
193	0x3c4b3539	0.012402826
194	0xbe9b9591	-0.30387548
195	0xbe4c0c2a	-0.19926515
196	0xbe8a9fab	-0.27074942
197	0x3df47b4a	0.11937578
198	0xbe90e0e5	-0.2829658
199	0x3c13052b	0.0089734
200	0xbd0387b9	-0.032111857
201	0x3e584c8b	0.21122949
202	0xbe53db75	-0.20689185
203	0xbe825c7e	-0.2546119
204	0xbdd57f09	-0.10424621
205	0x3e6120a8	0.21985114
206	0xbda183e9	-0.07886488
207	0x3eab0315	0.3340079
208	0x3e0266e3	0.1273456
209	0xbb90d456	-0.0044198437
210	0x3a6f79be	0.00091352675
211	0xbda7dcd7	-0.08196419
212	0x3d8db62e	0.06919514
213	0xbdac0e01	-0.084011085
214	0x3d3a066b	0.045416277
215	0x3d43d55e	0.047810905
216	0xbe84c86e	-0.25934166
217	0xbe50a783	-0.203764
218	0x3e668f95	0.2251571
219	0xbe9cb94f	-0.3061013
220	0xbddd852e	-0.10816418
221	0x3ea929af	0.33039615
222	0x3cc3cdc7	0.023901833
223	0xba23499e	-0.00062289264
224	0xbea07b1a	-0.3134392
225	0x3e4825c2	0.19545653
226	0xbe4cbd13	-0.19994001
227	0xbd9d7bc0	-0.07689619
228	0xbdb25fa9	-0.08709652
229	0xbd3b70e8	-0.045761973
230	0x3e177ef7	0.14794527
231	0x3e8dd794	0.27703536
232	0x3da1d886	0.07902627
233	0x3e984150	0.2973733
234	0x3e517e8b	0.20458429
235	0xbe81b27e	-0.2533149
236	0x3dfd1d25	0.123590745
237	0xbe84d81a	-0.25946122
238	0xbe32916b	-0.17438285
239	0x3da5e4b9	0.08100266
240	0x3df57810	0.11985791
241	0x3e891bd3	0.2677904
242	0xbddd066e	-0.10792242
243	0xbc08ccdb	-0.008349623
244	0x3e2807bb	0.16409199
245	0xbeb8f0f7	-0.36121342
246	0x3e946193	0.28980693
247	0xbe864e44	-0.26231587
248	0x3cc08434	0.02350054
249	0xbd8e16ad	-0.06937919
250	0xbe3cb2be	-0.1842756
251	0x3c8cf072	0.017204497
252	0x3e842ebf	0.25816914
253	0xbdc57307	-0.0964108
254	0xbea307cc	-0.31841886
255	0xbe19c81b	-0.1501774

mlps.0.linears.0.bias f4 [32]
0	0xbeae4219	-0.34034804
1	0x3e2afcaa	0.16697946
2	0xbe58b2c6	-0.21161947
3	0xbe65a4f0	-0.224262
4	0xbe43cae6	-0.19120368
5	0x3e4e1854	0.20126468
6	0x3e4f37e3	0.20236163
7	0x3e92d519	0.28678206
8	0x3dd37ca8	0.10326511
9	0xbdba39dd	-0.09093068
10	0xbdcccc7f	-0.09999942
11	0x3de16d4e	0.11007176
12	0x3e893183	0.26795587
13	0x3db7b9a1	0.08970953
14	0xbe21f9c7	-0.15817939
15	0xbe36aac8	-0.17838585
16	0xbea81d2b	-0.32834753
17	0x3d7738ce	0.060356908
18	0xbe507e6f	-0.2036073
19	0xbe966fff	-0.2938232
20	0x3e99a21a	0.30006486
21	0xbe865686	-0.26237887
22	0xbd2d8598	-0.042363733
23	0x3dac91bd	0.08426235
24	0xbc0e6a9b	-0.008692409
25	0xbe67e46f	-0.22645734
26	0xbe927dd8	-0.28611636
27	0x3e8e6594	0.27811873
28	0x3d3e0f4d	0.04640131
29	0x3e9f2fc1	0.3109112
30	0xbdf671f2	-0.12033452
31	0x3de76d9a	0.11300202

mlps.0.linears.1.weight f4 [32, 32]
0	0xbcf89da1	-0.0303486
1	0xbca19096	-0.019722264
2	0xbd913ca6	-0.07091646
3	0x3d90d80e	0.07072459
4	0x3d98132c	0.07425532
5	0x3bfea0a1	0.0077706133
6	0xbd25589f	-0.04036772
7	0xbd9bb080	-0.07602024
8	0x3df0a534	0.1175026
9	0xbe294388	-0.16529667
10	0x3d945b5d	0.07243989
11	0xbdb9c74e	-0.090712175
12	0xbdd08d3e	-0.1018319
13	0x3d39876d	0.045295168
14	0xbd9d27a5	-0.07673577
15	0x3be032ab	0.0068419776
16	0x3d156e62	0.036482222
17	0xbde10071	-0.10986412
18	0x3ceeee20	0.029166281
19	0x3da0e407	0.07855993
20	0x3dba08a3	0.090836786
21	0xbc97b6fa	-0.018519867
22	0xbe00f113	-0.12591963
23	0x3cac3dbb	0.02102553
24	0x3dad27ff	0.08454894
25	0xbd3ecaa8	-0.046579987
26	0x3d91ff27	0.071287446
27	0x3e0cd365	0.13752516
28	0xbdc690d0	-0.096955895
29	0xbc11c1b1	-0.008896277
30	0x3d50c281	0.050966743
31	0x3c028366	0.007965898
32	0x3c8e8fe9	0.017402606
33	0x3b435a96	0.0029808632
34	0xbe0412ff	-0.12897871
35	0x3c13ba9a	0.009016657
36	0x3e01a06f	0.12658857
37	0x3e0c9071	0.13726975
38	0x3e2b81c5	0.16748722
39	0x3ce41c11	0.027845414
40	0x3d6e3d2b	0.058163803
41	0xbd72fca0	-0.059322953
42	0xbe192bde	-0.1495814
43	0xbde5be4e	-0.11217938
44	0x3e246496	0.16053995
45	0x3deb3838	0.11485332
46	0xbe04c7fb	-0.12966911
47	0x3db4af4e	0.08822499
48	0x3e211f57	0.15734611
49	0x3e3225ee	0.17397282
50	0x3e29cccb	0.16582029
51	0x3e00145c	0.12507766
52	0xbd2c9e33	-0.042143058
53	0xbd69e7e8	-0.05710593
54	0x3e044182	0.12915614
55	0x3de6c9ac	0.112689346
56	0xbdcca51a	-0.09992428
57	0x3e2abf11	0.16674449
58	0x3d8cc621	0.068737276
59	0x3dd2119d	0.10257266
60	0xbe088dcd	-0.13335343
61	0x3cc83a87	0.02444197
62	0xbd4ab07a	-0.049484707
63	0x3e1fd8cc	0.15610045
64	0xbbfdb9bf	-0.00774309
65	0x3d7291b3	0.05922098
66	0x3d1d3b7d	0.03838681
67	0x3d8a4374	0.06751147
68	0xbd8e275a	-0.069410995
69	0x3d8c7d0f	0.068597905
70	0xbdcc6a9c	-0.099812716
71	0x3cbd99d1	0.023144634
72	0xbdb61679	-0.08891005
73	0xbe18730c	-0.14887637
74	0xbe1fe220	-0.15613604
75	0x3e2c3329	0.16816391
76	0x3dde7b49	0.108633585
77	0x3e214bdc	0.15751594
78	0x3e2291c8	0.15875924
79	0xbe15fd7b	-0.14647476
80	0xbe113865	-0.14181669
81	0xbc015a50	-0.007895067
82	0xbe0bf9f6	-0.13669571
83	0x3dd67cf6	0.10473053
84	0xbe1a407a	-0.15063658
85	0xbd671007	-0.05641177
86	0xbe43e9e2	-0.19132188
87	0xbdc2c59e	-0.09510349
88	0x3e084506	0.1330758
89	0x3e254a18	0.16141546
90	0x3de7f349	0.113257
91	0x3e018904	0.12649924
92	0x3e41e8a7	0.18936406
93	0xbd368cd7	-0.04456791
94	0x3daf67d4	0.085647255
95	0x3e0f50a2	0.13995603
96	0x3d55da26	0.052209996
97	0x3e3ea68a	0.18618217
98	0x3dc11966	0.094286725
99	0x3dc855b2	0.0978197
100	0xbdb0d703	-0.0863476
101	0x3db4e3ed	0.08832536
102	0x3a40f0a9	0.000736008
103	0xbd831305	-0.06400112
104	0xbe0b61e5	-0.13611563
105	0xbdb8cadd	-0.09023068
106	0xbdfb4b20	-0.12270188
107	0x3dc59e76	0.09649365
108	0x3df1da0c	0.11809167
109	0xbd352921	-0.044228677
110	0xbdc6a744	-0.09699872
111	0x3e1dbed6	0.1540483
112	0x3df57781	0.11985684
113	0x3b004d30	0.0019577257
114	0xbd89f8b1	-0.06736887
115	0x3e31e2cf	0.17371677
116	0x3d6c0b74	0.05762811
117	0xbe14ff7d	-0.14550586
118	0x3e2d566d	0.169275
119	0x3e0b7f84	0.13622862
120	0xbdb8171b	-0.08988782
121	0x3dcaecdb	0.09908458
122	0xbdbf8bf2	-0.09352864
123	0xbd59e1b1	-0.05319375
124	0x3e201e23	0.15636496
125	0x3cb5ee90	0.022208482
126	0xbde9edab	-0.11422285
127	0xbd2d792a	-0.04235188
128	0xbd7f7262	-0.062364943
129	0xbd46cb78	-0.048533887
130	0x3d32a006	0.04360964
131	0x3e18de60	0.1492858
132	0x3c25ab17	0.010111592
133	0xbde6596f	-0.11247527
134	0xbca4cffc	-0.020118706
135	0x3dbd40f1	0.09240902
136	0x3d656696	0.056006037
137	0xbe390549	-0.18068422
138	0xbc954a6a	-0.01822396
139	0xbe29bd17	-0.16576038
140	0xbdc63a5f	-0.09679102
141	0x3d63248c	0.055454776
142	0xbe09841b	-0.134293
143	0x3d4defd4	0.050277546
144	0x3e174c71	0.14775254
145	0xbc4dbd33	-0.012557316
146	0xbde555ed	-0.1119803
147	0xbd7ed466	-0.062214278
148	0x3d2150cf	0.039383706
149	0xbe1b3380	-0.15156364
150	0x3db9fc5c	0.09081337
151	0xbe019f97	-0.12658535
152	0xbe183f0a	-0.14867797
153	0xbe324ba4	-0.17411667
154	0xbd33f653	-0.043936085
155	0x3e099cd8	0.13438737
156	0xbe43e273	-0.19129352
157	0x3dfb8bb2	0.12282504
158	0xbda17ab9	-0.078847356
159	0x3d708151	0.058717076
160	0x3d084972	0.033273168
161	0xbe1bdc3e	-0.15220734
162	0x3e26b4ce	0.16279909
163	0x3dd6f156	0.1049525
164	0x3e405fe7	0.18786584
165	0x3dd0df1c	0.10198805
166	0xbe06bd48	-0.13158143
167	0x3e24651d	0.16054197
168	0x3c9695d4	0.01838199
169	0x3d72837f	0.059207436
170	0xbe02c374	-0.12769872
171	0xbd79998d	-0.060937453
172	0xbe29e13c	-0.16589826
173	0xbd6b0d59	-0.057385776
174	0x3d3447a7	0.044013645
175	0xbe16dc34	-0.14732438
176	0x3d8c09fd	0.068378426
177	0x3db646ba	0.08900209
178	0x3d33267a	0.043737866
179	0xbdd2b221	-0.10287882
180	0xbdfc55be	-0.123210415
181	0xbd00bc2a	-0.031429447
182	0x3dbdd182	0.09268476
183	0x3e425e1d	0.18981214
184	0x3deca1a4	0.11554268
185	0x3b5963c8	0.0033171047
186	0x3d8f00fb	0.06982609
187	0xbe251b64	-0.1612373
188	0xbe1787d8	-0.14797914
189	0x3d9c93a7	0.0764535
190	0xbdd155ed	-0.10221467
191	0x3dcc0dea	0.099635914
192	0xbdeae0c3	-0.11468651
193	0xbd9835fe	-0.07432173
194	0xbe0963f4	-0.13417035
195	0x3dccd4e8	0.10001546
196	0xbccd8d9a	-0.025091935
197	0x3e1cece8	0.15324748
198	0x3e0531b0	0.13007236
199	0x3dc81ad0	0.09770739
200	0xbd3fed97	-0.046857443
201	0xbd786ba6	-0.060649537
202	0xbcc8e75e	-0.024524387
203	0xbc77a92e	-0.015116019
204	0x3d4b555f	0.049641963
205	0xbdf2c72e	-0.11854397
206	0x3e230590	0.1592009
207	0xbc0edd52	-0.008719759
208	0xbdc82a33	-0.09773674
209	0xbdb5ef2e	-0.088835105
210	0x3e3c6027	0.18396054
211	0x3e3c90b6	0.18414578
212	0xbe1d0af6	-0.15336213
213	0x3e032a91	0.12809207
214	0x3dd4ac9c	0.10384485
215	0x3dfc4d8f	0.12319481
216	0x3e0ed472	0.13948229
217	0xbda99eb9	-0.08282227
218	0x3d981620	0.07426095
219	0x3d7bcc27	0.06147399
220	0xbd2d3be5	-0.042293448
221	0x3d81b2d2	0.063329354
222	0xbd28ce6d	-0.041212488
223	0x3e0a9375	0.13532813
224	0xbda25755	-0.079268135
225	0xbd370c8a	-0.044689693
226	0x3cc4ed18	0.024038836
227	0x3dbef9d9	0.093249984
228	0xbd92f66a	-0.07175906
229	0x3d23a2d2	0.0399502
230	0x3de720fa	0.11285587
231	0x3c808b00	0.01569128
232	0x3d70d63f	0.05879807
233	0xbd75bfa9	-0.059997234
234	0x3da358eb	0.07975944
235	0xbdbcd561	-0.09220386
236	0xbdcd13f8	-0.10013574
237	0xbd89dd57	-0.0673167
238	0x3e04bc58	0.12962472
239	0xbd126be4	-0.035747424
240	0x3cf72626	0.030169558
241	0xbdc5d227	-0.09659224
242	0x3e52862b	0.20558994
243	0x3e4acd7b	0.19804947
244	0xbdd3275b	-0.10310241
245	0xbe2ecbd8	-0.17069948
246	0xbdda32e3	-0.10654237
247	0xbca02767	-0.019550039
248	0xbcb0b7ea	-0.021572072
249	0xbe0ab970	-0.13547301
250	0xbd24504d	-0.040115643
251	0x3d592ebf	0.053023096
252	0xbdf45e93	-0.11932101
253	0x3d47b6f5	0.048758466
254	0xbcd7df7a	-0.02635168
255	0xbd644b06	-0.05573561

mlps.0.linears.1.bias f4 [32]
0	0xbc789323	-0.015171799
1	0xbe0e6d6d	-0.1390893
2	0x3c83e34b	0.016099593
3	0x3deb3f06	0.1148663
4	0xbe32f31f	-0.17475556
5	0xbdec8f40	-0.1155076
6	0x3dfe7921	0.12425447
7	0x3cea793f	0.028622268
8	0xbc582e34	-0.013194609
9	0x3d685373	0.05672021
10	0xbd6f6b2a	-0.05845181
11	0xbe06a2b5	-0.13148005
12	0xbdf500d3	-0.11963048
13	0x3dc40a13	0.09572234
14	0xbc1c45ee	-0.009538157
15	0xbdab107b	-0.08352753
16	0xbd8fd559	-0.07023115
17	0xbde85ac3	-0.113454364
18	0xbd0a7dea	-0.033811487
19	0xbe037988	-0.12839329
20	0x3e0b41d2	0.13599327
21	0x3d8a97ae	0.06767212
22	0xbd8faab9	-0.07014985
23	0xbd776eb3	-0.060408305
24	0x3dba146c	0.090859264
25	0xbd9356c3	-0.07194283
26	0x3d2c77fb	0.04210661
27	0x3d076e29	0.03306404
28	0xbdda7697	-0.106671505
29	0x3d09709f	0.03355467
30	0x3bc9ad98	0.006154727
31	0x3e1af0c0	0.15130901

mlps.0.batch_norms.0.weight f4 [32]
0	0x3f7c672d	0.98594934
1	0x3f7fc7e3	0.9991438
2	0x3f7fe396	0.99956644
3	0x3f7aea1b	0.98013467
4	0x3f7f5b13	0.99748343
5	0x3f801d7c	1.0008998
6	0x3f85ac00	1.0443115
7	0x3f7e3b7d	0.9930952
8	0x3f804b65	1.0023009
9	0x3f848186	1.0352027
10	0x3f81301a	1.0092804
11	0x3f7bf791	0.9842463
12	0x3f817348	1.0113306
13	0x3f785722	0.97007954
14	0x3f7d3e9e	0.9892367
15	0x3f813608	1.0094614
16	0x3f810b11	1.0081502
17	0x3f806c44	1.003304
18	0x3f83a48f	1.0284594
19	0x3f811663	1.0084957
20	0x3f82b026	1.0210006
21	0x3f7c987b	0.98670167
22	0x3f80d575	1.0065142
23	0x3f7d23b2	0.9888259
24	0x3f7ad6b0	0.9798384
25	0x3f827292	1.0191214
26	0x3f7aad63	0.9792082
27	0x3f7df0c7	0.9919552
28	0x3f7dd6cc	0.9915588
29	0x3f801951	1.0007726
30	0x3f785c01	0.97015387
31	0x3f82bb2b	1.0213369

mlps.0.batch_norms.0.bias f4 [32]
0	0xbb4c0f53	-0.0031137064
1	0x3a8de75e	0.0010826399
2	0xbce444e9	-0.02786489
3	0x3c48d20e	0.012257112
4	0xbbe76efa	-0.00706279
5	0xbca2822a	-0.019837458
6	0xbc9557f2	-0.018230412
7	0x39f70a7c	0.00047119323
8	0xbcf5c0ea	-0.029999215
9	0x3bb2fb73	0.005462104
10	0x3ca35e86	0.019942533
11	0x3cf30428	0.029665068
12	0xbc4c7c84	-0.012480859
13	0xbc955148	-0.018227234
14	0xbcbe14c6	-0.023203265
15	0x3c84bdbf	0.01620376
16	0x3c2c8904	0.010530714
17	0xbc016cf6	-0.0078995135
18	0x3cbf8cfd	0.023382658
19	0x3b3709e5	0.0027929482
20	0x3cab6280	0.020920992
21	0xbbec806c	-0.0072174575
22	0x3bb1855a	0.005417508
23	0xbd002a25	-0.031290192
24	0xbcb1ec66	-0.021719169
25	0xbc0b31fb	-0.008495803
26	0x3be9f6a6	0.0071399985
27	0x3bc06c39	0.005872276
28	0xbc894b32	-0.016759489
29	0x3cfbc8da	0.030735422
30	0xbc8e7302	-0.017388824
31	0xba95734a	-0.0011402157

mlps.0.batch_norms.0.running_mean f4 [32]
0	0x43206b86	160.42001
1	0xc336114b	-182.06755
2	0x43b433e7	360.4055
3	0xc2f4fe7e	-122.497055
4	0x421b74d4	38.86409
5	0xc3950271	-298.01907
6	0x42b4100e	90.03136
7	0xc2fbcd11	-125.90052
8	0x435c31d9	220.19472
9	0xc2078802	-33.88282
10	0xc33df43b	-189.95403
11	0xc1b28c5a	-22.318531
12	0x427478c1	61.117924
13	0xc22120b5	-40.28194
14	0x425a22dd	54.534046
15	0xc2fb4aef	-125.646355
16	0xc3197915	-153.47298
17	0x435714fe	215.082
18	0xc3c858c3	-400.69345
19	0xc3b0b1a6	-353.38788
20	0xc2f583c1	-122.75733
21	0x4300cec2	128.80765
22	0xc38d6dd1	-282.85794
23	0x43856e48	266.86157
24	0xc1b80057	-23.000166
25	0x43857e81	266.9883
26	0xc2a63d65	-83.11991
27	0xc2168c8a	-37.637245
28	0x4314d74c	148.841
29	0xc30bd024	-139.81305
30	0xc382b662	-261.42487
31	0xc32170ee	-161.44113

mlps.0.batch_norms.0.running_var f4 [32]
0	0x468312e0	16777.438
1	0x462a4414	10897.02
2	0x472e1ca5	44572.645
3	0x46d58e14	27335.04
4	0x4722ba91	41658.566
5	0x47773956	63289.336
6	0x469a36f8	19739.484
7	0x472b95e2	43925.883
8	0x46952158	19088.672
9	0x476502b8	58626.72
10	0x46873c07	17310.014
11	0x4603915d	8420.341
12	0x460665bd	8601.435
13	0x468b41eb	17824.959
14	0x4631fd96	11391.396
15	0x464fcb2e	13298.795
16	0x46943961	18972.69
17	0x4687f71b	17403.553
18	0x4747c604	51142.016
19	0x4712187c	37400.484
20	0x46c5e6c8	25331.39
21	0x462414d7	10501.21
22	0x474b1e0c	51998.047
23	0x46b7932f	23497.592
24	0x45df8411	7152.5083
25	0x46f8b7a4	31835.82
26	0x4551d96e	3357.5894
27	0x47341b84	46107.516
28	0x466a8b9c	15010.902
29	0x465faaa2	14314.658
30	0x470212cf	33298.81
31	0x4604a09e	8488.154

mlps.1.linears.0.weight f4 [32, 32]
0	0xbd84ebe7	-0.06490307
1	0xbd4c3532	-0.04985542
2	0x3e1d7d87	0.15379916
3	0xbde7e947	-0.11323791
4	0x3d00546e	0.03133052
5	0x3e1b0f60	0.15142584
6	0xbd8e610e	-0.069521055
7	0x3e31ad1a	0.1735119
8	0x3e1cd5e1	0.15315963
9	0x3e2b3cb2	0.16722372
10	0xbcb9bf62	-0.022674266
11	0x3e2c4c3e	0.16825959
12	0xbd92b6f7	-0.07163804
13	0xbd7582bd	-0.059939135
14	0x3e0e3ebe	0.13891122
15	0x3d69e532	0.057103343
16	0x3e05f180	0.13080406
17	0x3e2c39c9	0.16818918
18	0xbdef4a52	-0.11684097
19	0x3df9a821	0.12190271
20	0x3da599ed	0.08086
21	0x3dfc285a	0.12312384
22	0x3d8c999a	0.06865235
23	0xbd3f667b	-0.046728592
24	0xbe009d3b	-0.12559979
25	0x3e0d3b0e	0.13792059
26	0xbdcd9197	-0.10037535
27	0x3dabadc2	0.08382751
28	0xbe233317	-0.15937458
29	0xbc2a7c10	-0.010405555
30	0x3cad77e5	0.021175334
31	0x3cf01594	0.029307164
32	0x3c0a2b20	0.008433133
33	0x3d3f8df9	0.046766255
34	0xbd1642db	-0.036684852
35	0x3cceeda8	0.025259808
36	0x3e3acbe4	0.1824184
37	0xbdb936a5	-0.09043626
38	0xbcad2d24	-0.021139689
39	0xbd9a7b29	-0.07543022
40	0x3dfaf3d7	0.1225354
41	0x3e2d5b7a	0.16929427
42	0xbb9a61e8	-0.0047113784
43	0xbd7290d2	-0.059220143
44	0xbdee12db	-0.1162469
45	0x3e066c52	0.13127258
46	0xbc0f7302	-0.008755447
47	0x3e419fec	0.18908662
48	0x3e04fd7e	0.12987325
49	0x3e1ac710	0.15114999
50	0x3e03ee8e	0.1288397
51	0xbde34363	-0.11096837
52	0x3d9aeb59	0.0756442
53	0xbd9b25c0	-0.075755596
54	0x3ddd571c	0.108076304
55	0xbd0b9a4d	-0.0340827
56	0xbb6d6a6a	-0.0036226758
57	0xbdf3712e	-0.11886822
58	0xbe591065	-0.2119766
59	0x3d5c246a	0.053745665
60	0x3d599bf8	0.05312726
61	0xbc0052b1	-0.007832215
62	0x3dbc68be	0.091996655
63	0xbd9f71ea	-0.07785399
64	0x3d830be4	0.06398752
65	0xbddb63f5	-0.10712425
66	0x3c887795	0.016658584
67	0xbd6851a6	-0.05671849
68	0x3decc268	0.115605175
69	0x3e30567f	0.17220496
70	0x3e19231c	0.149548
71	0x3c605e0e	0.013694299
72	0x3de3377f	0.110945694
73	0xbe3dd25c	-0.18537277
74	0xbe06c8a3	-0.13162474
75	0x3ad381a9	0.0016136664
76	0xbcc0db91	-0.023542197
77	0xbe114b65	-0.14188917
78	0xbd99412d	-0.074831344
79	0xbd8d0e14	-0.06887451
80	0xbe13cbe6	-0.1443325
81	0x3bc4c817	0.006005298
82	0x3dbeb181	0.093112
83	0x3d3d26ab	0.046179455
84	0xbd82a62e	-0.063793525
85	0xbe2bc5a6	-0.16774616
86	0xbe184085	-0.14868362
87	0x3a55a37b	0.00081496657
88	0x3deea37a	0.116522744
89	0xbd2eddf7	-0.04269215
90	0xbe0d60c6	-0.13806447
91	0xbdb31b1f	-0.08745407
92	0xb9ce1c97	-0.00039312683
93	0xbe36f67b	-0.17867462
94	0xbe25f51b	-0.16206782
95	0x3e1861d2	0.14881065
96	0xbd87cbd4	-0.06630674
97	0xbc86e086	-0.016464483
98	0xbd23a61f	-0.039953347
99	0xbe18dc48	-0.1492778
100	0x3baf7120	0.0053540617
101	0x3da838ef	0.08213984
102	0xbd69ee58	-0.057112068
103	0xbcd52916	-0.026020568
104	0x3c7b1f31	0.015327261
105	0xbe306474	-0.1722582
106	0x3e0f1fdd	0.13976999
107	0x3e20b5f2	0.15694407
108	0x3e20b900	0.15695572
109	0xbd1477ae	-0.036246948
110	0x3dc27260	0.094944715
111	0xbe2c41dd	-0.16822
112	0xbd86bb1b	-0.06578656
113	0xbd8982b0	-0.0671438
114	0xbd3a1164	-0.04542674
115	0x3da3411f	0.07971405
116	0xbdb11938	-0.08647388
117	0xbd1a69e8	-0.037698656
118	0xbd0a80c7	-0.033814218
119	0xbe1c4743	-0.15261559
120	0xbb7073ad	-0.0036690042
121	0xbe257afe	-0.16160199
122	0x3dd593f6	0.10428612
123	0x3d8e744b	0.06955775
124	0x3e16ea00	0.14737701
125	0xbd7cf22e	-0.061754398
126	0x3c943891	0.01809338
127	0x3d2f0cc4	0.042736784
128	0x3e1f0fb4	0.15533334
129	0x3dfd2106	0.12359814
130	0xbdcad19e	-0.099032626
131	0xbe2a7f7f	-0.16650198
132	0xbe17890c	-0.14798373
133	0xbdb91037	-0.09036296
134	0x3ddc30ca	0.10751493
135	0x3d802014	0.062561184
136	0x3e0fd13d	0.14044662
137	0x3e06ab04	0.13151175
138	0xbbc543bf	-0.006020039
139	0xbe0abc70	-0.13548446
140	0x3e220570	0.15822387
141	0x3def5333	0.11685791
142	0x3e2523d8	0.16126955
143	0xbd80eb9f	-0.06294941
144	0x3e3f2127	0.1866499
145	0xbc0eff19	-0.008727812
146	0x3dca6010	0.09881604
147	0x3dedf873	0.116196536
148	0x3e0f7c1d	0.14012189
149	0xbe014d9d	-0.12627263
150	0xbdd535d8	-0.104106605
151	0x3e157636	0.14595875
152	0xbd8fb78c	-0.07017431
153	0xbdfa9b69	-0.122366734
154	0x3e392333	0.18079834
155	0x3d0ba96b	0.034097116
156	0x3e37c6d1	0.17946936
157	0xbe063b78	-0.13108623
158	0x3d0fef81	0.035140518
159	0xbdab90ea	-0.083772495
160	0xbd8f0a74	-0.06984416
161	0xbd65d8a3	-0.056114804
162	0xbd8c1a79	-0.06840987
163	0x3da4c21e	0.080448374
164	0xbb4d5ae2	-0.0031334688
165	0x3e0cf3f9	0.13764943
166	0x3cde2776	0.027118426
167	0xbcd6a97c	-0.026203863
168	0xbdc7b8cd	-0.09752045
169	0xbe22842e	-0.15870735
170	0xbd913aad	-0.0709127
171	0xbe323b74	-0.17405492
172	0xbd4a0d7f	-0.049329277
173	0x3b525d50	0.0032099076
174	0xbd84f8a2	-0.064927354
175	0xbdc81f76	-0.09771626
176	0x3dfbe8ae	0.123002395
177	0x3d89ca3d	0.06728027
178	0xbd7120f9	-0.058869336
179	0xbdaa41cb	-0.0831333
180	0x3debb73c	0.115095586
181	0x3e05157b	0.12996475
182	0xbe26c9e9	-0.1628796
183	0xbd1a6bc1	-0.03770042
184	0xbbba2649	-0.0056808335
185	0xbd3876ed	-0.04503529
186	0x3e237bec	0.15965241
187	0xbcad432f	-0.0211502
188	0x3e2609d6	0.1621469
189	0xbba7621f	-0.0051081325
190	0xbcafdad2	-0.021466646
191	0xbe00055a	-0.12502041
192	0xbdc4142c	-0.0957416
193	0x3ca08065	0.019592473
194	0x3d3f35fb	0.04668234
195	0xbd0f221e	-0.034944646
196	0x3e01c6db	0.12673514
197	0xbdfe54dc	-0.124185294
198	0x3d06c2f5	0.03290077
199	0x3e115733	0.1419342
200	0xbd7d59a9	-0.061853085
201	0x3de4605b	0.11151191
202	0xbcefe669	-0.029284673
203	0xbe36c40d	-0.17848225
204	0xbe1a7863	-0.15084986
205	0x3cdc3149	0.02687897
206	0xbdb8d7e3	-0.09025552
207	0x3d47f0fb	0.0488138
208	0x3e33bd06	0.17552575
209	0x3d64baaf	0.055842098
210	0xbd819f73	-0.06329241
211	0x3d5a8130	0.05334586
212	0xbda9db05	-0.08293728
213	0xbe1ac449	-0.1511394
214	0xbe23f782	-0.16012385
215	0xbe140139	-0.14453591
216	0xbaa09748	-0.0012252117
217	0x3d6b0458	0.05737719
218	0xbd8d84ef	-0.06910121
219	0xbded1179	-0.11575598
220	0x3defa89c	0.117020816
221	0xbdb2b31c	-0.08725569
222	0xbd913790	-0.07090676
223	0xbe38bcbf	-0.18040751
224	0xbdd5de65	-0.10442809
225	0x3d7710df	0.060318824
226	0xbe27433e	-0.16334245
227	0xbde78df5	-0.11306373
228	0x3e04e7a8	0.12978995
229	0xbdd00ef7	-0.10159104
230	0xbdaec07a	-0.08532806
231	0xbd2b7061	-0.04185522
232	0x3d98288e	0.0742961
233	0xbded26eb	-0.11579689
234	0x3cc4aa1f	0.024006901
235	0x3d708175	0.05871721
236	0xbc0de920	-0.008661538
237	0x3cdb505e	0.02677172
238	0xbdc7dce0	-0.097589254
239	0x3da92548	0.08259064
240	0x3d98f4b4	0.074685484
241	0xbd33e07f	-0.043915268
242	0xbe14f01f	-0.14544724
243	0x3de7c2d1	0.11316455
244	0x3e05f2d2	0.1308091
245	0xbc1755aa	-0.0092367325
246	0x3d8da0b5	0.06915418
247	0x3d6d4506	0.057927154
248	0xbd9c3065	-0.07626418
249	0xbd071d04	-0.032986656
250	0x3e28a2a1	0.16468288
251	0xbcc8868b	-0.024478218
252	0xbe12d1ea	-0.14337888
253	0xbc1b6551	-0.009484605
254	0x3db48fd4	0.088164955
255	0xbd7f62e6	-0.062350176

mlps.1.linears.0.bias f4 [32]
0	0x3e4268a7	0.18985234
1	0xbd15137a	-0.036395527
2	0xbe132492	-0.14369419
3	0xbda7f9fe	-0.08201979
4	0x3e1e365b	0.15450422
5	0xbd7aa381	-0.061191086
6	0xbdb23580	-0.087016106
7	0x3d542a69	0.051798258
8	0x3cd3d719	0.025859402
9	0xbe29e30c	-0.16590518
10	0x3e15be9b	0.14623491
11	0x3d8c6c5f	0.06856608
12	0x3e30f666	0.17281494
13	0x3ddd75aa	0.10813458
14	0xbdd6278c	-0.10456762
15	0xbd910d69	-0.07082636
16	0x3db28fd7	0.087188415
17	0x3c1004ec	0.008790236
18	0x3c4e32a1	0.012585313
19	0xbe1868f1	-0.14883782
20	0xbdaffdf0	-0.085933566
21	0x3da1a128	0.07892066
22	0x3c57dba8	0.013174929
23	0xbdccc4b2	-0.09998454
24	0xbdebd25f	-0.115147345
25	0x3e187139	0.14886941
26	0xbd77a216	-0.06045731
27	0xbe48548d	-0.19563504
28	0x3e29557f	0.1653652
29	0x3d98950b	0.07450303
30	0xbdd3e4c5	-0.10346369
31	0xbdf2d021	-0.11856104

mlps.1.linears.1.weight f4 [32, 32]
0	0x3e3b817a	0.1831111
1	0x3bf57972	0.007491284
2	0xbdb98f8f	-0.09060585
3	0x3d6c7af3	0.05773444
4	0xbc966ab8	-0.018361434
5	0x3cabdf62	0.02098054
6	0xbd6777b4	-0.056510642
7	0xbe244e15	-0.16045411
8	0xbdfd62bf	-0.1237235
9	0x3b16a4f4	0.0022986503
10	0xbde02fcf	-0.10946619
11	0x3e5362ba	0.2064313
12	0x3c93cf7f	0.018043278
13	0xbd04baa3	-0.032404553
14	0x3dba69f0	0.09102237
15	0xbe37a4ab	-0.1793391
16	0xbd8bc0f0	-0.06823909
17	0x3d21bd6b	0.039487284
18	0xbe06116c	-0.13092583
19	0x3dde9d74	0.108698756
20	0x3d123241	0.035692457
21	0xbe117149	-0.14203371
22	0xbe187473	-0.14888172
23	0x3d810417	0.06299608
24	0x3de2a59f	0.11066746
25	0xbc2408d1	-0.010011868
26	0xbe3b5f15	-0.1829799
27	0xbdbc772c	-0.09202418
28	0x3c515f16	0.012779018
29	0x3c75c0ab	0.014999549
30	0xbb86053e	-0.0040899804
31	0xbc61e224	-0.013786826
32	0xbb120e18	-0.0022286233
33	0x3ddb6d2e	0.10714184
34	0x3e6351ad	0.22199126
35	0x3df0e6b0	0.1176275
36	0x3e3564ea	0.17714277
37	0xbdc031b1	-0.09384478
38	0xbd35e7a0	-0.044410348
39	0xbd707dc0	-0.058713675
40	0x3d2969ee	0.041360788
41	0x3e0e5dd9	0.13902988
42	0xbd3fc059	-0.046814296
43	0xbdb762b8	-0.08954376
44	0xbd87cc9d	-0.06630824
45	0x3e4f2a56	0.20230994
46	0xbcd30642	-0.02575982
47	0xbcc8ab00	-0.024495602
48	0xbda1d6e5	-0.07902316
49	0xbdf92bbb	-0.12166544
50	0xbd3be7f7	-0.045875516
51	0x3dcdcc17	0.10048693
52	0xbd8c3ed5	-0.06847922
53	0xbd865139	-0.06558461
54	0x3dbc361c	0.09190008
55	0xbde46b64	-0.11153296
56	0xbdd31b66	-0.1030796
57	0xbd3d85a7	-0.04627004
58	0x3e1c46af	0.15261339
59	0x3d98dad3	0.074636124
60	0x3c11c2a6	0.008896505
61	0xbd12f36a	-0.03587667
62	0x3d5c0ad4	0.053721264
63	0xbe012741	-0.1261263
64	0x3dc6bb73	0.09703722
65	0x3cc6fae1	0.02428955
66	0x3d2592db	0.040423255
67	0x3cfcfe2b	0.030882915
68	0xbddf2071	-0.108948596
69	0x3dfec69b	0.12440225
70	0x3dd99f06	0.106260344
71	0xbe076b0a	-0.13224426
72	0xbe32d37c	-0.17463487
73	0xbd4bdf66	-0.049773596
74	0x3def6253	0.11688676
75	0xbdae351e	-0.08506225
76	0x3e336108	0.17517483
77	0xbdae41bf	-0.08508634
78	0xbe180fd7	-0.14849792
79	0x3d8efe10	0.06982052
80	0xbdd87cf3	-0.10570707
81	0xbbbab847	-0.005698237
82	0xbd86f42e	-0.06589542
83	0xbbb2aa32	-0.005452418
84	0xbe2e92fb	-0.17048256
85	0xbe1b2385	-0.15150268
86	0x3d77dc00	0.060512543
87	0xbb3fd896	-0.0029273382
88	0xbdb76edb	-0.08956691
89	0xbcb4e608	-0.022082344
90	0xbe0f40d9	-0.13989581
91	0x3d2cba08	0.0421696
92	0x3dddea06	0.10835652
93	0x3e3e767b	0.18599884
94	0xbe1d6f76	-0.1537455
95	0xbd129946	-0.035790704
96	0x3e1445be	0.1447973
97	0x3e26e198	0.16296995
98	0xbdfd7bd9	-0.12377138
99	0x3d850f3c	0.06497046
100	0x3dc2102d	0.094757415
101	0x3de54c0a	0.11196144
102	0xbddc0473	-0.10743036
103	0x3df405b9	0.11915154
104	0xbd88c034	-0.06677285
105	0xbddb64aa	-0.107125595
106	0x3cfb2b83	0.030660396
107	0x3e03f425	0.12886102
108	0xbe091a7e	-0.13389012
109	0x3da8b224	0.08237103
110	0xbcda8687	-0.026675476
111	0x3d4683da	0.048465587
112	0x3dfff73a	0.124983266
113	0x3cc741c6	0.024323355
114	0xbe00a1d4	-0.12561733
115	0xbd3bcaba	-0.045847632
116	0x3d907c99	0.07055015
117	0xbe1f4514	-0.15553695
118	0x3d89eb97	0.06734388
119	0xbdebdbf8	-0.11516565
120	0xbd3d9166	-0.04628124
121	0x3dc659d6	0.096851036
122	0xbe14f518	-0.14546621
123	0xbdfb1cdc	-0.12261364
124	0x3dc261de	0.09491323
125	0xbe235540	-0.15950489
126	0x3df87427	0.12131529
127	0xbe036c8c	-0.12834376
128	0xbce2b92e	-0.027676191
129	0x3cdca30e	0.02693322
130	0x3cdb8087	0.026794685
131	0xbdf65061	-0.1202705
132	0xbcb19c6e	-0.021681037
133	0x3dd45727	0.103681855
134	0x3de7372e	0.112898216
135	0xbe0da8ff	-0.13833998
136	0xbd8a5b98	-0.06755751
137	0x3ca86683	0.020556694
138	0x3bac56d9	0.0052593765
139	0xbe299167	-0.16559373
140	0xbe23ab5b	-0.15983336
141	0xbe43ad33	-0.19109039
142	0xbe023161	-0.12714149
143	0xbdad387a	-0.08458038
144	0xbe0b2f0b	-0.13592164
145	0xbdde0d9b	-0.10842439
146	0x3d2bdb60	0.04195726
147	0x3d7f5a2f	0.062341865
148	0xbda5af00	-0.08090019
149	0x3c80b0b1	0.015709253
150	0xbbee548c	-0.0072732624
151	0x3e03bfb3	0.12866096
152	0xbdea7cea	-0.11449607
153	0x3c995dd1	0.018721493
154	0x3e3c9c43	0.18418984
155	0x3e0c4361	0.13697578
156	0xbe2773f3	-0.16352825
157	0xbd8358c9	-0.06413419
158	0x3b17c7a2	0.0023159762
159	0xbd9d3e5b	-0.07677909
160	0xbdb85e24	-0.09002331
161	0xbdd9fe71	-0.10644234
162	0x3dfa135f	0.12210726
163	0xbd88e8fb	-0.066850625
164	0xba08f37c	-0.000522427
165	0x3d6bbafc	0.05755137
166	0xbe07ccfc	-0.13261789
167	0x3d09d361	0.033648852
168	0x3df6f2fe	0.12058066
169	0xbdd0c569	-0.10193903
170	0x3d5fbe84	0.05462505
171	0xbbdaa709	-0.006672744
172	0x3db92552	0.090403214
173	0x3e0f0670	0.139673
174	0x3d7c1cb5	0.061550815
175	0x39032bb1	0.0001250941
176	0xbe1426fb	-0.14467995
177	0x3d5f52df	0.05452239
178	0x3dd69ba7	0.10478907
179	0xbd574705	-0.052557964
180	0xbe2cae01	-0.16863252
181	0x3e1a5f8e	0.15075514
182	0xbd00c947	-0.031441953
183	0x3d00d15a	0.031449653
184	0xbd672e4e	-0.056440644
185	0x3dd5ebf5	0.10445396
186	0x3e0f1935	0.1397446
187	0x3e004c7a	0.12529173
188	0xbda30419	-0.07959766
189	0x3e11c312	0.1423457
190	0x3db23585	0.08701614
191	0x3cd12625	0.025530884
192	0xbe016ba6	-0.12638721
193	0xbdac36cd	-0.0840889
194	0xbe3922d8	-0.18079698
195	0x3e210f10	0.15728402
196	0x3e2235a6	0.15840778
197	0x3dc66e3e	0.09688996
198	0x3d13e1b1	0.036103908
199	0x3d38ac99	0.045086477
200	0x3e24c875	0.16092093
201	0xbdbe3070	-0.092865825
202	0xbd14a0eb	-0.036286276
203	0xbe40a20f	-0.1881182
204	0xbc0b2d0b	-0.008494626
205	0xbcb1a351	-0.02168432
206	0x3cba0a79	0.022710072
207	0xbdb5694c	-0.088579744
208	0xbcfd37d6	-0.030910414
209	0xbe0e32d9	-0.13886584
210	0xbe17844b	-0.1479656
211	0x3a96ef4e	0.001151541
212	0xbe25da83	-0.16196637
213	0x3d34d27e	0.044146053
214	0xbe198769	-0.14993061
215	0xbe1c6241	-0.15271856
216	0xbd942a20	-0.07234597
217	0xbe2a843f	-0.1665201
218	0x3e1ca9ff	0.15299223
219	0x3e017583	0.12642483
220	0xbd948b06	-0.07253079
221	0x3d4ac8a0	0.049507737
222	0x3e07ba20	0.13254595
223	0x3db59fbc	0.088683575
224	0xbc9f8e5e	-0.019477066
225	0xbe25cc36	-0.16191182
226	0x3e10e32a	0.14149156
227	0xbe0789e6	-0.13236198
228	0xbce4e6b5	-0.027942041
229	0x3af6b876	0.0018823284
230	0xbd64edc7	-0.055890825
231	0xbdc2a8f8	-0.095048845
232	0xbe2ebf0b	-0.17065065
233	0x3c9f2b7d	0.019429917
234	0xbcaf78f5	-0.021419981
235	0x3e26a827	0.16275083
236	0xbd1eaedf	-0.03874099
237	0x3e0c9031	0.1372688
238	0x3c96ac61	0.018392744
239	0xbd4df125	-0.0502788
240	0xbcfe182c	-0.031017385
241	0xbc6c279b	-0.01441374
242	0xbc85c06a	-0.016327102
243	0xbcc4a423	-0.024004048
244	0x3d41bc70	0.04729885
245	0x3e11b1e1	0.14228012
246	0xba7edfa1	-0.00097226544
247	0x3d77df6e	0.060515814
248	0x3e10d329	0.14143051
249	0x3d0f6384	0.035007015
250	0x3dcbdfac	0.099547714
251	0x3d9e6787	0.0773459
252	0x3e3249e8	0.17411005
253	0xbe0bc9aa	-0.13651147
254	0x3da5b112	0.08090414
255	0xbc85849b	-0.016298583

mlps.1.linears.1.bias f4 [32]
0	0x3e2217d0	0.15829396
1	0x3b275a76	0.0025536097
2	0xbd87426f	-0.06604468
3	0x3e29cb07	0.16581355
4	0x3c12acbc	0.008952316
5	0x3d176ea6	0.036970757
6	0xbdbe4adf	-0.09291624
7	0x3e4a38ba	0.19748202
8	0xbd56f533	-0.052479934
9	0x3e104588	0.14089024
10	0xbc02dcbc	-0.0079871975
11	0x3db43bf6	0.08800499
12	0x3ded672e	0.115919456
13	0xbdb2ad50	-0.08724463
14	0xbe097a2d	-0.13425513
15	0xbe21a5b5	-0.15785868
16	0x3e0e8206	0.13916788
17	0x3e1d5530	0.15364528
18	0xbdaf2082	-0.08551122
19	0xbdce1d0a	-0.100641325
20	0x3d1861f4	0.03720279
21	0x3dbee258	0.093205154
22	0x3cd48107	0.025940431
23	0xbd8bc397	-0.06824415
24	0xbdd4f9c0	-0.103991985
25	0x3e2f6502	0.17128375
26	0xbdea8887	-0.11451822
27	0xbe3c3a18	-0.18381536
28	0xbd85737c	-0.065161675
29	0x3d1658b7	0.0367057
30	0x3d29bdda	0.041440822
31	0x3d8d1a5d	0.06889794

mlps.1.batch_norms.0.weight f4 [32]
0	0x3f8274c9	1.019189
1	0x3f79a558	0.9751792
2	0x3f8284f3	1.0196823
3	0x3f7bb23e	0.9831885
4	0x3f808662	1.004101
5	0x3f78a4fc	0.97126746
6	0x3f768ae1	0.9630566
7	0x3f7fda29	0.9994226
8	0x3f814bbd	1.0101238
9	0x3f7d222b	0.9888026
10	0x3f7a62de	0.9780711
11	0x3f875b73	1.0574783
12	0x3f803da5	1.0018812
13	0x3f854471	1.0411512
14	0x3f85d99b	1.0457033
15	0x3f7dc6f0	0.9913168
16	0x3f7b2d37	0.9811587
17	0x3f7aa968	0.97914743
18	0x3f7a344b	0.9773604
19	0x3f82661c	1.0187411
20	0x3f7c904d	0.98657686
21	0x3f7dfd95	0.9921506
22	0x3f79105a	0.97290576
23	0x3f7aa8bd	0.97913724
24	0x3f7b90ff	0.9826812
25	0x3f7df2e2	0.99198735
26	0x3f820af1	1.0159589
27	0x3f7d5b87	0.98967785
28	0x3f771beb	0.96526974
29	0x3f8065a3	1.0031017
30	0x3f7bdd14	0.98384213
31	0x3f7bf6d2	0.9842349

mlps.1.batch_norms.0.bias f4 [32]
0	0xbc015c5e	-0.007895557
1	0x3bd37af7	0.0064538675
2	0x3c4cc010	0.012496963
3	0xbc7e4fab	-0.015521924
4	0xbbe2663e	-0.006909161
5	0xbcdcfdd3	-0.026976502
6	0xbcbe16f0	-0.023204297
7	0xbb97e0c4	-0.0046349484
8	0x3b7e0080	0.0038757622
9	0xbb34ae3a	-0.0027569667
10	0xbc753777	-0.014966837
11	0x3d4e1504	0.05031301
12	0x3ca61300	0.020272732
13	0x3d691cf2	0.05691237
14	0x3d30cf90	0.043166697
15	0xbcbf7402	-0.023370747
16	0x3b90fa2c	0.004424354
17	0xbc690c34	-0.014224101
18	0x3c319d60	0.010840744
19	0x39cc14eb	0.00038925497
20	0xbcad141e	-0.021127757
21	0x3b524b3a	0.0032088296
22	0xbd07ad11	-0.033124033
23	0xbbfb2d49	-0.0076653105
24	0xbce5cc94	-0.028051652
25	0x3bb4de4a	0.005519663
26	0x3c8f3d42	0.017485265
27	0xbcabe5a9	-0.020983534
28	0xbd1b2e6d	-0.037886072
29	0x3b9f26e2	0.00485693
30	0xbc486723	-0.012231621
31	0x3c05776b	0.008146147

mlps.1.batch_norms.0.running_mean f4 [32]
0	0x3fca8a48	1.582345
1	0x3f275158	0.65358496
2	0xbfa3c6dd	-1.2795063
3	0xbf150aa5	-0.5821937
4	0x3faceb63	1.3509334
5	0xbf1ee112	-0.6206218
6	0xbf7a9d12	-0.9789592
7	0xbe689c5b	-0.22715895
8	0x3f10fa4c	0.5663192
9	0xbf3fea0d	-0.7496651
10	0xbe244677	-0.16042505
11	0x3e5ff28a	0.21869865
12	0xbe9e3827	-0.30902216
13	0xbcda0805	-0.026615152
14	0x3f10bf20	0.56541634
15	0x3da57f45	0.08080915
16	0xbeb3f904	-0.3515092
17	0xbd9b1a3d	-0.07573364
18	0xbf088fae	-0.5334424
19	0xbea9490d	-0.33063546
20	0x3f246eee	0.64231765
21	0x3de135ae	0.10996567
22	0xbe60bb7a	-0.21946517
23	0xbee3190b	-0.44355044
24	0x3de54435	0.1119465
25	0xbc97f768	-0.01855059
26	0xbed69e77	-0.41917774
27	0xbe6c7113	-0.2309001
28	0x3e99127a	0.2989691
29	0x3e0b6441	0.13612463
30	0xbe7e7f46	-0.24853238
31	0x3ea9c511	0.33158162

mlps.1.batch_norms.0.running_var f4 [32]
0	0x3f951115	1.1645838
1	0x3f4cd835	0.80017406
2	0x3fa7281a	1.3059113
3	0x3f7879a6	0.9706062
4	0x3f928c02	1.1448977
5	0x3fb52d91	1.4154531
6	0x3fceda56	1.6160381
7	0x3f7bf1e6	0.9841598
8	0x3f268ad3	0.6505558
9	0x3f78ea16	0.97232187
10	0x3fb9df83	1.4521335
11	0x3f514d92	0.8175899
12	0x4035652c	2.8343
13	0x3f8da8d4	1.1067147
14	0x3f5791ea	0.8420702
15	0x3f1c8ece	0.611554
16	0x40569e75	3.3534214
17	0x3f2ba327	0.67045826
18	0x400de400	2.217041
19	0x3fb0888f	1.3791674
20	0x3fa7e7e2	1.311764
21	0x3f8580a1	1.042988
22	0x3f80451a	1.0021088
23	0x3fe7d186	1.8110816
24	0x3f3fe8bb	0.74964494
25	0x3f462e59	0.7741447
26	0x3f024135	0.5088075
27	0x3f4137ef	0.7547597
28	0x3efb9fc5	0.49145332
29	0x3f2e040d	0.6797493
30	0x3f2b8038	0.6699252
31	0x3f272c5d	0.6530207

mlps.2.linears.0.weight f4 [32, 32]
0	0xbde6ed50	-0.112757325
1	0xbdadc4e9	-0.08484823
2	0xbdc30e45	-0.09524206
3	0xbd9f292a	-0.07771523
4	0xbddaeae1	-0.10689331
5	0xbb4a4802	-0.0030865674
6	0xbcc46dcd	-0.023978138
7	0xbe427bc8	-0.18992531
8	0xbe09e9a6	-0.13468036
9	0xbda0bfc1	-0.07849074
10	0xbda3842e	-0.07984196
11	0xbe0320ae	-0.12805435
12	0xbca22b4b	-0.019796034
13	0x3d60b916	0.05486401
14	0xbdfdc654	-0.12391344
15	0xbc99ce21	-0.018775048
16	0xbd8b5507	-0.06803327
17	0xbd9dc45b	-0.077034675
18	0xbd4e3d25	-0.05035128
19	0xbd8ea951	-0.06965888
20	0xbd11d9a8	-0.035607964
21	0xbe0c97e3	-0.13729815
22	0x3d870715	0.06593148
23	0x3e45feca	0.19335476
24	0x3df1810f	0.11792194
25	0xbde75b06	-0.11296658
26	0x3d2a9ee6	0.041655444
27	0xbe33aa52	-0.17545441
28	0x3df32a62	0.11873318
29	0xbe34e7a1	-0.17666484
30	0xbe2195fd	-0.15779872
31	0xbe19401c	-0.14965862
32	0xbe0dc5a4	-0.13844925
33	0x3d1229eb	0.035684507
34	0xbd265f6d	-0.04061835
35	0x3cad4764	0.021152206
36	0x3cbd1d9b	0.023085406
37	0x3c021c1b	0.007941271
38	0xbd3f32a5	-0.046679158
39	0xbdebb152	-0.115084305
40	0xbe199064	-0.14996487
41	0x3d9a08e7	0.07521229
42	0xbd83836a	-0.064215496
43	0xbb963348	-0.00458375
44	0x3d8cb5ad	0.068705894
45	0x3bb33423	0.0054688617
46	0xbcd64bf6	-0.026159268
47	0xbe1cd1e5	-0.15314443
48	0xbe042309	-0.1290399
49	0x3da268f2	0.07930173
50	0xbd046157	-0.032319393
51	0x3dc8cb3f	0.09804391
52	0x3c3ad494	0.011403222
53	0x3a624d8f	0.0008632773
54	0xbe3a60f0	-0.18201041
55	0x3ae8b2be	0.0017753465
56	0xbcf44531	-0.02981815
57	0xbdee494b	-0.11635073
58	0xbcb0baa7	-0.021573378
59	0x3d4a3788	0.049369365
60	0xbdd0a611	-0.10187925
61	0x3d8b283c	0.067947835
62	0x3e19abd3	0.15006952
63	0x3d722293	0.059115004
64	0x3e3dc6e8	0.18532908
65	0x3d889976	0.06669895
66	0xbdd84c67	-0.105614476
67	0xbd5b2979	-0.05350635
68	0xbcdec215	-0.027192155
69	0x3da0c61e	0.07850288
70	0x3c9653e9	0.018350558
71	0x3e287c4f	0.1645367
72	0x3c355714	0.011068124
73	0xbdece8a2	-0.11567809
74	0xbd8a2408	-0.06745154
75	0xbdd0a781	-0.10188199
76	0xbbc322bd	-0.005955069
77	0x3dba6ce5	0.09102801
78	0x3c211655	0.0098319845
79	0xbe17deb6	-0.14831051
80	0xbe06de67	-0.13170777
81	0x3dd4790c	0.1037465
82	0xbe2a06b3	-0.16604118
83	0xbdee673a	-0.11640783
84	0xbdf95287	-0.12173944
85	0x3e26ddc9	0.16295542
86	0xbd1da86e	-0.038490705
87	0xbd718e86	-0.05897381
88	0xbde4de2f	-0.11175191
89	0x3deef76d	0.116682865
90	0xbc90c9f5	-0.017674426
91	0x3d502d81	0.050824646
92	0x3d385da8	0.045011193
93	0x3d872183	0.06598189
94	0x3da13f39	0.07873387
95	0x3cff5852	0.031170044
96	0x3bc0f948	0.0058890916
97	0xbbd5a738	-0.006520178
98	0xbe194ba1	-0.14970256
99	0xbd93e771	-0.07221878
100	0x3e412eff	0.18865584
101	0xbdd08432	-0.10181464
102	0xbd4d0673	-0.05005498
103	0xbe31c06e	-0.17358562
104	0x3c626dd6	0.013820132
105	0xbe29fe18	-0.16600835
106	0xbda6fa94	-0.08153263
107	0x3e377d05	0.17918785
108	0x3d9bbd80	0.07604504
109	0x3e081f92	0.13293293
110	0x3ca8a600	0.020586967
111	0xbdf2aa13	-0.11848845
112	0xbd7d3e45	-0.061826963
113	0xbdfa90e6	-0.122346684
114	0xbdcb6ab5	-0.09932462
115	0x3d5e3e89	0.054258857
116	0xbd6929ce	-0.056924634
117	0x3e38cdd1	0.18047263
118	0xbe12e724	-0.14345986
119	0xbe16b6af	-0.14718126
120	0x3e40455e	0.18776461
121	0xbe39acf6	-0.18132386
122	0x3e30f74b	0.17281835
123	0x3ce9d90c	0.028545879
124	0xbe0d00ce	-0.13769838
125	0x3dde3fd6	0.108520195
126	0xbc6efaec	-0.014586192
127	0xbbee8719	-0.0072792885
128	0xbe0b1b50	-0.13584638
129	0xbe38fb24	-0.18064553
130	0x3d5756ad	0.052572895
131	0xbe1ba3d1	-0.1519921
132	0x3d930cd6	0.07180183
133	0xbd3deaf0	-0.046366632
134	0x3db44fbe	0.08804272
135	0xbcc4794f	-0.023983626
136	0x3c782ae2	0.015146943
137	0xbc5e327a	-0.013561839
138	0x3d53f249	0.051744733
139	0xbdb8b534	-0.09018937
140	0xbdde62a5	-0.10858659
141	0x3c1cd350	0.009571865
142	0xbdef2827	-0.1167758
143	0xbdbb5deb	-0.09148773
144	0xbe326fd4	-0.17425472
145	0xbd90fd88	-0.07079607
146	0xbe0bbd8c	-0.13646525
147	0x3e184961	0.14871742
148	0x3dd98feb	0.10623153
149	0x3d00201a	0.031280614
150	0x3e1791bb	0.14801686
151	0x3dd2a1c1	0.10284758
152	0xbe3f8cbe	-0.18706033
153	0xbd22dd77	-0.039761987
154	0xbcc8ec8a	-0.024526853
155	0xbd9ffd5e	-0.07811998
156	0x3d48f45a	0.049061157
157	0xbd487626	-0.0489408
158	0xbdc19a03	-0.094532035
159	0x3c51c472	0.012803184
160	0xbe2b4df5	-0.16728957
161	0x3e0dafc9	0.13836588
162	0x3df81096	0.121125385
163	0x3e2efdcf	0.17089008
164	0xbc3107f2	-0.010805117
165	0x3d2e5b80	0.04256773
166	0xbc1135b7	-0.008862904
167	0xbe3283d5	-0.17433102
168	0x3d753471	0.059864465
169	0xbdd6de1a	-0.10491581
170	0xbd837ad1	-0.0641991
171	0xbdb20c8d	-0.086938
172	0xbe6311fb	-0.22174828
173	0xbc452563	-0.0120328395
174	0x3d849edd	0.06475613
175	0xbbfda7e1	-0.00774096
176	0x3e148b74	0.14506322
177	0x3c7a9ef6	0.015296688
178	0xbd81838d	-0.063239194
179	0xbdaa8b16	-0.0832731
180	0xbe0cb7d2	-0.13741997
181	0xbd845daf	-0.06463181
182	0xbd965417	-0.073402576
183	0xbdcce754	-0.1000506
184	0xbcb2c50c	-0.021822475
185	0xbd5bb57c	-0.053639874
186	0xbdb75578	-0.08951849
187	0x3dc66af9	0.09688372
188	0x3e03bc96	0.12864909
189	0xbdf7319a	-0.120700076
190	0x3dc25033	0.09487953
191	0xbdb6a893	-0.08918872
192	0xbba08a0c	-0.004899269
193	0x3e444ea7	0.19170628
194	0xbb10058c	-0.0021975962
195	0xbe44d0d9	-0.19220294
196	0x3e1cef9f	0.15325783
197	0xbba7014c	-0.00509659
198	0xbddd852c	-0.10816416
199	0xbdda4258	-0.10657185
200	0x3e3463d6	0.1761621
201	0xba8f694e	-0.0010941417
202	0x3dea6ec3	0.11446907
203	0x3df3aa7c	0.11897752
204	0xbdc6a01e	-0.09698509
205	0x3d21c069	0.039490137
206	0xbde4caa0	-0.1117146
207	0x3dfac638	0.122448385
208	0xbdb6483c	-0.08900496
209	0x3dadb94f	0.084826104
210	0x3d7bb7b8	0.061454505
211	0x3dba7671	0.09104622
212	0xbdeb1524	-0.11478642
213	0x3b2860f2	0.002569255
214	0x3d84aa8a	0.0647784
215	0xbcfd477a	-0.030917872
216	0x3d06c287	0.03290036
217	0x3d228892	0.039681025
218	0xbe02360c	-0.1271593
219	0xbd3bb893	-0.04583032
220	0x3dbff7f4	0.09373465
221	0x3d851501	0.06498147
222	0x3e285792	0.16439655
223	0xbc67f9fb	-0.014158721
224	0x3d4de254	0.05026467
225	0xbd737615	-0.059438784
226	0xbc6a1552	-0.01428731
227	0xbdd2c81b	-0.10292073
228	0x3e1aee09	0.15129866
229	0x3c6c0525	0.014405523
230	0x3d9deb21	0.07710863
231	0x3dd79694	0.105267674
232	0xbc6dac92	-0.014506476
233	0x3caa3cec	0.020781003
234	0x3c96b89f	0.018398581
235	0xbe45ae97	-0.19304882
236	0x3c817c3b	0.015806308
237	0xbd8ba128	-0.068178475
238	0xbdf3cb33	-0.119039916
239	0x3e13c19a	0.14429322
240	0xbceafe46	-0.0286857
241	0xbdaa2d6b	-0.08309444
242	0xbe06397e	-0.13107869
243	0xbe350545	-0.17677791
244	0x3d90ee5e	0.07076715
245	0xbdcf0561	-0.10108448
246	0xbdc963f3	-0.09833517
247	0xbde8eb02	-0.11372949
248	0x3e03754d	0.12837715
249	0xbcf8474e	-0.030307438
250	0x3d982221	0.074283846
251	0x3e2afbaa	0.16697565
252	0xbe0df942	-0.13864616
253	0x3e28696b	0.16446464
254	0x3c17119c	0.009220507
255	0x3e0f3f2a	0.13988939

mlps.2.linears.0.bias f4 [32]
0	0xbbf062cd	-0.0073359967
1	0xbe25ae45	-0.1617976
2	0xbdc1ea0e	-0.094684705
3	0xbdbcb9dc	-0.09215137
4	0x3cf36e1e	0.029715594
5	0x3d84d2c5	0.064855136
6	0xbd395f55	-0.04525693
7	0xbd6681aa	-0.056276
8	0x3da310ea	0.079622105
9	0xbe2eaf31	-0.17059018
10	0x3e00c88e	0.12576506
11	0xbc5c842b	-0.013459246
12	0x3df98c2d	0.121849395
13	0x3e2aebef	0.16691564
14	0x3d16d34f	0.036822613
15	0x3d93d837	0.07218974
16	0xbde5eeea	-0.1122721
17	0x3de44f35	0.1114792
18	0x3e08fcd8	0.13377702
19	0xbc52c5f9	-0.012864583
20	0x3dae18aa	0.08500798
21	0xbcdde235	-0.027085403
22	0x3e023fdf	0.12719677
23	0x3d807293	0.06271853
24	0x3e04e970	0.12979674
25	0xbe380003	-0.17968754
26	0x3e2743b9	0.16334428
27	0x3d42f7bd	0.047599543
28	0x3d2b7c1a	0.0418664
29	0x3d342e89	0.043989692
30	0x3dfd6dcd	0.123744585
31	0x3e31c810	0.17361474
