HML/celery_tasks/algorithms/_FeatureEng_utils/pretrained_models/FactorGNN/factor.pth (torch, 62783 bytes, 91 tensors)

layers.0.linear.weight f4 [8, 18]
-0.19376227 0.008904569 0.11421039 -0.02579495 -0.055980943 -0.18456388 0.1775007 0.17129365
0.09111835 -0.10138304 0.10186747 0.006073731 0.15618622 -0.06479192 -0.11169074 0.005769876
0.063083455 -0.16521838 -0.24975689 -0.22310446 0.12436694 -0.011002087 -0.15723263 0.14587496
-0.10790269 -0.046911027 0.01777276 -0.18694451 -0.19304618 -0.0005324456 -0.15202685 0.008408297
0.06728285 -0.0115913935 -0.14135875 -0.092439756 -0.06994635 -0.0004362429 0.16009536 -0.15191986
-0.07459533 -0.11720768 -0.066621244 -0.06700598 -0.15094183 0.24636506 0.15183921 -0.0039037233
-0.12410605 -0.07919851 -0.06641899 0.1947144 -0.011021548 -0.16129047 -0.10371441 0.17461489
-0.12544884 -0.23594788 0.08893894 -0.12732123 -0.13704465 0.08357449 -0.035602596 0.14457078
-0.18304925 -0.09010201 0.14685926 0.16639242 0.17807193 -0.012135181 -0.21045047 -0.11961988
0.18176012 -0.15280044 -0.0005944901 0.029517572 -0.23655502 -0.09592149 -0.1544433 0.22263256
-0.059228085 -0.10812183 0.12194089 -0.13333134 0.0015775228 -0.2116405 -0.07782799 0.18603627
-0.11077646 0.22738759 0.19809236 0.2456579 -0.08575884 -0.13479124 0.22371489 0.08581851
0.123341106 -0.2520752 0.16041726 0.16436228 -0.11513063 0.123770736 -0.14343742 0.24065861
-0.17586556 0.15752676 -0.18348539 -0.061604388 0.16050005 -0.038402412 0.23699807 -0.12342481
-0.04763584 -0.18291883 -0.17610306 0.1931898 0.10768701 0.006729788 0.079447605 -0.039167877
0.006488993 -0.20954007 -0.11718717 0.18012372 -0.161856 -0.14366862 0.12037575 0.01795643
-0.18672605 0.21412466 -0.046655588 -0.030449048 -0.20330569 -0.18958305 -0.21903081 -0.13311812
0.24147543 -0.22842944 0.114558324 0.028847586 0.12185661 -0.1997235 0.19111651 0.18896577
00000000: 9e69 46be 78e4 113c 23e7 e93d ee4f d3bc
00000010: 464c 65bd 50fe 3cbe bec2 353e 9a67 2f3e
00000020: 429c ba3d e9a1 cfbd e49f d03d 2606 c73b
00000030: 48ef 1f3e a0b1 84bd 1dbe e4bd 3a11 bd3b
00000040: e631 813d 022f 29be 45c0 7fbe 7f75 64be
00000050: 18b4 fe3d 1942 34bc 9701 21be 3f60 153e
00000060: 16fc dcbd c725 40bd 2e98 913c 626e 3fbe
00000070: e6ad 45be d293 0bba edac 1bbe f4c2 093c
00000080: 97cb 893d d4e9 3dbc 59c0 10be 0e51 bdbd
00000090: 0840 8fbd 88b7 e4b9 0af0 233e e190 1bbe
000000a0: 70c5 98bd 950a f0bd b870 88bd 6e3a 89bd
000000b0: 7f90 1abe 1f47 7c3e bd7b 1b3e 9cd5 7fbb
000000c0: 502b febd d432 a2bd ae06 88bd 3663 473e
000000d0: b993 34bc 5429 25be 3868 d4bd 3fce 323e
000000e0: a975 00be 529c 71be 9e25 b63d 7f60 02be
000000f0: 6f55 0cbe 1a29 ab3d 07d4 11bd 5d0a 143e
00000100: 4371 3bbe 6787 b8bd 4662 163e c662 2a3e
00000110: 7d58 363e a3d2 46bc 5480 57be 45fb f4bd
00000120: 531f 3a3e b877 1cbe 8ed7 1bba d6ce f13c
00000130: 7b3b 72be 7c72 c4bd 6226 1ebe caf9 633e
00000140: 2699 72bd fa6e ddbd 25bc f93d 0388 08be
00000150: e2c4 ce3a 4ab8 58be 4864 9fbd 4b80 3e3e
00000160: c5de e2bd 4bd8 683e b9d8 4a3e bf8d 7b3e
00000170: 55a2 afbd b706 0abe 8415 653e 9dc1 af3d
00000180: 439a fc3d 0010 81be 6c44 243e 964e 283e
00000190: 9cc9 ebbd 837b fd3d 42e1 12be 366f 763e
000001a0: 1a16 34be b24e 213e 98e3 3bbe e254 7cbd
000001b0: 205a 243e d94b 1dbd 9faf 723e 26c6 fcbd
000001c0: cc1d 43bd 134f 3bbe 5c54 34be 8cd3 453e
000001d0: 028b dc3d 8e85 dc3b 6db5 a23d 7f6e 20bd
000001e0: 9ea1 d43b ac91 56be d4ff efbd 5a72 383e
000001f0: 94bd 25be de1d 13be 9087 f63d 5d19 933c
00000200: 1d35 3fbe 7f43 5b3e ee19 3fbd 4870 f9bc
00000210: 5e2f 50be 0f22 42be 9d49 60be 1e50 08be
00000220: 5645 773e 68e9 69be 8e9d ea3d c651 ec3c
00000230: f58f f93d 5184 4cbe 0cb4 433e 3e80 413e

layers.0.linear.bias f4 [8]
-0.119699456 -0.115048796 0.095887296 -0.18397568 0.007913108 -0.21381187 -0.17810117 0.16170236
00000000: fd24 f5bd b49e ebbd 8f60 c43d 1f64 3cbe
00000010: fba5 013c 80f1 5abe 2760 36be 4e95 253e

layers.0.att_ls.0.weight f4 [1, 8]
0.054932643 0.051441148 0.2608376 0.14363824 0.26670206 0.0064584278 -0.26539466 0.2048954
00000000: 0d01 613d f4b3 523d 828c 853e e715 133e
00000010: 2c8d 883e 38a1 d33b cfe1 87be 1ad0 513e

layers.0.att_ls.1.weight f4 [1, 8]
0.36245698 0.3506647 -0.0051128925 0.14890024 -0.14669728 0.2013541 -0.23399219 0.15781981
00000000: f693 b93e 538a b33e 0d8a a7bb 4e79 183e
00000010: d037 16be c52f 4e3e a69b 6fbe 849b 213e

layers.0.att_ls.2.weight f4 [1, 8]
-0.28800976 -0.03519913 -0.19238333 0.2320142 -0.014544314 0.05023179 -0.27791303 0.16118462
00000000: 0476 93be f72c 10bd 2300 45be 2195 6d3e
00000010: 464b 6ebc d9bf 4d3d 9e4a 8ebe 950d 253e

layers.0.att_ls.3.weight f4 [1, 8]
0.09192283 -0.31122068 0.02055731 -0.12104661 -0.171393 -0.010907475 0.10047048 -0.2160064
00000000: 0942 bc3d 5158 9fbe ce67 a83c 49e7 f7bd
00000010: a681 2fbe 44b5 32bc 78c3 cd3d c830 5dbe

layers.0.att_rs.0.weight f4 [1, 8]
0.157583 0.013895835 -0.05322349 0.24387455 0.26927716 0.059466794 -0.10649461 0.22159667
00000000: 705d 213e 5bab 633c e000 5abd 40ba 793e
00000010: b2de 893e 7493 733d d919 dabd 3dea 623e

layers.0.att_rs.1.weight f4 [1, 8]
0.05181164 0.31587896 -0.28446057 0.10186171 -0.17599285 0.058651187 0.24568664 0.19671515
00000000: 7138 543d e3ba a13e d1a4 91be df9c d03d
00000010: 7837 34be 3a3c 703d 4795 7b3e b26f 493e

layers.0.att_rs.2.weight f4 [1, 8]
-0.13561854 -0.013719425 0.024558578 -0.032369807 -0.32018948 0.11885367 0.19439955 0.22646017
00000000: 96df 0abe 70c7 60bc 122f c93c 3496 04bd
00000010: e0ef a3be 8e69 f33d ad10 473e 2de5 673e

layers.0.att_rs.3.weight f4 [1, 8]
-0.16908634 0.21666333 -0.10356667 0.3335299 0.13968769 0.13942221 -0.14718777 0.20531334
00000000: f824 2dbe fedc 5d3e c31a d4bd 6ec4 aa3e
00000010: 4a0a 0f3e b2c4 0e3e 64b8 16be a93d 523e

layers.0.graph_to_feat.linear1.weight f4 [4, 8]
-0.07905651 -0.007525449 -0.1839218 0.18502499 -0.12356573 -0.16056146 0.102125175 0.18741204
-0.09520687 0.16996865 -0.295994 0.28897205 -0.19598155 0.08056485 0.045613326 -0.22204085
0.3706136 0.33471733 0.030834755 0.29475224 -0.3125576 -0.19487746 -0.18834977 0.2747483
-0.09731508 -0.067949854 -0.13291012 -0.11634052 -0.16032274 -0.30470073 -0.13230167 -0.090649955
00000000: 61e8 a1bd 0b98 f6bb ff55 3cbe 3177 3d3e
00000010: 0810 fdbd 396a 24be 0127 d13d f1e8 3f3e
00000020: d2fb c2bd 430c 2e3e 878c 97be 25f4 933e
00000030: 63af 48be 2fff a43d 0ad5 3a3d ad5e 63be
00000040: 11c1 bd3e 1260 ab3e 2b99 fc3c c4e9 963e
00000050: 8d07 a0be f58d 47be c3de 40be cfab 8c3e
00000060: 214d c7bd 4b29 8bbd 9719 08be f043 eebd
00000070: a52b 24be bc01 9cbe 177a 07be afa6 b9bd

layers.0.graph_to_feat.linear1.bias f4 [4]
-0.26315463 0.09664658 -0.3189433 0.18726286
00000000: 34bc 86be a4ee c53d 894c a3be d6c1 3f3e

layers.0.graph_to_feat.linear2.weight f4 [8, 4]
-0.42831886 0.14405262 0.24853721 -0.106493704 0.0026064955 -0.28390497 0.42316836 -0.2500823
-0.033094373 -0.31631944 -0.16628736 -0.10516842 -0.4720525 0.23617499 -0.018633977 -0.49090508
0.30608195 0.1553708 0.4863063 -0.41123146 0.15945894 -0.1325207 0.27130398 0.1394231
0.46341115 0.44102132 0.11716996 0.10908692 0.045030788 0.19855724 -0.44595858 -0.00089878286
00000000: 9c4c dbbe 8882 133e 8a80 7e3e 5f19 dabd
00000010: bdd1 2a3b fe5b 91be 86a9 d83e ca0a 80be
00000020: f78d 07bd 9ff4 a1be 3c47 2abe 8a62 d7bd
00000030: deb0 f1be dbd7 713e 48a6 98bc e957 fbbe
00000040: c6b6 9c3e 8619 1f3e 24fd f83e ee8c d2be
00000050: 3449 233e 82b3 07be 5be8 8a3e eec4 0e3e
00000060: 3a44 ed3e 8ccd e13e cef6 ef3d f768 df3d
00000070: 3472 383d 9752 4b3e af54 e4be 4c9c 6bba

layers.0.graph_to_feat.linear2.bias f4 [8]
0.24214914 0.13255322 0.29843706 -0.32615244 0.09586513 -0.2186843 -0.17445692 0.24738036
00000000: f2f5 773e 08bc 073e becc 983e 74fd a6be
00000010: f054 c43d c7ee 5fbe d6a4 32be 4751 7d3e

layers.0.classifier.weight f4 [4, 8]
-0.13182798 0.035771284 -0.22345205 0.045757186 0.34674406 -0.029189013 0.34409156 -0.3423633
0.20707041 0.17130178 0.106496416 -0.04295034 -0.13762553 -0.07050034 0.24635771 -0.3610507
-0.22078456 -0.08322822 -0.08392699 -0.1543564 0.2936995 -0.28296855 0.23325308 -0.015592599
-0.18945332 0.05064061 -0.17589456 -0.15282156 0.11444467 -0.031717777 0.24791908 -0.22332211
00000000: eafd 06be e984 123d 9dd0 64be e36b 3b3d
00000010: 7088 b13e cc1d efbc c52c b03e 3e4a afbe
00000020: 440a 543e bc69 2f3e cb1a da3d b2ec 2fbd
00000030: b5ed 0cbe 7b62 90bd 3245 7c3e a3db b8be
00000040: 5915 62be 8f73 aabd eae1 abbd 9b0f 1ebe
00000050: c85f 963e 41e1 90be e5d9 6e3e 1a78 7fbc
00000060: 0d00 42be 876c 4f3d b41d 34be 417d 1cbe
00000070: f861 ea3d 80ea 01bd 80de 7d3e 8dae 64be

layers.0.classifier.bias f4 [4]
-0.06438969 -0.2186627 -0.09171746 -0.31067494
00000000: bede 83bd 1de9 5fbe 5dd6 bbbd c910 9fbe

layers.1.linear.weight f4 [8, 32]
-0.09475317 0.18264584 -0.07401441 -0.08035121 -0.008880656 0.14400472 -0.040883385 0.13636862
-0.14285523 -0.11777261 -0.0239311 -0.1357599 -0.10821703 0.1531283 -0.09327931 -0.119453125
0.17088947 -0.15359464 0.16341855 0.03773519 -0.15309934 0.108349234 -0.0005122967 -0.11839972
0.041098803 -0.14515017 -0.07545299 0.1358407 -0.14685793 0.15935068 0.016788797 -0.013549336
-0.1384342 -0.18693401 0.053483106 0.11710783 0.17879292 0.09831648 0.15970872 -0.0966505
0.15776934 0.04266481 0.12475076 0.11724417 -0.15298119 0.08526278 0.08352154 -0.09420702
-0.17761609 -0.08122465 -0.11175922 0.03620683 -0.014225728 0.11189272 0.05010847 -0.0821646
-0.053014956 -0.041088227 -0.05298441 0.052791912 -0.006635249 -0.024981309 0.10609547 -0.048193
-0.12400171 -0.067187816 -0.14807016 0.12626189 0.0110279685 0.15480083 -0.13263229 -0.15488496
-0.1157339 -0.009487892 0.1608827 -0.09053471 -0.111794606 0.117321454 -0.09060921 0.09593395
0.12648274 0.049500402 -0.03467657 -0.0082269 -0.113076635 -0.03723484 0.09465349 -0.07079501
0.14515401 -0.13746578 -0.03561527 0.0424038 -0.07664544 -0.0027845635 -0.020653889 -0.044006303
-0.15455611 -0.14955215 -0.10730699 0.15773968 0.13652323 0.04740308 -0.03131438 -0.08297547
-0.17592847 -0.16090745 -0.04552042 0.10622418 0.009231421 -0.013473463 -0.16013002 0.055931114
0.07715453 0.008226851 0.043124974 -0.07054157 0.12231778 0.15830766 -0.005685581 -0.0053322157
0.12452884 -0.03827868 -0.04349057 0.038735554 -0.030356936 -0.041371703 -0.16216382 -0.14651316
0.08710122 -0.038152687 -0.031747527 0.0069801435 0.14767268 0.015846258 0.05582273 0.15510139
-0.14382775 -0.005966344 0.074321516 0.09728055 -0.07210505 -0.09059996 0.024267279 -0.14542656
0.13901412 -0.068384066 -0.05108335 -0.09268635 -0.05251986 -0.14676833 0.0044586174 0.044214863
-0.018286336 -0.10143642 -0.17342682 0.09835697 0.09571952 -0.0879329 0.057294384 0.016237801
-0.068729065 -0.14807141 -0.10338684 -0.103975154 -0.12719564 -0.14777507 -0.10213932 -0.0931998
-0.08043169 -0.13527489 -0.046390723 -0.116611406 -0.011161779 0.1444454 -0.16860387 -0.028264895
-0.043613326 0.05389564 0.1528802 -0.10627584 0.05708213 0.0073800953 -0.06537651 -0.026823666
-0.05536307 -0.00492113 -0.11036704 0.11350532 -0.068864875 0.07541762 -0.11893723 0.114636
-0.15897666 0.1445905 0.036783945 0.17519087 0.16962925 0.13618717 0.08171807 0.09382007
-0.069628805 0.12047887 0.1544596 0.05007991 0.122425504 -0.09928036 0.022850983 0.04688058
-0.06893532 0.07523128 0.11781222 -0.16169472 0.17016298 0.1192054 0.06718438 -0.09041826
0.09684054 -0.17175381 -0.16444315 0.18568198 0.1724785 -0.088069625 -0.023161208 -0.15892239
-0.13377783 0.10439955 -0.06521909 -0.099864446 -0.03351264 -0.11090943 0.14332417 0.1072153
-0.06509799 -0.016930351 0.0036151172 -0.1678947 0.079787605 -0.1012926 -0.06255342 -0.05356061
0.16515581 0.15010919 -0.16492064 -0.012851632 0.016238773 -0.06470119 0.011978578 0.15875773
-0.035385452 -0.13331015 -0.13390641 0.14005363 0.07255768 -0.002977222 -0.11691468 -0.12991698
00000000: f30d c2bd 8307 3b3e de94 97bd 2d8f a4bd
00000010: 2c80 11bc f975 133e 5675 27bd 37a4 0b3e
00000020: a448 12be c432 f1bd 270b c4bc a504 0bbe
00000030: e4a0 ddbd aacd 1c3e 3909 bfbd d7a3 f4bd
00000040: a6fd 2e3e ea47 1dbe 3157 273e 3790 1a3d
00000050: 13c6 1cbe 34e6 dd3d a64b 06ba 8d7b f2bd
00000060: 3857 283d 3fa2 14be 1987 9abd d319 0b3e
00000070: ed61 16be d32c 233e a988 893c 09fe 5dbc
00000080: b2c1 0dbe a16b 3fbe 1a11 5b3d 3bd6 ef3d
00000090: 7e15 373e 275a c93d af8a 233e b3f0 c5bd
000000a0: 498e 213e 4cc1 2e3d 547d ff3d b61d f03d
000000b0: 1aa7 1cbe 419e ae3d 570d ab3d 9cef c0bd
000000c0: fee0 35be 1c59 a6bd 05e2 e4bd 9d4d 143d
000000d0: 0713 69bc 0328 e53d 8a3e 4d3d ea45 a8bd
000000e0: 3626 59bd 214c 28bd 2e06 59bd 553c 583d
000000f0: 816c d9bb 9aa5 ccbc 9548 d93d 0666 45bd
00000100: 9cf4 fdbd c499 89bd b49f 17be cc4a 013e
00000110: a7ae 343c 1c84 1e3e c2d0 07be 2a9a 1ebe
00000120: e505 edbd 1a73 1bbc 6fbe 243e 436a b9bd
00000130: 92f4 e4bd 3b46 f03d 5291 b9bd 0579 c43d
00000140: b184 013e efc0 4a3d 0509 0ebd 1fca 06bc
00000150: b994 e7bd 8f83 18bd b0d9 c13d f9fc 90bd
00000160: 41a3 143e d4c3 0cbe 51e1 11bd 9baf 2d3d
00000170: 49f8 9cbd 397d 36bb 5832 a9bc f43f 34bd
00000180: f543 1ebe 3324 19be c4c3 dbbd 8386 213e
00000190: bfcc 0b3e bb29 423d 8243 00bd 0bef a9bd
000001a0: 9826 34be ecc4 24be 9f73 3abd 108c d93d
000001b0: 633f 173c cdbf 5cbc 20f9 23be 0618 653d
000001c0: 3203 9e3d eac9 063c d0a3 303d 1978 90bd
000001d0: bf81 fa3d 671b 223e 1c4e babb deb9 aebb
000001e0: fa08 ff3d 1bca 1cbd 2b23 32bd 2ca9 1e3d
000001f0: 1caf f8bc 6075 29bd 460e 26be 8c07 16be
00000200: 2062 b23d fe45 1cbd b209 02bd b0b9 e43b
00000210: 8237 173e 03d0 813c 60a6 643d e6d2 1e3e
00000220: 9547 13be 5281 c3bb e135 983d 063b c73d
00000230: d0ab 93bd 798c b9bd 2ccc c63c b3ea 14be
00000240: b859 0e3e f20c 8cbd c63c 51bd 57d2 bdbd
00000250: 111f 57bd 704a 16be 9819 923b a51a 353d
00000260: 3acd 95bc e6bd cfbd cd96 31be 616f c93d
00000270: 9808 c43d 2a16 b4bd 84ad 6a3d 2305 853c
00000280: d3c1 8cbd 08a0 17be 7bbc d3bd edf0 d4bd
00000290: 933f 02be 5952 17be 6b2e d1bd 89df bebd
000002a0: 5fb9 a4bd 8085 0abe 3304 3ebd f6d1 eebd
000002b0: e5df 36bc 7fe9 133e 7ea6 2cbe c88b e7bc
000002c0: e3a3 32bd adc1 5c3d a18c 1c3e 26a7 d9bd
000002d0: f4ce 693d bad4 f13b 1fe4 85bd 4ebd dbbc
000002e0: 63c4 62bd 6e41 a1bb 1d08 e2bd 7a75 e83d
000002f0: 0709 8dbd 8e74 9a3d 5d95 f3bd 47c6 ea3d
00000300: c7ca 22be 880f 143e c3aa 163d 3c65 333e
00000310: 4ab3 2d3e a674 0b3e ce5b a73d bd24 c03d
00000320: 8c99 8ebd a0bd f63d a82a 1e3e 9720 4d3d
00000330: 39ba fa3d 8053 cbbd fc31 bb3c da05 403d
00000340: f62d 8dbd db12 9a3d 8847 f13d 4d93 25be
00000350: 343f 2e3e f621 f43d f797 893d 352d b9bd
00000360: 5554 c63d 3be0 2fbe c963 28be 6b23 3e3e
00000370: 349e 303e d95d b4bd 93bc bdbc 8dbc 22be
00000380: 0efd 08be 6ecf d53d 9691 85bd bb85 ccbd
00000390: 8d44 09bd 7c24 e3bd 92c3 123e b293 db3d
000003a0: 1852 85bd 85b1 8abc 9aeb 6c3b 97ec 2bbe
000003b0: af67 a33d 7f72 cfbd 021c 80bd 5f62 5bbd
000003c0: 9b1e 293e 39b6 193e f5e0 28be a78f 52bc
000003d0: 2d07 853c 0f82 84bd cc41 443c 6391 223e
000003e0: 56f0 10bd 7582 08be c31e 09be 386a 0f3e
000003f0: 1f99 943d 7f1d 43bb f770 efbd f508 05be

layers.1.linear.bias f4 [8]
0.018886462 0.01141782 -0.035768468 0.16880867 0.017167905 -0.0006154787 0.031229405 0.08253148
00000000: c8b7 9a3c cf11 3b3c f581 12bd 2edc 2c3e
00000010: b5a3 8c3c 1458 21ba cfd4 ff3c 4406 a93d

layers.1.att_ls.0.weight f4 [1, 8]
0.07400584 -0.019878807 0.3467559 0.12805493 0.10312322 -0.32524377 -0.18779862 0.005324931
00000000: 6090 973d e1d8 a2bc fd89 b13e d520 033e
00000010: 4432 d33d 5a86 a6be 484e 40be c27c ae3b

layers.1.att_ls.1.weight f4 [1, 8]
0.006305779 -0.09655301 -0.10349961 0.3481844 0.18986307 0.028865805 0.16297345 -0.16103397
00000000: b5a0 ce3b 96bd c5bd 9bf7 d3bd 3a45 b23e
00000010: 776b 423e fb77 ec3c 83e2 263e 17e6 24be

layers.1.att_ls.2.weight f4 [1, 8]
0.027341507 -0.24972446 -0.0019690385 0.10411043 -0.2641512 0.21109685 0.009602939 -0.15050559
00000000: 4cfb df3c c5b7 7fbe fc0a 01bb d937 d53d
00000010: d33e 87be c629 583e a555 1d3c 231e 1abe

layers.1.att_ls.3.weight f4 [1, 8]
0.23612368 0.0860685 -0.119865954 -0.33139673 0.22671168 0.31158635 0.17154673 0.3622941
00000000: 68ca 713e af44 b03d 487c f5bd d5ac a9be
00000010: 1b27 683e 3f88 9f3e f2a9 2f3e 9d7e b93e

layers.1.att_rs.0.weight f4 [1, 8]
-0.32044253 -0.269387 0.104487084 -0.15140504 -0.02222802 0.1833612 0.15932468 0.003007768
00000000: 0b11 a4be 18ed 89be 53fd d53d ec09 1bbe
00000010: 8917 b6bc 0ac3 3b3e 0226 233e f91d 453b

layers.1.att_rs.1.weight f4 [1, 8]
0.047526218 -0.23817658 0.12768301 -0.36044443 -0.33876938 0.18058252 0.3618061 -0.24878807
00000000: daaa 423d 90e4 73be 56bf 023e 2c8c b8be
00000010: 2e73 adbe a0ea 383e a63e b93e 4dc2 7ebe

layers.1.att_rs.2.weight f4 [1, 8]
0.3320132 -0.23158363 0.088836245 -0.1874794 -0.29072794 0.23037404 -0.21538262 -0.03287979
00000000: a2fd a93e 4224 6dbe c7ef b53d 9afa 3fbe
00000010: 4bda 94be 2ce7 6b3e 438d 5cbe f5ac 06bd

layers.1.att_rs.3.weight f4 [1, 8]
0.08803441 -0.16622323 -0.17261203 0.28376395 -0.19155626 0.26050842 -0.15179677 -0.27883157
00000000: 624b b43d 6c36 2abe 35c1 30be 8249 913e
00000010: 5327 44be 5c61 853e 9d70 1bbe 03c3 8ebe

layers.1.graph_to_feat.linear1.weight f4 [4, 8]
0.30106267 0.042020418 0.11116929 -0.2396448 0.15161622 -0.13353193 -0.34412453 -0.16518621
-0.26998195 0.13436827 0.09055828 0.24355167 0.10192641 0.2867258 -0.28257707 0.32152644
-0.25299567 -0.23179933 0.23925073 -0.0766491 0.351555 -0.18816936 0.13012144 0.08786563
0.21058108 -0.108136564 -0.28853166 0.02225661 -0.3444581 0.20607807 0.08904995 -0.22373798
00000000: e324 9a3e 9a1d 2c3d baac e33d 7265 75be
00000010: 4841 1b3e 98bc 08be 1731 b0be 9326 29be
00000020: 133b 8abe d697 093e 9f76 b93d 9c65 793e
00000030: cbbe d03d b9cd 923e f1ad 90be 1d9f a43e
00000040: a688 81be ce5c 6dbe 25fe 743e 34fa 9cbd
00000050: 04ff b33e 78af 40be 8e3e 053e e5f2 b33d
00000060: 91a2 573e b476 ddbd 6cba 93be 7f53 b63c
00000070: d05c b0be 2106 533e d25f b63d 921b 65be

layers.1.graph_to_feat.linear1.bias f4 [4]
0.037610468 -0.18728006 -0.35832486 -0.2004614
00000000: 6f0d 1a3d 58c6 3fbe 5b76 b7be c145 4dbe

layers.1.graph_to_feat.linear2.weight f4 [8, 4]
-0.46791464 -0.18183202 -0.26293218 0.09303103 -0.064572155 -0.50082153 0.07700423 0.2973551
-0.38266897 0.48509955 0.38481542 -0.011586578 0.34002873 0.057150573 0.37818182 0.46199858
0.24983326 -0.38305733 -0.42398587 -0.31092715 0.3879254 -0.38906544 -0.13501357 0.023070976
0.37560588 -0.19806986 0.10755698 -0.23014526 0.18771783 0.1633158 0.46650067 -0.24873784
00000000: 8292 efbe 2c32 3abe 0c9f 86be 0d87 be3d
00000010: 683e 84bd d735 00bf 65b4 9d3d ed3e 983e
00000020: 30ed c3be f85e f83e 8706 c53e a1d5 3dbc
00000030: 3f18 ae3e b816 6a3d 0ca1 c13e 148b ec3e
00000040: 4ad4 7f3e 1720 c4be ad14 d9be d831 9fbe
00000050: 289e c63e 9633 c7be ff40 0abe 58ff bc3c
00000060: 6a4f c03e d3d2 4abe d546 dc3d 33ab 6bbe
00000070: 1a39 403e 423c 273e 2dd9 ee3e 22b5 7ebe

layers.1.graph_to_feat.linear2.bias f4 [8]
-0.4471657 -0.4365206 0.38174042 -0.17584799 0.3161064 0.110866345 0.23093303 0.023833351
00000000: e7f2 e4be a17f dfbe 7b73 c33e 7f11 34be
00000010: b3d8 a13e e50d e33d b579 6c3e 293e c33c

layers.1.classifier.weight f4 [4, 8]
0.31500167 -0.33654302 0.1685153 -0.22756332 0.07163668 -0.13727276 0.036663704 -0.038062606
0.25426653 0.24894623 -0.10729849 0.11963591 -0.3050344 -0.28875852 0.28242055 0.09745827
-0.05005226 0.048248 0.07847807 0.12607582 0.2953156 -0.012462726 0.36256155 -0.23513846
-0.29633737 -0.21443628 0.054542262 -0.3125842 -0.17395188 0.08473006 0.32582104 0.16694778
00000000: e647 a13e 5e4f acbe 468f 2c3e 5c06 69be
00000010: 40b6 923d 3b91 0cbe ae2c 163d 89e7 1bbd
00000020: 392f 823e c3eb 7e3e 50bf dbbd ac03 f53d
00000030: 782d 9cbe 28d8 93be 6d99 903e 3498 c73d
00000040: 9903 4dbd b29f 453d 1cb9 a03d 051a 013e
00000050: 9b33 973e 7630 4cbc aba1 b93e 23c8 70be
00000060: 88b9 97be 2f95 5bbe b567 5f3d 090b a0be
00000070: 7120 32be f486 ad3d 04d2 a63e 5cf4 2a3e

layers.1.classifier.bias f4 [4]
-0.0029001473 -0.1486081 -0.019908821 0.24400969
00000000: 6610 3ebb b92c 18be d317 a3bc addd 793e

layers.2.linear.weight f4 [16, 32]
-0.080452845 -0.16164094 -0.114091344 -0.11422664 0.00922128 0.0046520103 -0.121582896 -0.13687406
-0.14397982 0.13512424 -0.10034593 0.11238544 -0.16619174 -0.10307361 -0.13771363 -0.05763225
0.15236834 -0.034731302 -0.016371973 0.036392394 -0.05294749 0.13079369 -0.1329828 0.037978787
-0.0018653772 0.012618775 -0.04973024 0.08418351 -0.05226575 -0.032615796 0.07166876 -0.099792935
-0.15740332 0.008892827 0.003673278 -0.13972774 0.10347309 0.07021184 -0.078583166 0.15419117
0.10159516 0.17427044 0.0026704303 0.06430503 0.06921525 0.06598636 -0.030926581 0.15144295
0.16924837 0.17477025 -0.05413315 -0.040820222 -0.027452206 0.013642056 -0.03596686 -0.13929416
-0.075994454 0.12253755 0.0024837216 0.09143299 -0.12388972 -0.11092754 -0.027318593 0.18479335
0.09028993 0.19176824 -0.002040329 0.120496005 -0.120296076 -0.02510866 0.100083426 0.07919037
-0.035925522 0.014547669 -0.12369572 0.10390287 -0.15748365 0.07900375 0.078894325 0.059303697
-0.15669887 -0.10255904 -0.0960987 -0.12575111 0.12682079 -0.14031026 -0.11490974 -0.13219613
-0.093420714 0.15113929 -0.07394882 0.05702479 0.08690723 -0.13363789 0.032980092 -0.09592267
-0.016926356 0.034011133 0.13829643 0.06064021 0.1224158 0.07784647 0.14019401 0.116769314
-0.109102115 0.13804153 0.021912936 0.13061331 0.1532291 -0.13701172 0.12867995 0.049694985
0.121425204 -0.12826495 -0.06372825 0.11905642 -0.10437324 0.030651342 -0.1244439 -0.012384689
-0.02020841 0.009684814 0.12595432 -0.038786918 0.09622886 0.086094804 0.18140621 0.18150473
0.15022954 -0.08705558 0.044850446 0.161771 -0.010238595 0.026204098 0.12248936 -0.17349693
-0.14666224 0.02640331 0.09368571 0.16525815 0.061758988 0.17304929 -0.11651516 0.03052038
0.123027354 -0.096178144 -0.032225527 -0.05212634 0.109043315 -0.020867137 -0.014512471 0.0776245
0.051769495 -0.15517147 0.113062695 -0.13365456 0.014175944 -0.031859834 -0.16266297 0.051605698
-0.18140747 -0.18208952 -0.10414623 0.07733857 0.0100708185 0.08406207 0.13308841 0.010452495
0.13739327 -0.09856983 0.058211636 0.10232572 0.014086285 0.05307417 0.023382198 0.16555189
-0.10638688 -0.038629346 -0.043556392 -0.043692667 -0.15793616 0.032903347 -0.15600105 0.09547675
-0.05359349 0.112706214 0.03480681 0.089899674 0.0892757 -0.17780952 0.1126753 0.13902248
-0.16688995 -0.024453575 -0.056977242 -0.056447297 -0.11208544 0.042175137 0.111849114 0.051508684
-0.009536969 -0.046827476 0.057315007 -0.006773115 -0.18743432 -0.09048962 0.057221957 -0.1184165
-0.15762278 -0.19149505 0.075470746 0.14934154 -0.14854114 0.13079359 -0.12854445 -0.113526575
0.061866418 -0.072337665 -0.093079455 -0.02976879 -0.104438536 -0.040287454 -0.12894046 -0.087590605
0.087808646 0.13167743 0.0573156 -0.018906599 0.16186598 0.038097344 0.07724211 -0.13792163
0.17135239 -0.14170912 0.09005382 -0.13276318 0.1579185 0.081828035 -0.1370214 -0.015487954
0.026980875 -0.14631367 -0.10307127 -0.15712142 0.14844917 0.16408764 0.087201364 -0.030741567
0.13661936 0.15603188 -0.061513685 0.114939444 -0.13367029 0.1786697 0.1378377 -0.0061266664
00000000: 76c4 a4bd 3485 25be b9a8 e9bd a8ef e9bd
00000010: da14 173c e46f 983b 7400 f9bd b728 0cbe
00000020: 726f 13be 025e 0a3e 2b82 cdbd 562a e63d
00000030: 2b2e 2abe 4218 d3bd cd04 0dbe cb0f 6cbd
00000040: 7206 1c3e 6942 0ebd 841e 86bc 3110 153d
00000050: 78df 58bd c8ee 053e a52c 08be a58f 1b3d
00000060: ac7f f4ba fabe 4e3c f0b1 4bbd 6768 ac3d
00000070: 9c14 56bd 2498 05bd 12c7 923d 3d60 ccbd
00000080: 562e 21be 38b3 113c 61bb 703b ca14 0fbe
00000090: b3e9 d33d 3acb 8f3d 36f0 a0bd 4ae4 1d3e
000000a0: 2011 d03d f373 323e 6302 2f3b 5bb2 833d
000000b0: bac0 8d3d db23 873d be59 fdbc dc13 1b3e
000000c0: 724f 2d3e f9f6 323e b9ba 5dbd 1b33 27bd
000000d0: 73e3 e0bc ee82 5f3c fc51 13bd 21a3 0ebe
000000e0: fba2 9bbd f8f4 fa3d efc5 223b 3841 bb3d
000000f0: e5b9 fdbd fa2d e3bd 3ecb dfbc 783a 3d3e
00000100: ede9 b83d e55e 443e 0ab7 05bb 9cc6 f63d
00000110: ca5d f6bd adb0 cdbc 8af8 cc3d 902e a23d
00000120: a426 13bd 5959 6e3c 2f54 fdbd 07cb d43d
00000130: 6543 21be b8cc a13d 5993 a13d 6fe8 723d
00000140: ab75 20be 790a d2bd 65cf c4bd e6c4 00be
00000150: 4fdd 013e 7ead 0fbe cc55 ebbd 6c5e 07be
00000160: 5c53 bfbd 42c4 1a3e 7b72 97bd d492 693d
00000170: 6bfc b13d 5fd8 08be 2216 073d 1b73 c4bd
00000180: 24a9 8abc 424f 0b3d 949d 0d3e de61 783d
00000190: 23b5 fa3d f86d 9f3d 058f 0f3e c024 ef3d
000001a0: ee70 dfbd c25a 0d3e c282 b33c 7fbf 053e
000001b0: 17e8 1c3e cd4c 0cbe adc4 033e f88c 4b3d
000001c0: c7ad f83d e357 03be f583 82bd dad3 f33d
000001d0: a3c1 d5bd 8618 fb3c 72dc febd 27e9 4abc
000001e0: 1c8c a5bc 0ead 1e3c 2bfa 003e 08df 1ebd
000001f0: a313 c53d 7952 b03d 8dc2 393e 60dc 393e
00000200: c6d5 193e 324a b2bd 1ab5 373d 4ca7 253e
00000210: c8bf 27bc faa9 d63c b4db fa3d 2ea9 31be
00000220: a02e 16be c14b d83c 4bde bf3d 6f39 293e
00000230: fef6 7c3d d533 313e 809f eebd e005 fa3c
00000240: c4f5 fb3d 0cf9 c4bd eafe 03bd 6e82 55bd
00000250: 1a52 df3d 8ff1 aabc b7c5 6dbc 98f9 9e3d
00000260: 400c 543d 45e5 1ebe 6a8d e73d bedc 08be
00000270: 3842 683c 757f 02bd 1f91 26be 7f60 533d
00000280: e1c2 39be ad75 3abe 9e4a d5bd af63 9e3d
00000290: 1300 253c bc28 ac3d 5448 083e f140 2b3c
000002a0: d2b0 0c3e fbde c9bd 536f 6e3d 2690 d13d
000002b0: 29ca 663c 4d64 593d 068c bf3c 6f86 293e
000002c0: 5de1 d9bd ce39 1ebd 3068 32bd 15f7 32bd
000002d0: 04ba 21be a9c5 063d bdbe 1fbe 5089 c33d
000002e0: d984 5bbd 84d2 e63d 9691 0e3d 521d b83d
000002f0: 2ed6 b63d b313 36be 4fc2 e63d e95b 0e3e
00000300: 33e5 2abe dd52 c8bc f860 69bd 4835 67bd
00000310: 0d8d e5bd d6bf 2c3d 2611 e53d c5fa 523d
00000320: f240 1cbc 2bce 3fbd 24c3 6a3d 02f1 ddbb
00000330: c8ee 3fbe 9f52 b9bd 9261 6a3d 5a84 f2bd
00000340: de67 21be 4717 44be 6890 9a3d fdec 183e
00000350: 2b1b 18be c1ee 053e 28a1 03be 9f80 e8bd
00000360: a467 7d3d c525 94bd 71a0 bebd addd f3bc
00000370: dfe3 d5bd 7504 25bd f808 04be b462 b3bd
00000380: 05d5 b33d 73d6 063e c3c3 6a3d 03e2 9abc
00000390: 32c0 253e f60b 1c3d 1d31 9e3d 543b 0dbe
000003a0: 0077 2f3e 321c 11be 236e b83d 12f3 07be
000003b0: 63b5 213e 7595 a73d 564f 0cbe 30c1 7dbc
000003c0: ff06 dd3c 40d3 15be 0817 d3bd 70e4 20be
000003d0: 0f03 183e 9706 283e a196 b23d bdd5 fbbc
000003e0: f2e5 0b3e d2c6 1f3e c6f5 7bbd 5f65 eb3d
000003f0: dde0 08be 31f5 363e 5325 0d3e 34c2 c8bb

layers.2.linear.bias f4 [16]
0.10472747 0.13918059 0.15189525 0.020199146 0.029222762 0.07000761 0.046935555 0.028151514
0.1073572 0.042188365 0.09319275 0.17317015 -0.09217567 -0.05017671 -0.021636043 0.0805875
00000000: 5b7b d63d 5b85 0e3e 6e8a 1b3e ae78 a53c
00000010: 9364 ef3c 2660 8f3d 7f3f 403d 019e e63c
00000020: 17de db3d b5cd 2c3d d7db be3d 8453 313e
00000030: 99c6 bcbd 1886 4dbd 123e b1bc 0f0b a53d

layers.2.att_ls.0.weight f4 [1, 16]
0.18548122 -0.11249212 -0.11236734 -0.18093257 0.12490971 0.18114357 0.18457384 0.12936847
-0.13194492 0.08048505 -0.20602983 0.14337106 -0.16816978 0.12901852 0.15281716 0.14573874
00000000: caee 3d3e 4562 e6bd d920 e6bd 6346 39be
00000010: a9d0 ff3d b37d 393e ed00 3d3e 2b79 043e
00000020: 921c 07be 59d5 a43d 7cf9 52be ddcf 123e
00000030: b334 2cbe 6e1d 043e 1a7c 1c3e 893c 153e

layers.2.att_ls.1.weight f4 [1, 16]
0.055557124 0.19677536 -0.17181642 -0.08199546 0.1591894 -0.055264708 -0.15098397 0.07548876
-0.08148195 -0.21852985 0.13447362 -0.13132796 0.0051441463 0.25365177 -0.023894675 -0.08496405
00000000: de8f 633d 7b7f 493e a5f0 2fbe 3ced a7bd
00000010: 8c02 233e 3f5d 62bd 8b9b 1abe da99 9a3d
00000020: 02e0 a6bd 4ac6 5fbe 74b3 093e d67a 06be
00000030: 3a90 a83b a5de 813e c4be c3bc a201 aebd

layers.2.att_rs.0.weight f4 [1, 16]
-0.15478928 0.095593095 0.20422006 0.08992921 0.1256394 0.07754326 0.01602758 -0.07981898
0.07199611 -0.23516643 -0.004974505 0.037723713 -0.04015906 0.15924957 -0.13270168 -0.14395282
00000000: 1581 1ebe 50c6 c33d 101f 513e ce2c b83d
00000010: 9da7 003e 00cf 9e3d 454c 833c 2278 a3bd
00000020: b272 933d 78cf 70be 2c01 a3bb 2e84 1a3d
00000030: d47d 24bd 5212 233e f3e2 07be 5e68 13be

layers.2.att_rs.1.weight f4 [1, 16]
-0.04058002 -0.015603594 0.17282532 0.14964509 -0.057343084 0.1391264 -0.18267655 -0.04840671
-0.013901621 0.1294476 -0.026538994 -0.13868116 -0.002957384 -0.17963053 0.1896243 -0.13126078
00000000: 3c37 26bd 37a6 7fbc 1ff9 303e 903c 193e
00000010: 95e0 6abd 2777 0e3e 900f 3bbe 1d46 46bd
00000020: a0c3 63bc e98d 043e 4e68 d9bc 6f02 0ebe
00000030: acd0 41bb 11f1 37be df2c 423e 3a69 06be

layers.2.graph_to_feat.linear1.weight f4 [8, 16]
-0.0047070757 -0.08040566 -0.20908254 -0.20616178 0.104052514 -0.07064746 -0.14601754 0.2299215
-0.17703342 0.010825682 0.100166485 -0.1918904 -0.12638685 0.046955384 0.13743715 -0.057901695
0.21281038 -0.19820999 0.11142174 0.11804912 -0.08583604 0.20277973 0.06008473 -0.21812746
0.26778272 0.14558442 0.20762719 -0.14176646 0.01953917 0.21290903 0.21510196 0.0035991373
-0.07091342 -0.11665443 0.11382925 -0.16056229 0.0107486835 0.23135592 0.015338734 0.07552107
0.12625057 0.23767489 0.21743128 0.010971577 0.118758835 0.1675366 0.11611898 0.103460506
0.060079187 -0.044373292 -0.16117345 0.052124806 0.08713342 0.22761022 -0.1535428 -0.15362975
-0.013014883 -0.0396539 0.060505513 0.062150713 -0.05992102 0.08586925 0.1241459 0.09680512
-0.06449502 0.13600674 -0.16780438 0.020821037 -0.0818175 0.21464348 0.035496794 -0.21869075
-0.0582996 -0.13013054 0.18881936 0.036970194 -0.112098746 -0.16974655 0.07033953 0.062893264
-0.07579316 0.040732905 -0.13068818 0.10590764 0.066090606 0.2312669 0.21051955 0.1845711
-0.10164616 0.21116024 -0.064918734 0.034738988 0.16628323 0.0682275 -0.07535566 -0.024131311
0.02817095 -0.14454034 0.11070321 -0.059658747 -0.18295945 0.2305226 -0.0315375 -0.24843425
-0.26403838 0.19691525 -0.017958112 -0.02339737 0.16996916 0.009017362 -0.023578424 0.15704641
-0.018120341 -0.032234102 -0.20951559 -0.24234997 0.033477385 0.011324044 0.25579378 0.20812778
0.2394188 0.14388469 -0.1657742 -0.070555694 -0.14466698 -0.051783334 -0.0118842805 -0.020216452
00000000: d03d 9abb b9ab a4bd bc19 56be 131c 53be
00000010: 7c19 d53d 9eaf 90bd 9f85 15be 8b70 6b3e
00000020: 4048 35be 345e 313c 1624 cd3d eb7e 44be
00000030: 8e6b 01be 4a54 403d 53bc 0c3e 542a 6dbd
00000040: f7ea 593e 8ff7 4abe 1531 e43d bdc3 f13d
00000050: ceca afbd 7da5 4f3e 681b 763d ce5c 5fbe
00000060: d11a 893e 1514 153e 399c 543e 3a2b 11be
00000070: 9c10 a03c d304 5a3e b043 5c3e 81df 6b3b
00000080: 0e3b 91bd 85e8 eebd 4f1f e93d 716a 24be
00000090: 3f1b 303c 91e8 6c3e 504f 7b3c caaa 9a3d
000000a0: d447 013e 0c61 733e 4ea6 5e3e 21c2 333c
000000b0: d537 f33d b78e 2b3e cacf ed3d 1ae3 d33d
000000c0: 9815 763d c5c0 35bd a70a 25be d280 553d
000000d0: 0273 b23d a712 693e 533a 1dbe 1e51 1dbe
000000e0: 603c 55bc 216c 22bd a1d4 773d bf91 7e3d
000000f0: be6f 75bd 38dc af3d 3540 fe3d c341 c63d
00000100: f715 84bd 5a45 0b3e e9d4 2bbe e190 aa3c
00000110: ef8f a7bd 80cb 5b3e 1665 113d 78f0 5fbe
00000120: 90cb 6ebd f140 05be dd59 413e 0f6e 173d
00000130: 0794 e5bd 0ad2 2dbe 2c0e 903d 2fce 803d
00000140: 7239 9bbd 8cd7 263d 1fd3 05be 1be6 d83d
00000150: 835a 873d 3bd1 6c3e 7092 573e 3500 3d3e
00000160: dd2b d0bd 643a 583e 1df4 84bd 784a 0e3d
00000170: 2746 2a3e dcba 8b3d 1154 9abd 07af c5bc
00000180: c4c6 e63c 6202 14be 5db8 e23d bb5c 74bd
00000190: b959 3bbe 1e0e 6c3e 772d 01bd 8c65 7ebe
000001a0: 0a30 87be 27a4 493e e41c 93bc d7ab bfbc
000001b0: 650c 2e3e 8fbd 133c 8a27 c1bc c6d0 203e
000001c0: 1c71 94bc e807 04bd 418b 56be 972a 78be
000001d0: 951f 093d 7c88 393c 67f7 823e 731f 553e
000001e0: 342a 753e 8256 133e b6c0 29be 817f 90bd
000001f0: 9523 14be c31a 54bd 49b6 42bc f99c a5bc

layers.2.graph_to_feat.linear1.bias f4 [8]
0.04767514 -0.2303272 0.21858643 0.15157767 0.030664302 -0.04613112 0.26471424 0.22330104
00000000: 0247 433d e5da 6bbe 1fd5 5f3e 2d37 1b3e
00000010: b433 fb3c fcf3 3cbd a088 873e 07a9 643e

layers.2.graph_to_feat.linear2.weight f4 [16, 8]
0.062719285 0.29220402 0.12564972 -0.21439326 0.1355183 -0.3525448 -0.29773918 0.30481932
-0.096233316 0.30267864 0.06735517 -0.3574549 0.26434726 -0.16327843 0.0045613283 0.21965756
0.19244248 -0.11927607 -0.005051924 0.31194597 -0.28171298 0.31763393 0.3013646 -0.061097737
-0.26626596 -0.15070382 0.19107126 0.29142252 0.21955325 -0.16807342 -0.052908774 -0.36215246
-0.26511148 0.14371681 0.13961574 0.30788553 0.087101795 -0.27493647 0.042892747 -0.25364548
-0.36509404 -0.03679698 0.13013281 0.03841217 -0.20104034 0.3497211 0.032608785 0.23304212
-0.27175394 -0.0010639295 -0.29592007 0.3634147 0.36362413 0.08499384 -0.031799175 0.22704165
0.09212272 -0.36887234 0.15919773 0.30278304 0.28040698 0.3479834 -0.23280479 -0.148686
0.36678606 0.24583462 0.32307544 -0.22109193 -0.051148154 0.31372586 -0.009609632 0.18290895
-0.2633887 -0.029718157 0.14361608 -0.25808448 -0.28901586 0.17640221 -0.18479158 0.21643256
-0.012776293 -0.12430236 -0.21428926 0.21742593 -0.112378925 0.32947484 -0.036111187 -0.2699687
0.24401411 -0.25891578 0.074204825 0.2538817 -0.18337531 0.042982128 -0.16829082 0.1169902
0.23427734 -0.008750238 -0.000457322 -0.08148356 0.040951736 0.356288 -0.3165766 0.20305689
-0.08038997 -0.34615532 0.18144813 0.34644794 0.119777456 -0.20888898 -0.20882753 0.17239714
0.29843202 -0.02969448 0.30675787 0.010377935 -0.26187557 0.2438261 0.056269165 -0.31577608
-0.2724044 0.31090412 -0.10740991 -0.18671931 0.026032414 -0.11204211 0.016445456 -0.24359572
00000000: f872 803d c49b 953e 52aa 003e e889 5bbe
00000010: 4fc5 0a3e c180 b4be 4571 98be 4711 9c3e
00000020: f915 c5bd b2f8 9a3e 82f1 893d 5404 b7be
00000030: 8658 873e 7632 27be 3277 953b e9ed 603e
00000040: a40f 453e 0347 f4bd 9c8a a5bb 62b7 9f3e
00000050: af3c 90be eaa0 a23e 764c 9a3e 9f41 7abd
00000060: 0354 88be 1a52 1abe 2fa8 433e 5535 953e
00000070: 91d2 603e 701b 2cbe dfb6 58bd 0c6c b9be
00000080: b1bc 87be 802a 133e 6ef7 0e3e 2ca3 9d3e
00000090: 6d62 b23d 79c4 8cbe 4eb0 2f3d d2dd 81be
000000a0: 9bed babe 6eb8 16bd 8941 053e 1456 1d3d
000000b0: 85dd 4dbe a50e b33e ca90 053d 98a2 6e3e
000000c0: 5523 8bbe 8d73 8bba d682 97be 7e11 ba3e
000000d0: f12c ba3e 4011 ae3d da3f 02bd 9b7d 683e
000000e0: d6aa bc3d d6dc bcbe bb04 233e 6106 9b3e
000000f0: 8191 8f3e e12a b23e 6164 6ebe 2541 18be
00000100: 62cb bb3e 12bc 7b3e 256a a53e ec65 62be
00000110: ba80 51bd ada0 a03e b871 1dbc 7c4c 3b3e
00000120: e2da 86be 7e73 f3bc 1810 133e a623 84be
00000130: e3f9 93be c8a2 343e 013a 3dbe 7fa0 5d3e
00000140: a853 51bc 3c92 febd a56e 5bbe e7a4 5e3e
00000150: ec26 e6bd edb0 a83e 53e9 13bd 5639 8abe
00000160: d6de 793e 9c90 84be b3f8 973d c8fc 813e
00000170: bdc6 3bbe 070e 303d 6e54 2cbe 8f98 ef3d
00000180: 66e6 6f3e 295d 0fbc b8c4 efb9 dae0 a6bd
00000190: 02bd 273d 616b b63e 5416 a2be 25ee 4f3e
000001a0: 7fa3 a4bd 453b b1be 8acd 393e a061 b13e
000001b0: e24d f53d fee6 55be e2d6 55be e088 303e
000001c0: 15cc 983e d741 f3bc 5e0f 9d3e 3708 2a3c
000001d0: 8e14 86be 8dad 793e 7f7a 663d 67ad a1be
000001e0: 9778 8bbe d32e 9f3e baf9 dbbd 5933 3fbe
000001f0: ee41 d53c 5576 e5bd 9fb8 863c 2871 79be

layers.2.graph_to_feat.linear2.bias f4 [16]
0.28424895 -0.038082764 0.09953959 0.28627875 -0.16457056 0.18892065 -0.020259438 0.17747505
-0.3102717 -0.038820542 -0.28622487 0.107314825 -0.1722754 0.07774876 0.31696215 0.05851218
00000000: 1489 913e acfc 1bbd 6adb cb3d 2193 923e
00000010: 2f85 28be 6a74 413e 1ff7 a5bc 05bc 353e
00000020: efdb 9ebe 4a02 1fbd 118c 92be e0c7 db3d
00000030: f668 30be be3a 9f3d dd48 a23e 78aa 6f3d

layers.2.classifier.weight f4 [2, 16]
-0.10986107 0.01245785 -0.07972625 -0.21100265 0.19945912 0.12923647 -0.20406926 0.21013224
-0.10848753 -0.05466956 -0.22758746 -0.12869649 0.14600748 0.2645903 0.11087436 0.22978307
0.19016139 0.088829316 0.090556696 -0.14490943 -0.048715476 -0.12945189 -0.2443454 0.086835206
0.23938179 0.12428063 -0.0717279 0.08667619 0.012443123 -0.1818708 -0.20767386 0.24192986
00000000: d7fe e0bd 031c 4c3c 8447 a3bd 1411 58be
00000010: 033f 4c3e 9156 043e 88f7 50be e82c 573e
00000020: b62e debd 30ed 5fbd b00c 69be 03c9 03be
00000030: fc82 153e 6178 873e 1912 e33d 414c 6b3e
00000040: abb9 423e 25ec b53d ca75 b93d 2363 14be
00000050: e189 47bd 098f 04be ae35 7abe a8d6 b13d
00000060: 8020 753e d886 fe3d 14e6 92bd 4983 b13d
00000070: 3ede 4b3c 573c 3abe 75a8 54be 76bc 773e

layers.2.classifier.bias f4 [2]
-0.0036776722 -0.11079945
00000000: 1a05 71bb d2ea e2bd

layers.3.linear.weight f4 [16, 32]
0.012293026 -0.10286527 -0.1218233 0.037350513 0.06685509 0.09539355 -0.08962274 0.044280987
0.050429076 -0.110874675 -0.12499044 0.10742731 -0.0075030476 -0.12515004 0.040461708 0.09719201
-0.17233685 0.1522281 0.07730982 -0.080376826 0.13034184 -0.1654881 0.036046773 0.0010454862
0.10614653 -0.1485315 -0.1438717 0.032625537 -0.111836076 -0.18666598 0.04824961 0.100661516
0.021424012 -0.1412605 -0.05275081 -0.072765924 0.16214956 -0.16189224 0.007898518 0.16823396
-0.13182032 -0.0061968835 -0.17273764 -0.18473546 -0.0056812377 -0.124796756 -0.11882617 0.111767724
-0.17149837 -0.11429371 -0.14171481 -0.0010717533 -0.15715975 -0.19377457 0.16264279 -0.1319408
-0.010299172 -0.076682076 0.037294447 -0.05494451 0.15428165 0.1477438 0.17470701 -0.11756758
0.1085928 0.06383777 -0.011425726 0.022231935 -0.0649303 -0.120197006 0.029471446 -0.14775008
0.1306666 0.065079935 -0.058706097 -0.07188198 0.007565017 -0.028290803 -0.020928046 0.047471512
-0.109156646 -0.07570809 -0.028409064 0.12405544 -0.037941303 0.097208306 0.06170074 0.11995981
-0.06899027 -0.04647317 -0.024635071 0.06795946 0.18027064 -0.01889472 0.17279926 0.0214905
0.012872142 0.11080925 0.056207724 -0.121471114 -0.14009678 0.029517483 -0.16906475 0.026427418
0.14093074 0.11443298 -0.07997514 -0.1472839 -0.070541345 0.101479515 -0.017670505 0.09708319
0.17614414 -0.0485217 -0.044218533 0.06845712 -0.1360482 0.02575731 0.13328451 0.060691945
0.026569247 0.18959261 -0.18855935 -0.0036984598 -0.012457454 0.12188658 -0.027774617 0.018444082
0.16734895 0.061901495 -0.11481343 0.16898428 0.021090357 0.12825923 0.011670235 -0.15147737
0.12077269 0.012557151 -0.083890386 -0.066502616 0.008387522 -0.18745875 -0.104268834 0.14149465
0.06333236 -0.06254141 0.052010544 0.06557621 0.09303859 -0.07621616 -0.13248713 0.06702259
-0.17754176 0.024035215 -0.120067954 0.031424835 0.004335951 -0.16430935 0.0919413 -0.14374188
-0.06201495 -0.08976147 0.014891442 0.18684 0.14611092 -0.12653063 -0.16239074 0.12352227
-0.06941401 0.011393777 -0.032122552 -0.05176859 0.07773514 0.082570665 -0.14141695 -0.058573354
-0.016723271 -0.108651735 -0.03744918 -0.061135165 -0.14814621 0.124759845 0.13024223 -0.060371615
0.15759805 0.058360245 -0.1038408 -0.15254164 0.15572841 0.06417634 -0.114258185 0.092691585
0.010300876 0.05769118 0.15426478 0.16383149 -0.029215157 -0.13508777 -0.043586895 0.15007547
0.0009704585 0.16997005 -0.121962644 -0.09356185 0.15371239 -0.14939949 0.081464425 0.1203409
0.025081081 0.09447264 0.09745327 0.036190152 -0.02989752 -1.3501616e-05 0.04749803 0.059410386
0.17064431 0.11629847 0.031673733 0.097719744 -0.16526952 -0.07548396 -0.100732155 -0.047033716
0.102638274 -0.027106147 0.061284553 0.05530258 0.13507572 0.1863106 -0.14275548 -0.16350375
-0.094974026 0.11183944 -0.073694184 -0.034613073 -0.07926727 -0.09875217 -0.17035909 -0.08208781
-0.1483848 0.05938436 -0.13679159 0.043998715 -0.06872574 -0.15334684 -0.16443497 0.16679439
-0.012822081 0.11006935 0.078444615 0.06516881 -0.17091407 -0.04775642 -0.12072541 -0.07838442
00000000: b068 493c 07ab d2bd 7f7e f9bd dafc 183d
00000010: 52eb 883d b25d c33d 218c b7bd fb5f 353d
00000020: b88e 4e3d 4312 e3bd fdfa ffbd d902 dc3d
00000030: 20dc f5bb 5527 00be 2dbb 253d 9b0c c73d
00000040: 1279 30be afe1 1b3e 9c54 9e3d 9b9c a4bd
00000050: 5578 053e b675 29be c8a5 133d b208 893a
00000060: 5a63 d93d a418 18be 1a53 13be 5ba2 053d
00000070: 500a e5bd 5e25 3fbe 62a1 453d a027 ce3d
00000080: 6981 af3c 98a6 10be 3c11 58bd 4d06 95bd
00000090: 890a 263e 14c7 25be c968 013c 8645 2c3e
000000a0: e8fb 06be 3a0f cbbb 23e2 30be 4b2b 3dbe
000000b0: ad29 babb 7195 ffbd 235b f3bd 7ae6 e43d
000000c0: 459d 2fbe d212 eabd b01d 11be 137a 8cba
000000d0: 7cee 20be d76c 46be d58b 263e 7d1b 07be
000000e0: dcbd 28bc 7e0b 9dbd 10c2 183d 7f0d 61bd
000000f0: 02fc 1d3e 274a 173e 65e6 323e 45c7 f0bd
00000100: e765 de3d 60bd 823d f832 3bbc bf1f b63c
00000110: 2dfa 84bd d929 f6bd 1a6e f13c cc4b 17be
00000120: 77cd 053e a148 853d ce75 70bd dc36 93bd
00000130: f6e3 f73b 1dc2 e7bc 4b71 abbc 7d71 423d
00000140: 858d dfbd d80c 9bbd 20ba e8bc c710 fe3d
00000150: 5768 1bbd 2615 c73d eab9 7c3d 7dad f53d
00000160: c54a 8dbd a75a 3ebd 7dcf c9bc 542e 8b3d
00000170: de98 383e 1ac9 9abc 4af2 303e d80c b03c
00000180: ade5 523c f6ef e23d 123a 663d d9c5 f8bd
00000190: 8875 0fbe a6ce f13c 4f1f 2dbe 507e d83c
000001a0: 2650 103e d75b ea3d 02ca a3bd 97d1 16be
000001b0: fb77 90bd 7ed4 cf3d bcc1 90bc 8dd3 c63d
000001c0: 215f 343e b1be 46bd 7e1e 35bd 3f33 8c3d
000001d0: 3850 0bbe ff00 d33c bc7b 083e 1e98 783d
000001e0: c0a7 d93c 9124 423e b415 41be dc61 72bb
000001f0: 591a 4cbc ac9f f93d 9887 e3bc 0b18 973c
00000200: 865d 2b3e 6c8c 7d3d 4e23 ebbd 370a 2d3e
00000210: afc5 ac3c 6356 033e 8334 3f3c e21c 1bbe
00000220: ac57 f73d 82bc 4d3c b9ce abbd 8632 88bd
00000230: d16b 093c 30f5 3fbe e68a d5bd f9e3 103e
00000240: 65b4 813d b615 80bd 0209 553d d24c 863d
00000250: 048b be3d 3817 9cbd b5aa 07be 2443 893d
00000260: 82cd 35be 80e5 c43c 30e6 f5bd 54b7 003d
00000270: 9814 8e3b b640 28be b84b bc3d 1231 13be
00000280: 6303 7ebd ddd4 b7bd 3cfb 733c fc52 3f3e
00000290: 1a9e 153e 3f91 01be c249 26be 3ef9 fc3d
000002a0: ef28 8ebd f7ac 3a3c f092 03bd 4d0b 54bd
000002b0: 9a33 9f3d cf1a a93d 9bcf 10be 9dea 6fbd
000002c0: 3eff 88bc cd84 debd 5064 19bd de68 7abd
000002d0: a4b3 17be 1782 ff3d 385e 053e 3a48 77bd
000002e0: 6261 213e 270b 6f3d 7caa d4bd e033 1cbe
000002f0: 4577 1f3e e36e 833d 3200 eabd 16d5 bd3d
00000300: 01c5 283c 964d 6c3d 96f7 1d3e 71c3 273e
00000310: a054 efbc 7354 0abe 2c88 32bd 62ad 193e
00000320: 5e66 7e3a a10c 2e3e 8dc7 f9bd 5b9d bfbd
00000330: c866 1d3e 2efc 18be d2d6 a63d 4a75 f63d
00000340: d776 cd3c df7a c13d 9495 c73d 203c 143d
00000350: a5eb f4bc 0085 62b7 4b8d 423d 4e58 733d
00000360: 62bd 2e3e e42d ee3d 51bc 013d 4a21 c83d
00000370: 6a3c 29be 5697 9abd a94c cebd 6da6 40bd
00000380: 0434 d23d b60d debc 8305 7b3d f584 623d
00000390: 4a51 0a3e 35c8 3e3e 7e2e 12be 876d 27be
000003a0: be81 c2bd 140c e53d faec 96bd 70c6 0dbd
000003b0: e156 a2bd 943e cabd 9d72 2ebe a71d a8bd
000003c0: 2ff2 17be 043d 733d 1813 0cbe ff37 343d
000003d0: 15c0 8cbd f406 1dbe a461 28be 26cc 2a3e
000003e0: b513 52bc 0a6c e13d 92a7 a03d 3a77 853d
000003f0: 1904 2fbe 3c9c 43bd e23e f7bd 0388 a0bd

layers.3.linear.bias f4 [16]
0.012469814 0.09071216 -0.13447368 -0.17292678 0.15511234 0.017586587 0.1242973 -0.07706464
-0.01673855 0.13243948 -0.03974125 0.14528373 0.059793368 0.11583171 -0.07995091 0.012734691
00000000: 314e 4c3c 4cc7 b93d 78b3 09be b813 31be
00000010: c5d5 1e3e bf11 903c 958f fe3d 11d4 9dbd
00000020: 491f 89bc 379e 073e b9c7 22bd 42c5 143e
00000030: e4e9 743d 2d39 ed3d 4dbd a3bd 2aa5 503c

layers.3.att_ls.0.weight f4 [1, 16]
0.025855329 -0.02366203 -0.0723524 0.19825117 -0.035205916 0.24094288 -0.0036403195 0.16059089
0.020914286 0.1057933 -0.15521248 -0.0076281 0.19038129 0.07166147 -0.14999154 0.014573024
00000000: 8ece d33c e0d6 c1bc 7f2d 94bd 5b02 4b3e
00000010: 1434 10bd bbb9 763e 6d92 6ebb f071 243e
00000020: 7054 ab3c 28aa d83d 05f0 1ebe 24f5 f9bb
00000030: 50f3 423e 40c3 923d 6297 19be b1c3 6e3c

layers.3.att_ls.1.weight f4 [1, 16]
0.14673322 0.22984895 -0.031301197 0.12537703 0.2298401 -0.13017865 -0.06953544 -0.21361375
0.04580739 -0.08190548 0.2178182 -0.1943628 -0.1263645 -0.06925425 0.18954742 -0.120682724
00000000: 3c41 163e 865d 6b3e af35 00bd d662 003e
00000010: 345b 6b3e 8d4d 05be 9968 8ebd 90bd 5abe
00000020: 88a0 3b3d 0fbe a7bd bc0b 5f3e 0b07 47be
00000030: b265 01be 2cd5 8dbd b818 423e 8128 f7bd

layers.3.att_rs.0.weight f4 [1, 16]
0.046676 0.16836882 -0.18118416 0.1452063 0.03090216 0.092050195 0.07346096 0.13806935
0.04885663 0.21504098 0.0114407 0.14142033 -0.055172283 -0.21767269 0.016142095 0.2295614
00000000: 552f 3f3d e068 2c3e 5788 39be f6b0 143e
00000010: 8726 fd3c d084 bc3d b372 963d 0d62 0d3e
00000020: e41d 483d b433 5c3e c671 3b3c 7ed0 103e
00000030: 55fc 61bd 97e5 5ebe 6d3c 843c 2512 6b3e

layers.3.att_rs.1.weight f4 [1, 16]
-0.090170935 0.16146392 -0.19757882 0.017649757 0.172244 0.085592926 0.15064977 -0.15446435
0.11267131 -0.073805876 -0.14916801 -0.13491818 -0.1625667 0.09788347 0.23149432 -0.031359464
00000000: 8aab b8bd cc56 253e 1a52 4abe 3996 903c
00000010: bb60 303e 584b af3d ef43 1a3e e72b 1ebe
00000020: 37c0 e63d 8927 97bd 80bf 18be fe27 0abe
00000030: e377 26be 2177 c83d d90c 6d3e c872 00bd

layers.3.graph_to_feat.linear1.weight f4 [8, 16]
-0.14962901 0.24381585 0.2122677 0.23725103 -0.22735715 0.023047747 0.16899824 0.04740522
0.09424366 0.21842456 -0.09184329 0.075869545 -0.0042488514 -0.21514389 -0.03234264 -0.16127263
-0.2635103 -0.09867324 -0.2306373 0.25498396 -0.032858595 -0.048522435 0.13511412 0.20562252
-0.0128672235 -0.22037078 -0.10435493 0.20522295 -0.082592994 0.0005397096 0.22312008 -0.0640351
0.020299807 0.034632746 -0.0104010785 0.25313652 -0.093143284 0.18927751 0.051855985 0.09625695
0.11839353 0.15736015 -0.09487654 -0.20987302 0.10689818 -0.0065977173 0.0007142124 0.1375223
-0.19775967 -0.053885654 -0.037153337 -0.0045095887 0.120200716 -0.02212593 -0.020163652 0.036478937
-0.24964865 0.066646695 -0.06303129 -0.18426587 0.22803847 0.23251916 0.14166012 -0.21107468
0.029046232 0.13840668 0.018448107 -0.16498014 -0.1558538 0.1602631 0.25428933 0.1887604
-0.1275838 -0.066921026 0.1847108 -0.1613546 0.08765546 0.1312518 0.12651943 -0.026121307
0.031154728 0.12400211 -0.119707674 0.11812692 -0.2533232 -0.121927395 -0.1851721 0.18269257
-0.23653391 0.10763404 0.045217 -0.19554043 0.02430832 0.24693896 0.24128416 0.19788939
-0.25444016 -0.14504083 0.09651558 -0.041625515 0.029018814 -0.13693678 -0.045688663 -0.123121575
-0.24938305 -0.0044274298 -0.042867366 0.21696192 -0.15508127 0.2593602 -0.09828943 -0.24189976
0.03147683 -0.02617127 0.20728655 0.1517754 -0.15409331 0.13256797 -0.0012731971 0.22392058
0.12570542 0.088797316 -0.14442578 -0.16316417 0.04805366 0.0892136 -0.16554196 -0.18405055
00000000: 5938 19be ddaa 793e b45c 593e eff1 723e
00000010: 50d0 68be a1ce bc3c e00d 2d3e fa2b 423d
00000020: d202 c13d b0aa 5f3e 5618 bcbd 7e61 9b3d
00000030: f339 8bbb ae4e 5cbe b779 04bd a724 25be
00000040: d2ea 86be 3215 cabd 2f2c 6cbe 428d 823e
00000050: bc96 06bd 76bf 46bd 5b5b 0a3e b68e 523e
00000060: 0cd1 52bc e1a8 61be 0ab8 d5bd f725 523e
00000070: 8426 a9bd 4c7b 0d3a 9779 643e d624 83bd
00000080: c84b a63c 11db 0d3d 4969 2abc 1c9b 813e
00000090: e8c1 bebd f7d1 413e f166 543d 5d22 c53d
000000a0: 4f78 f23d 0523 213e a24e c2bd f4e8 56be
000000b0: 6fed da3d aa31 d8bb fc39 3b3a a5d2 0c3e
000000c0: 8381 4abe 34b7 5cbd 192e 18bd 2cc5 93bb
000000d0: cb2b f63d 7041 b5bc 3e2e a5bc f06a 153d
000000e0: e5a3 7fbe 107e 883d 8d16 81bd 31b0 3cbe
000000f0: eb82 693e 8119 6e3e 5a0f 113e f623 58be
00000100: 5df2 ed3c 7bba 0d3e 7c20 973c 8ef0 28be
00000110: 2398 1fbe 031c 243e 3632 823e 684a 413e
00000120: 54a5 02be e40d 89bd d424 3d3e 243a 25be
00000130: b584 b33d df66 063e 4f8e 013e 5afc d5bc
00000140: 3338 ff3c d1f4 fd3d 4c29 f5bd 87ec f13d
00000150: 94b3 81be 12b5 f9bd c19d 3dbe c313 3b3e
00000160: f235 72be 3c6f dc3d 7635 393d c03b 48be
00000170: 3e22 c73c 91dd 7c3e 3213 773e 84a3 4a3e
00000180: fb45 82be 9585 14be f6a9 c53d 847f 2abd
00000190: ddb8 ed3c 2839 0cbe 0924 3bbd 2a27 fcbd
000001a0: 455e 7fbe f913 91bb b195 2fbd 442b 5e3e
000001b0: a0cd 1ebe dcca 843e f84b c9bd 92b4 77be
000001c0: d9ed 003d 2265 d6bc ed42 543e 036b 1b3e
000001d0: a3ca 1dbe e6bf 073e 68e1 a6ba 704b 653e
000001e0: ecb8 003e 5edb b53d 5ae4 13be 8214 27be
000001f0: ead3 443d 9fb5 b63d d583 29be bf77 3cbe

layers.3.graph_to_feat.linear1.bias f4 [8]
-0.19749016 -0.1517529 0.0011698466 -0.1070995 0.22770816 0.18715043 -0.21490872 -0.011588582
00000000: dc3a 4abe 1d65 1bbe 8a55 993a fc56 dbbd
00000010: 542c 693e 5da4 3f3e 0811 5cbe 09de 3dbc

layers.3.graph_to_feat.linear2.weight f4 [16, 8]
0.19315338 0.17621839 -0.11835176 0.026701842 -0.3142924 -0.3054109 -0.33418304 0.20240827
-0.12579101 0.22274177 -0.15396915 -0.13494995 0.073748685 -0.29235718 -0.2908644 0.013083478
0.032947537 -0.26215455 0.009331729 0.03403131 -0.23164651 -0.19287167 -0.36256504 0.33186167
-0.14204958 0.1324356 -0.24117476 -0.19481926 -0.25249016 -0.1485728 0.19641377 0.12778433
-0.3369405 0.21496023 -0.22353174 0.29708284 0.29588565 -0.033870433 0.31257313 0.0114547685
0.18802276 0.19071706 0.009638935 -0.2606158 -0.25925317 0.35024163 -0.22785835 -0.009442668
0.12125114 -0.20333195 0.045453157 -0.0040781926 0.13962927 0.021625763 -0.020359673 -0.22491547
-0.25578943 0.04589492 0.24826282 0.08024109 0.033737075 -0.2952566 0.15502377 -0.21804349
0.13931827 -0.05503326 -0.23586689 0.095938265 -0.15404071 -0.18520021 -0.21864294 -0.11120988
-0.043015186 -0.27029657 0.037327364 -0.22453336 -0.17765787 0.36630544 0.24459738 -0.21408823
-0.29241344 0.2612914 -0.24262913 -0.019200463 -0.05793946 -0.20288892 0.106410146 -0.0794963
0.24274744 -0.18451327 0.17640693 0.037086967 -0.3031609 0.14151873 -0.071492836 -0.13864906
0.29325956 0.017732805 -0.19956587 0.16346884 0.03282033 -0.050202057 -0.14700694 0.033368222
-0.23683435 0.28335223 0.34904093 0.31114325 0.35167262 -0.08272059 -0.22508359 -0.27528775
0.24565934 0.03428302 0.24841368 0.23355049 -0.021284323 -0.1881102 -0.0666257 0.23281585
0.37078878 -0.18611626 0.1453828 -0.064549334 -0.30160266 -0.18939066 -0.26005176 -0.14448252
00000000: 00ca 453e 9872 343e 6862 f2bd d2bd da3c
00000010: efea a0be d15e 9cbe 0a1a abbe 1d44 4f3e
00000020: 5ccf 00be 6b16 643e 17aa 1dbe 5230 0abe
00000030: 8d09 973d d7af 95be 2eec 94be 165c 563c
00000040: fff3 063d 1f39 86be 1ce4 183c 6a64 0b3d
00000050: be34 6dbe 2780 45be 20a2 b9be c6e9 a93e
00000060: 7275 11be 339d 073e 84f6 76be b37e 47be
00000070: 6446 81be 7823 18be b120 493e e5d9 023e
00000080: 7783 acbe 891e 5c3e 81e5 64be 3e1b 983e
00000090: 537e 973e b9bb 0abd 9609 a03e c8ac 3b3c
000000a0: 0a89 403e 554b 433e a0ec 1d3c 6f6f 85be
000000b0: d5bc 84be df52 b33e b353 69be 6cb5 1abc
000000c0: 8552 f83d 4036 50be 172d 3a3d 5ca2 85bb
000000d0: fafa 0e3e 8328 b13c 54c9 a6bc 3e50 66be
000000e0: d5f6 82be 50fc 3b3d 9c38 7e3e 7155 a43d
000000f0: e32f 0a3d e02b 97be 8dbe 1e3e cb46 5fbe
00000100: 73a9 0e3e 8e6a 61bd 1787 71be 487b c43d
00000110: d9bc 1dbe 20a5 3dbe efe3 5fbe 01c2 e3bd
00000120: b130 30bd 5064 8abe 94e4 183d 13ec 65be
00000130: f2eb 35be 638c bb3e bc77 7a3e f239 5bbe
00000140: 37b7 95be fdc7 853e c573 78be 4a4a 9dbc
00000150: ed51 6dbd 1dc2 4fbe 90ed d93d f5ce a2bd
00000160: c992 783e 0cf1 3cbe 05a4 343e 81e8 173d
00000170: e837 9bbe 49ea 103e d66a 92bd 05fa 0dbe
00000180: 1e26 963e 6344 913c ff5a 4cbe 6064 273e
00000190: 9c6e 063d aca0 4dbd fd88 16be 1ead 083d
000001a0: b484 72be 8b13 913e 7eb5 b23e 2b4e 9f3e
000001b0: 6f0e b43e 6a69 a9bd 507c 66be 84f2 8cbe
000001c0: 1f8e 7b3e 5a6c 0c3d 2860 7e3e dc27 6f3e
000001d0: 765c aebc f69f 40be 0e73 88bd 4767 6e3e
000001e0: 07d8 bd3e 4395 3ebe 3bdf 143e 7132 84bd
000001f0: aa6b 9abe a0ef 41be 8125 85be 3af3 13be

layers.3.graph_to_feat.linear2.bias f4 [16]
-0.18620475 -0.18983676 0.15275192 -0.28792888 0.35722592 -0.087530404 -0.16656362 0.231713
-0.17490588 0.12315543 0.14193414 -0.29083508 -0.17277412 0.30745023 -0.18533263 -0.05226459
00000000: 75ac 3ebe 9164 42be 006b 1c3e 6a6b 93be
00000010: 51e6 b63e 2443 b3bd a78f 2abe 2c46 6d3e
00000020: 871a 33be ea38 fc3d 2f57 113e 56e8 94be
00000030: b3eb 30be 1e6a 9d3e d6c7 3dbe 6513 56bd

layers.3.classifier.weight f4 [2, 16]
0.05519015 0.114045516 0.07600037 0.19823876 0.119656645 -0.21972357 -0.14048196 0.19238135
-0.08967613 0.06738484 0.16855493 0.08277385 -0.097905934 0.23332348 -0.23025781 -0.22351234
0.26866683 0.11833071 0.21334529 0.07605402 -0.15536809 0.075306505 -0.14185525 0.117808476
0.041448865 0.07867064 0.036051597 0.17513521 -0.15264808 0.025400039 0.040647633 0.037331805
00000000: 110f 623d b290 e93d 15a6 9b3d 1aff 4a3e
00000010: 8b0e f53d 37ff 60be 81da 0fbe 9eff 443e
00000020: 1ea8 b7bd 1001 8a3d aa99 2c3e 5685 a93d
00000030: e882 c8bd 5aec 6e3e b4c8 6bbe 6be0 64be
00000040: b38e 893e 5f57 f23d 3077 5a3e 36c2 9b3d
00000050: d018 1fbe 4c3a 9a3d 8142 11be 9245 f13d
00000060: 49c6 293d 131e a13d d7aa 133d a556 333e
00000070: c74f 1cbe be13 d03c 227e 263d 3ce9 183d
